experiments/WHU_Hi_LongKou/WHU_Hi_LongKou_best.pth (torch, 330106 bytes, 20 tensors)

conv1.weight f4 [16, 1, 3, 3, 7]
0.26612103 0.16126612 0.1418338 0.09022981 0.19451898 0.06618034 0.03327793 -0.2936213
-0.313469 -0.424687 -0.20290771 -0.33586317 -0.39210573 -0.28241855 0.2032313 0.062145688
0.23630004 0.12755604 0.27052322 0.23725846 0.14382616 0.20147762 0.2718012 0.22976507
0.1285078 0.3445565 0.2496509 0.16381302 0.025635604 0.006226286 -0.07326471 -0.029016294
0.0046410416 0.05593377 -0.020789282 -0.8247725 -1.0706108 -1.0399299 -0.8994738 -0.9498349
-1.0309474 -1.0534194 -0.49521244 -0.4062831 -0.46897864 -0.41188914 -0.29828358 -0.3495524
-0.23722388 0.16409972 0.01486647 0.17221087 0.31498897 0.25954485 0.3084903 0.32503617
0.7002486 0.72071356 0.8547418 0.9481457 0.7931055 0.8918843 1.0035033 -0.077906854
-0.23959897 -0.21786782 -0.2902321 -0.4362833 -0.43750572 -0.49862766 0.5207039 0.5391302
0.5417216 0.34421897 0.3959417 0.3370453 0.16484457 -0.32573384 -0.1958235 -0.20118819
-0.34884015 -0.4208207 -0.28874135 -0.3805808 -0.383154 -0.38384765 -0.2714854 -0.44902095
-0.40693864 -0.3244492 -0.39558682 1.010601 1.0117226 0.9544355 0.6947788 0.72793984
0.6597133 0.6455252 -0.25832224 -0.40915617 -0.2539074 -0.43199983 -0.43861994 -0.4058961
-0.35638827 -0.083623976 -0.13384412 -0.093044534 -0.33183786 -0.27057466 -0.254707 -0.31905335
0.90023303 0.8184945 0.7214219 0.5072314 0.46873143 0.5495561 0.46059683 -0.53851515
-0.45438498 -0.5592443 -0.70968723 -0.5081354 -0.58878005 -0.77269506 0.45233816 0.3372662
0.05774978 -0.17902406 -0.21016507 -0.51551336 -0.8449998 0.8722458 0.44586602 0.31888703
0.1867777 -0.07902496 -0.3914746 -0.55320597 0.44646275 0.40317157 0.15591931 -0.12315005
-0.23269744 -0.48177516 -0.7178868 0.8533978 0.5145917 0.26031154 0.06725741 -0.2224043
-0.46376765 -0.70843714 0.8125217 0.3809641 0.24317333 -0.20579341 -0.4295835 -0.6730074
-1.092886 0.6183644 0.5892731 0.20798287 0.14044693 -0.04674697 -0.35553518 -0.774874
0.5001856 0.4664464 0.052869253 -0.057745807 -0.26386154 -0.48523235 -0.70223075 0.7268697
0.6526232 0.24972942 0.1607593 -0.03830163 -0.43225187 -0.6435982 0.4527783 0.31846043
0.15759178 -0.23082843 -0.30511317 -0.6832869 -0.85014266 0.38437957 0.15930896 0.10096641
-0.09728599 -0.20732848 -0.37121618 -0.61408675 0.5746418 0.27905974 0.18144004 0.06884026
-0.2353135 -0.53494257 -0.81155634 0.905432 0.7276194 0.53703827 0.25190842 -0.04508806
-0.20717041 -0.53061736 0.76309747 0.68406016 0.56236184 0.27853927 0.19597188 -0.18743028
-0.3389644 0.87488914 0.62474704 0.35991082 0.17626531 -0.12057446 -0.4600578 -0.72396946
2.251642 1.5691392 1.0952826 0.57233185 0.19675156 -0.40846252 -0.7544443 0.40381014
0.26167035 0.20322725 -0.040508676 -0.16204526 -0.18201046 -0.51081413 0.298745 0.06324482
-0.11532092 -0.26826212 -0.38673085 -0.6388548 -1.0184783 0.9822507 0.5724122 0.5125037
0.33388552 0.04251074 -0.21070662 -0.4046373 -0.17973524 -0.09041506 -0.12747121 -0.0030848805
00000000: 0441 883e f222 253e e13c 113e 68ca b83d
00000010: fc2f 473e 8f89 873d 704e 083d 8855 96be
00000020: 027f a0be 9370 d9be 0ac7 4fbe 42f6 abbe
00000030: 15c2 c8be 2a99 90be de1b 503e 7a8c 7e3d
00000040: a3f8 713e 0d9e 023e 0582 8a3e e2f3 723e
00000050: 2a47 133e 2650 4e3e 8729 8b3e 8947 6b3e
00000060: 8c97 033e b669 b03e 7ca4 7f3e 9abe 273e
00000070: c201 d23c df05 cc3b cf0b 96bd 94b3 edbc
00000080: e113 983b cf1a 653d 494e aabc 4a24 53bf
00000090: c609 89bf 6c1c 85bf ea43 66bf 6128 73bf
000000a0: 16f6 83bf 72d6 86bf 7c8c fdbe 5704 d0be
000000b0: f81d f0be 22e3 d2be a0b8 98be 88f8 b2be
000000c0: d1ea 72be c209 283e 7f92 733c 0c58 303e
000000d0: 3c46 a13e 10e3 843e 71f2 9d3e 246b a63e
000000e0: 7e43 333f af80 383f 5cd0 5a3f adb9 723f
000000f0: f608 4b3f 8852 643f cc72 803f a18d 9fbd
00000100: 6f59 75be be18 5fbe 4d99 94be 8660 dfbe
00000110: c000 e0be 204c ffbe da4c 053f 7004 0a3f
00000120: 44ae 0a3f 783d b03e dfb8 ca3e 3491 ac3e
00000130: 04cd 283e 96c6 a6be f585 48be 4704 4ebe
00000140: 2d9b b2be d075 d7be e8d5 93be 7ddb c2be
00000150: c32c c4be ae87 c4be 2200 8bbe 13e6 e5be
00000160: 435a d0be 351e a6be 5b8a cabe 605b 813f
00000170: 2080 813f e355 743f 06dd 313f 445a 3a3f
00000180: f9e2 283f 2441 253f d042 84be eb7c d1be
00000190: 2700 82be 152f ddbe cb92 e0be 9dd1 cfbe
000001a0: 8678 b6be 0c43 abbd 6f0e 09be 228e bebd
000001b0: a7e6 a9be c388 8abe f568 82be f65a a3be
000001c0: ac75 663f db88 513f 1baf 383f ebd9 013f
000001d0: 91fd ef3e b5af 0c3f 59d3 eb3e 21dc 09bf
000001e0: 26a5 e8be a22a 0fbf 10ae 35bf 2915 02bf
000001f0: 4aba 16bf 58cf 45bf de98 e73e 28ae ac3e
00000200: 098b 6c3d 1552 37be 8335 57be aff8 03bf
00000210: e851 58bf 804b 5f3f 8d48 e43e 2945 a33e
00000220: a742 3f3e d7d7 a1bd 5c6f c8be e89e 0dbf
00000230: c496 e43e 816c ce3e 50a9 1f3e 1836 fcbd
00000240: 3d48 6ebe 3cab f6be 6ec7 37bf 4778 5a3f
00000250: 48bc 033f 8e47 853e 41be 893d f4bd 63be
00000260: f472 edbe 235c 35bf 6c01 503f ba0d c33e
00000270: 6e02 793e 82bb 52be 5ef2 dbbe 374a 2cbf
00000280: b0e3 8bbf 214d 1e3f 9ada 163f 76f9 543e
00000290: 52d1 0f3e c079 3fbd b508 b6be 245e 46bf
000002a0: 2a0c 003f 10d2 ee3e 6e8d 583d de86 6cbd
000002b0: dc18 87be 6070 f8be 65c5 33bf 2214 3a3f
000002c0: 5012 273f 12b9 7f3e 169e 243e 2ce2 1cbd
000002d0: 1e50 ddbe dac2 24bf 8fd2 e73e 3f0d a33e
000002e0: bd5f 213e 4a5e 6cbe cb37 9cbe e4eb 2ebf
000002f0: f3a2 59bf 66cd c43e e321 233e 7ac7 ce3d
00000300: e13d c7bd eb4d 54be 0c10 bebe ca34 1dbf
00000310: ba1b 133f ebe0 8e3e 6bcb 393e 1ffc 8c3d
00000320: 06f6 70be fff1 08bf 28c2 4fbf 64ca 673f
00000330: 4445 3a3f 577b 093f 24fa 803e 42ae 38bd
00000340: 7b24 54be 8ad6 07bf 5b5a 433f 911e 2f3f
00000350: f2f6 0f3f b39c 8e3e daac 483e b9ed 3fbe
00000360: be8c adbe bcf8 5f3f 6cef 1f3f 3b46 b83e
00000370: e57e 343e beef f6bd b28c ebbe 1056 39bf
00000380: e71a 1040 8ed9 c83f 3832 8c3f 5784 123f
00000390: 3e79 493e 0022 d1be 4323 41bf 34c0 ce3e
000003a0: a8f9 853e ce1a 503e 6dec 25bd 31ef 25be
000003b0: f360 3abe b7c4 02bf 1bf5 983e 8086 813d
000003c0: 602d ecbd a759 89be 9601 c6be fd8b 23bf
000003d0: 7f5d 82bf c874 7b3f 9b89 123f 7133 033f
000003e0: 0bf3 aa3e be1f 2e3d 7ac3 57be 9f2c cfbe
000003f0: 840c 38be 882b b9bd d087 02be b52b 4abb

conv1.bias f4 [16]
0.58787674 -0.044086378 -0.59435076 -0.024576928 -0.052737534 -0.146164 0.36270127 -0.088411145
-0.10403194 -0.019546831 -0.21351832 0.021251176 -0.005547127 0.14240842 -0.0777902 -0.2523995
00000000: 177f 163f eb93 34bd 5f27 18bf 8e55 c9bc
00000010: 5003 58bd 04ac 15be fbb3 b93e e710 b5bd
00000020: b30e d5bd ad20 a0bc 8ca4 5abe f216 ae3c
00000030: adc4 b5bb 83d3 113e 7850 9fbd 823a 81be

bn1.weight f4 [16]
2.026342 0.6779786 1.018403 0.58436936 1.8989062 0.8512004 1.0645814 0.69233495
0.95900744 1.3434589 0.26094252 1.2761269 1.0126257 0.97509646 1.9533697 0.84220237
00000000: 96af 0140 0190 2d3f 085b 823f 3b99 153f
00000010: 5c0f f33f 45e8 593f 3444 883f dd3c 313f
00000020: 8381 753f 76f6 ab3f 429a 853e 2058 a33f
00000030: b89d 813f ec9f 793f 0508 fa3f 939a 573f

bn1.bias f4 [16]
-0.7309331 -0.28776675 0.1558737 -0.06674285 -0.63601804 -0.28652653 0.06369504 0.22690754
-0.54812294 -0.6027532 -0.14607713 -0.30547726 -0.367419 -0.106132366 -0.5500482 -0.0717488
00000000: 6f1e 3bbf 2a56 93be 5b9d 1f3e 7ab0 88bd
00000010: 14d2 22bf 9bb3 92be 8c72 823d 735a 683e
00000020: c951 0cbf 094e 1abf 3e95 15be 8467 9cbe
00000030: 581e bcbe ed5b d9bd f5cf 0cbf 09f1 92bd

bn1.running_mean f4 [16]
0.38509956 -0.12734304 -0.97620296 1.2714001 -0.36705527 -1.1367887 -0.01851481 -1.0503259
-3.2354708 -0.3668857 -0.03970163 -0.10916268 -0.38382968 0.804579 -0.28202668 -1.7766792
00000000: c52b c53e 3766 02be 70e8 79bf 3dbd a23f
00000010: abee bbbe 4b82 91bf 5fac 97bc 1471 86bf
00000020: f411 4fc0 71d8 bbbe 2d9e 22bd af90 dfbd
00000030: 5385 c4be e4f8 4d3f cd65 90be 396a e3bf

bn1.running_var f4 [16]
0.3621502 1.0115999 0.29121774 3.1520395 1.5126837 4.028053 0.6938808 1.8185098
19.760363 0.21599244 0.14311503 2.548021 1.8146337 2.675967 1.0899235 4.0162983
00000000: c06b b93e 1b7c 813f 7e1a 953e 04bb 4940
00000010: 9f9f c13f cfe5 8040 2ca2 313f eec4 e83f
00000020: 3915 9e41 1f2d 5d3e bf8c 123e c712 2340
00000030: eb45 e83f 0b43 2b40 9d82 8b3f 8485 8040

conv2.weight f4 [32, 16, 3, 3, 5]
0.43404722 0.32602802 0.22676812 0.16361567 0.13528094 -1.1487099 -1.2498181 -1.4005034
-1.5166546 -1.5610521 -0.37058958 -0.56504905 -0.63161784 -0.79694915 -0.93492985 0.81304914
0.7589175 0.6302699 0.6064049 0.4943474 0.40907124 0.35351136 0.30258358 0.20814711
0.17379591 0.976106 0.8664005 0.7776145 0.6660858 0.6209534 0.33638236 0.14393279
0.019243816 -0.15847845 -0.25031465 -0.30968618 -0.39660957 -0.5908005 -0.6753623 -0.8315057
0.45622188 0.33120304 0.2785327 0.15461609 0.09586625 0.2345448 0.20126162 0.14861226
0.13320385 0.08041594 -0.4141597 -0.40657833 -0.38834068 -0.36485648 -0.33326647 0.60902053
0.6339299 0.5725712 0.5296966 0.51175433 -0.7025498 -0.7169393 -0.77373284 -0.8133288
-0.8470877 -0.455333 -0.44918162 -0.4063321 -0.37811616 -0.39748544 0.48744953 0.48910698
0.4790131 0.40704596 0.4166972 -1.3304833 -1.3142468 -1.3776702 -1.3715557 -1.415536
-0.31502214 -0.30182973 -0.28620544 -0.23486699 -0.27878353 0.6057168 0.5611122 0.49525523
0.5016676 0.42364663 -0.053910002 0.0017681478 0.094061166 0.06370438 -0.04620393 -0.01325013
0.08735813 0.15999416 0.10979292 -0.0018909042 -0.7747509 -0.61358196 -0.48800814 -0.48470452
-0.5091783 -0.09694791 0.055788964 0.064625405 0.020708065 -0.04422386 -0.06488715 0.050382823
0.07963509 0.061410017 -0.037957914 -0.35156858 -0.14895822 -0.06319857 -0.059844784 -0.1690252
-0.089906864 0.056940332 0.11169928 0.0413052 -0.04191913 -0.5251629 -0.38940305 -0.27770597
-0.32503042 -0.42266718 -1.6856691 -1.3321044 -1.1691006 -1.0651033 -1.1108288 -0.31596032
-0.2598428 -0.23722568 -0.25434023 -0.31903252 -0.49776608 -0.4373185 -0.4819014 -0.50541574
-0.53242207 -0.5994749 -0.514691 -0.54445964 -0.57098585 -0.56327045 -0.37737015 -0.3233769
-0.26898712 -0.31078872 -0.29654378 -0.382378 -0.3625817 -0.39421612 -0.36807346 -0.42813173
-0.43284646 -0.42169088 -0.34672317 -0.4079202 -0.45658144 -0.2879075 -0.20085128 -0.19320798
-0.18634708 -0.23238419 -0.40484262 -0.313029 -0.35362664 -0.38064754 -0.429007 -0.17207164
-0.11019408 -0.1461788 -0.20055762 -0.23683357 0.58602446 0.48304692 0.4182275 0.2488771
0.14066505 0.3150071 0.27273703 0.14897957 0.056650437 0.02210426 1.16826 1.1503919
1.0734847 0.9668382 0.91564786 -1.0308548 -1.0989596 -1.1476603 -1.2209071 -1.3429099
-0.60910594 -0.6886595 -0.70690125 -0.8109812 -0.88616973 -0.14544131 -0.21776254 -0.24992254
-0.30445823 -0.37116644 0.108556174 0.06479041 0.0019774237 -0.060982984 -0.15836741 0.29235637
0.26396212 0.2136324 0.1466129 0.04084972 0.21397749 0.20140028 0.08043485 0.0732715
-0.01020637 0.3788375 0.39180946 0.37878513 0.42125237 0.39207584 0.053374864 0.07084815
0.071911484 0.02501788 0.018743403 -0.35453478 -0.36135414 -0.37713382 -0.3652142 -0.37654933
-1.4060235 -1.4467098 -1.4516144 -1.4686857 -1.4958299 -0.32317907 -0.33657604 -0.34606105
-0.36242262 -0.40777406 -0.42661795 -0.43476337 -0.44239745 -0.5262006 -0.5048927 -1.403078
00000000: 703b de3e 25ed a63e e735 683e de8a 273e
00000010: 1687 0a3e ed08 93bf 0afa 9fbf b243 b3bf
00000020: bd21 c2bf 8ed0 c7bf ebbd bdbe 0ea7 10bf
00000030: b5b1 21bf dc04 4cbf 9057 6fbf fd23 503f
00000040: 6b48 423f 5e59 213f 5a3d 1b3f 1a1b fd3e
00000050: c971 d13e 71ff b43e 3cec 9a3e 8424 553e
00000060: 8ef7 313e 15e2 793f 6ccc 5d3f be11 473f
00000070: 9984 2a3f cdf6 1e3f 4f3a ac3e 1e63 133e
00000080: 35a5 9d3c 2d48 22be 3e29 80be 308f 9ebe
00000090: 6910 cbbe b43e 17bf 8be4 2cbf 8fdd 54bf
000000a0: ea95 e93e 7293 a93e d79b 8e3e ae53 1e3e
000000b0: 8655 c43d 832c 703e 8717 4e3e d02d 183e
000000c0: 9766 083e 1db1 a43d bd0c d4be 092b d0be
000000d0: 97d4 c6be 78ce babe e7a1 aabe c5e8 1b3f
000000e0: 3b49 223f 0794 123f 329a 073f 5502 033f
000000f0: 4eda 33bf 5589 37bf 5b13 46bf 5136 50bf
00000100: bdda 58bf 6821 e9be 22fb e5be c30a d0be
00000110: 7198 c1be 3683 cbbe fc92 f93e 3b6c fa3e
00000120: 3441 f53e 5468 d03e 5659 d53e 474d aabf
00000130: 3d39 a8bf 7f57 b0bf 238f afbf 4930 b5bf
00000140: 954a a1be 6d89 9abe 8589 92be f980 70be
00000150: b7bc 8ebe 4210 1b3f 0da5 0f3f 1892 fd3e
00000160: 4a6d 003f 36e8 d83e bcd0 5cbd 32c1 e73a
00000170: 24a3 c03d 7177 823d 5540 3dbd 1317 59bc
00000180: d2e8 b23d 82d5 233e 1cdb e03d 37d8 f7ba
00000190: 1356 46bf b513 1dbf 34dc f9be 312b f8be
000001a0: 8259 02bf a08c c6bd f882 643d 535a 843d
000001b0: f6a3 a93c 1424 35bd 8ee3 84bd 385e 4e3d
000001c0: b917 a33d 1289 7b3d c279 1bbd cc00 b4be
000001d0: 8188 18be 406e 81bd ce1f 75bd f114 2dbe
000001e0: 1721 b8bd 443a 693d 98c2 e43d a42f 293d
000001f0: 65b3 2bbd 1371 06bf d65f c7be 7a2f 8ebe
00000200: 636a a6be d567 d8be 01c4 d7bf 6682 aabf
00000210: 17a5 95bf 4e55 88bf a32f 8ebf 8dc5 a1be
00000220: 1e0a 85be 4aeb 72be e238 82be 3b58 a3be
00000230: 32db febe 36e8 dfbe c8bb f6be ed62 01bf
00000240: d04c 08bf 3077 19bf cac2 03bf b561 0bbf
00000250: 212c 12bf 7e32 10bf a936 c1be a891 a5be
00000260: aeb8 89be b31f 9fbe 96d4 97be 0dc7 c3be
00000270: 4fa4 b9be b2d6 c9be 2074 bcbe 1534 dbbe
00000280: 0d9e ddbe dee7 d7be b385 b1be ebda d0be
00000290: 0bc5 e9be 9d68 93be f5ab 4dbe 50d8 45be
000002a0: c5d1 3ebe 1ff6 6dbe 8847 cfbe 5645 a0be
000002b0: 8d0e b5be 3ce4 c2be cea6 dbbe 8c33 30be
000002c0: 6fad e1bd e5af 15be fa5e 4dbe 8084 72be
000002d0: b305 163f ed51 f73e ea21 d63e a3d9 7e3e
000002e0: 800a 103e 9c48 a13e 30a4 8b3e 1a8e 183e
000002f0: 4a0a 683d fe13 b53c 8b89 953f 0b40 933f
00000300: f267 893f b582 773f e667 6a3f 0df3 83bf
00000310: b5aa 8cbf 88e6 92bf af46 9cbf 79e4 abbf
00000320: 5eee 1bbf fd4b 30bf 7bf7 34bf 779c 4fbf
00000330: 05dc 62bf 91ee 14be 25fd 5ebe b2eb 7fbe
00000340: f3e1 9bbe 8709 bebe b352 de3d d6b0 843d
00000350: aa97 013b 4bc9 79bd 112b 22be bcaf 953e
00000360: 0b26 873e 74c2 5a3e b121 163e 0952 273d
00000370: ea1c 5b3e e03b 4e3e 07bb a43d 5e0f 963d
00000380: 9e38 27bc fdf6 c13e 409b c83e 20f0 c13e
00000390: 64ae d73e 2abe c83e 9a9f 5a3d d618 913d
000003a0: 5446 933d 4cf2 cc3c c48b 993c 9585 b5be
000003b0: 6903 b9be af17 c1be 5bfd babe 13cb c0be
000003c0: 94f8 b3bf c92d b9bf 80ce b9bf e5fd bbbf
000003d0: 5b77 bfbf ba77 a5be b253 acbe ea2e b1be
000003e0: 758f b9be c3c7 d0be ab6d dabe 4e99 debe
000003f0: eb81 e2be 15b5 06bf a640 01bf 0f98 b3bf

conv2.bias f4 [32]
0.01266195 -0.04971447 -0.02101941 -0.04421313 -0.019831838 0.019295737 -0.012955839 -0.00017045508
0.010234007 0.002800073 -0.029590406 -0.040249072 -0.02194899 -0.0025257135 0.0095414175 0.01650554
-0.033830795 -0.002376202 -0.069495305 -0.015969895 -0.003579996 -0.052035753 -0.02628011 -0.035449002
0.010364287 0.01610341 -0.003398006 -0.0012234108 -0.034166615 -0.012700963 -0.03922033 -0.0812099
00000000: 1174 4f3c 66a1 4bbd e630 acbc d418 35bd
00000010: 6176 a2bc 1812 9e3c ba44 54bc 30bc 32b9
00000020: 89ac 273c 6e81 373b 9467 f2bc 36dc 24bd
00000030: 5ece b3bc 7186 25bb 9b53 1c3c a036 873c
00000040: 2992 0abd 0eba 1bbb 8e53 8ebd 4cd3 82bc
00000050: 5e9e 6abb 7123 55bd 6349 d7bc f932 11bd
00000060: f8ce 293c 4ceb 833c 15b1 5ebb db5a a0ba
00000070: 4bf2 0bbd b317 50bc 7fa5 20bd 6051 a6bd

bn2.weight f4 [32]
1.0363892 1.3295033 1.0889809 0.97283554 1.1321034 0.88635415 0.92085886 1.1431655
0.9249289 0.99671036 0.8827781 1.2172235 0.831207 0.8769951 1.1131035 0.6639781
0.7867697 1.3596008 0.9420449 1.2902787 0.70610374 1.0194442 1.129494 1.126129
0.888336 0.7992137 0.5120142 0.436284 0.78203046 0.9509856 1.1020136 1.2320267
00000000: 67a8 843f 2a2d aa3f ba63 8b3f c00b 793f
00000010: c4e8 903f 1be8 623f 68bd 6b3f 3f53 923f
00000020: 24c8 6c3f 6928 7f3f bffd 613f fbcd 9b3f
00000030: fbc9 543f c082 603f 2d7a 8e3f 78fa 293f
00000040: bd69 493f 6607 ae3f db29 713f da27 a53f
00000050: 37c3 343f 267d 823f 4293 903f ff24 903f
00000060: fd69 633f 4599 4c3f 5d13 033f 9e60 df3e
00000070: 2633 483f cb73 733f c80e 8d3f 0db3 9d3f

bn2.bias f4 [32]
-0.78239125 -0.5633374 -0.48232326 -1.0152478 -0.69111794 -0.96531177 -0.21052298 -0.5698379
-0.5552775 -1.0408574 -1.034636 -0.5327937 -0.4983763 -0.3674825 -0.43234667 -0.528451
0.048535567 -0.8174893 -1.6721382 -0.82257915 -0.645368 -0.5507315 -0.50198156 -0.7053372
-0.5310972 -0.5079086 -0.4219267 -0.53862137 -0.6394818 -0.43619052 -0.69681704 -1.5630735
00000000: cb4a 48bf e136 10bf 13f3 f6be a4f3 81bf
00000010: 1bed 30bf ac1e 77bf 5693 57be e6e0 11bf
00000020: ab26 0ebf d13a 85bf f46e 84bf 2b65 08bf
00000030: 2e2b ffbe ab26 bcbe 8b5c ddbe 9148 07bf
00000040: 3bcd 463d fb46 51bf a008 d6bf 8c94 52bf
00000050: d636 25bf bdfc 0cbf dd81 00bf fb90 34bf
00000060: fcf5 07bf 4c06 02bf c706 d8be 17e3 09bf
00000070: 14b5 23bf 5d54 dfbe 9a62 32bf cb12 c8bf

bn2.running_mean f4 [32]
-17.253345 -23.442759 -15.405542 -21.222893 -11.61918 -3.2516444 -19.860554 -26.008379
-18.026453 -13.986714 -22.025461 -27.064522 11.067995 -9.301128 -25.350502 -3.888701
-24.288805 -3.5629244 -16.317574 -23.006498 11.839776 -7.642413 -22.376488 -17.634005
-3.4425464 -40.39031 -0.08009332 3.3095677 6.4675403 -22.688509 -4.4308796 -5.4395566
00000000: da06 8ac1 c58a bbc1 1a7d 76c1 7cc8 a9c1
00000010: 29e8 39c1 f11a 50c0 6ae2 9ec1 2911 d0c1
00000020: 2d36 90c1 95c9 5fc1 2534 b0c1 2484 d8c1
00000030: 8216 3141 6cd1 14c1 d4cd cac1 7ae0 78c0
00000040: 794f c2c1 f406 64c0 648a 82c1 4f0d b8c1
00000050: b96f 3d41 a68e f4c0 0c03 b3c1 7112 8dc1
00000060: ae52 5cc0 ad8f 21c2 f707 a4bd f5cf 5340
00000070: 17f6 ce40 1182 b5c1 c4c9 8dc0 d910 aec0

bn2.running_var f4 [32]
116.51109 482.6077 450.4358 149.6961 448.79883 107.64842 239.20117 748.3572
1257.428 144.13426 171.20872 668.3206 213.14565 284.11224 245.58261 132.69504
519.49097 140.53271 85.30602 369.77966 107.66551 456.61487 313.49948 477.79852
347.23825 547.0224 460.87805 798.7541 142.78792 309.5007 81.006256 26.190767
00000000: ae05 e942 c94d f143 c837 e143 34b2 1543
00000010: 4066 e043 fe4b d742 8033 6f43 dc16 3b44
00000020: b22d 9d44 5f22 1043 6f35 2b43 8514 2744
00000030: 4925 5543 5e0e 8e43 2695 7543 eeb1 0443
00000040: 6cdf 0144 6088 0c43 af9c aa42 cce3 b843
00000050: be54 d742 b44e e443 efbf 9c43 36e6 ee43
00000060: 7f9e ad43 6fc1 0844 6470 e643 43b0 4744
00000070: b5c9 0e43 17c0 9a43 3403 a242 b186 d141

conv3.weight f4 [64, 32, 3, 3, 3]
0.5826901 0.5317764 0.5475055 -0.008622296 -0.029368926 0.033706076 0.9174158 0.886431
0.9094471 0.5396505 0.51498073 0.52456135 0.019220527 0.0075731594 0.0041099237 0.47760373
0.43052724 0.4925766 0.5182409 0.47427836 0.4786838 -0.27888408 -0.32304457 -0.35643625
0.34033325 0.31326357 0.33996448 0.057845604 0.025788145 -0.032141935 -0.024095383 -0.099155955
-0.12582642 -0.19134164 -0.22252712 -0.2712479 0.48321295 0.4500164 0.3707776 0.15276663
0.117892586 0.12778307 0.053329118 -0.013197983 -0.035405174 1.0018917 0.9504332 0.91322297
0.7062216 0.6912518 0.66649514 0.5138491 0.46148807 0.4138025 0.7506986 0.7084952
0.6510206 -0.51026005 -0.5863452 -0.5629354 -0.31635648 -0.395309 -0.4210988 0.641523
0.54097193 0.4999597 -0.012983039 -0.115996435 -0.1376191 -0.049207907 -0.05513737 -0.13534437
-0.23779115 -0.25679135 -0.28765106 -1.0420536 -1.1201757 -1.1224726 -0.42010328 -0.5029016
-0.520607 0.026193475 -0.15159123 -0.2084007 0.2969087 0.16826765 0.073600315 -0.3522034
-0.61461896 -0.83100677 -0.347001 -0.5217754 -0.6660133 -0.53453505 -0.77090913 -0.90832764
-1.181299 -1.5217018 -1.7493836 0.5233462 0.3676367 0.34820527 0.4717178 0.33824027
0.32903507 -0.014087203 -0.22360212 -0.36801556 -0.26061773 -0.20368542 -0.19515562 -0.1727597
-0.204148 -0.16000181 -0.69092804 -0.6754332 -0.63343006 -0.14193356 -0.13847774 -0.10343626
-0.018070985 -0.0379671 -0.035738733 -0.49287957 -0.49298635 -0.48059496 0.021149727 -0.028210897
0.023001904 -0.015738994 -0.023893714 -0.051388014 -0.205502 -0.15862443 -0.18549873 0.11255364
-0.37587556 -0.8395793 0.19996761 -0.0798283 -0.41800952 0.17924926 -0.06059621 -0.34794047
0.2981332 -0.13099575 -0.54576325 0.38384077 0.054236025 -0.23779607 0.29250982 0.06939882
-0.1866366 0.49463144 0.03618591 -0.35949022 0.51139367 0.17914419 -0.089982815 0.5291706
0.19738407 -0.08289966 0.48326614 0.47113273 0.4768432 -0.06397739 -0.08913795 -0.06326158
-0.44067493 -0.43824673 -0.48389 0.8353817 0.8372029 0.8433105 0.4812727 0.47623965
0.4584115 0.37222412 0.39924166 0.36028764 0.58504534 0.58975524 0.5770986 0.62311894
0.593299 0.5583199 0.45733938 0.3759968 0.41720873 0.5970873 0.47613725 0.4410637
0.304041 0.21878853 0.14400208 0.20698097 0.1350234 0.055572715 0.23540853 0.07164746
-0.026377784 -0.27704233 -0.36416504 -0.42608124 -0.15138139 -0.23834619 -0.35467637 0.0026953376
-0.11114044 -0.21084571 -0.27528885 -0.405679 -0.5139122 -0.38277104 -0.4967044 -0.57667327
-0.65059996 -0.6818832 -0.6632913 -0.5261415 -0.55895543 -0.57670635 -0.45297813 -0.4399563
-0.46780017 -0.5138274 -0.5886156 -0.60739243 -0.477437 -0.43994588 -0.4597265 -0.43693554
-0.39288372 -0.43942714 -0.4258348 -0.45434743 -0.49288774 -0.30344954 -0.31528446 -0.3138797
-0.22248575 -0.23061866 -0.26422137 -1.3314136 -1.3587384 -1.3311783 -0.61366093 -0.64689213
-0.5971183 -0.26112655 -0.29634523 -0.32903308 -0.05541667 -0.07356058 -0.10291154 0.35266745
00000000: 2e2b 153f 8022 083f 5229 0c3f 8844 0dbc
00000010: 1a97 f0bc 620f 0a3d c3db 6a3f 24ed 623f
00000020: 86d1 683f 8926 0a3f c7d5 033f a749 063f
00000030: 5e74 9d3c 4428 f83b 8aac 863b 7a88 f43e
00000040: 116e dc3e 0033 fc3e 70ab 043f 9dd4 f23e
00000050: 0b16 f53e e5c9 8ebe 1966 a5be d07e b6be
00000060: 2940 ae3e 1564 a03e d30f ae3e 83ef 6c3d
00000070: a941 d33c 43a7 03bd ae63 c5bc 4712 cbbd
00000080: a4d8 00be 10ef 43be 26de 63be 01e1 8abe
00000090: b067 f73e 8d68 e63e 90d6 bd3e db6e 1c3e
000000a0: ab71 f13d 91d9 023e a26f 5a3d 5a3c 58bc
000000b0: 0405 11bd fd3d 803f 974f 733f fbc8 693f
000000c0: f0ca 343f e1f5 303f 6d9f 2a3f 9d8b 033f
000000d0: 2a48 ec3e ecdd d33e c92d 403f f15f 353f
000000e0: 49a9 263f 67a0 02bf b81a 16bf 891c 10bf
000000f0: 7af9 a1be f165 cabe 439a d7be da3a 243f
00000100: 237d 0a3f b8fa ff3e d0b6 54bc 8a8f edbd
00000110: 05ec 0cbe 3b8e 49bd b9d7 61bd b797 0abe
00000120: 867f 73be 287a 83be 0047 93be 0362 85bf
00000130: eb61 8fbf 2fad 8fbf c717 d7be 29be 00bf
00000140: 8046 05bf b393 d63c bb3a 1bbe fe66 55be
00000150: 6b04 983e 5b4e 2c3e c3bb 963d 0154 b4be
00000160: ab57 1dbf dcbc 54bf 1daa b1be 1393 05bf
00000170: d97f 2abf 4ad7 08bf 4d5a 45bf 2988 68bf
00000180: ce34 97bf 20c7 c2bf cdeb dfbf 04fa 053f
00000190: e13a bc3e f647 b23e ff84 f13e d42d ad3e
000001a0: 4977 a83e 03ce 66bc f4f7 64be 896c bcbe
000001b0: b06f 85be e992 50be e0d6 47be ebe7 30be
000001c0: 2c0c 51be 84d7 23be a9e0 30bf 31e9 2cbf
000001d0: 7928 22bf 0857 11be 1ccd 0dbe 64d6 d3bd
000001e0: 9a09 94bc 6483 1bbd c762 12bd b65a fcbe
000001f0: b568 fcbe 8b10 f6be 3142 ad3c 8a1a e7bc
00000200: 7d6e bc3c 10ef 80bc c0bc c3bc 3d7c 52bd
00000210: 1e6f 52be 716e 22be 61f3 3dbe 8682 e63d
00000220: c372 c0be abee 56bf 4fc4 4c3e 057d a3bd
00000230: 5805 d6be 1e8d 373e bb33 78bd 4125 b2be
00000240: eaa4 983e c023 06be 24b7 0bbf c786 c43e
00000250: 9826 5e3d d080 73be d9c3 953e f820 8e3d
00000260: aa1d 3fbe 5540 fd3e ad37 143d 1a0f b8be
00000270: b2ea 023f 9371 373e e948 b8bd b977 073f
00000280: 0d1f 4a3e 4cc7 a9bd a96e f73e 4f38 f13e
00000290: cb24 f43e 9406 83bd f58d b6bd 4a8f 81bd
000002a0: 25a0 e1be e061 e0be 6ec0 f7be 93db 553f
000002b0: ee52 563f 32e3 573f 6069 f63e afd5 f33e
000002c0: eab4 ea3e 2994 be3e 6769 cc3e 9f77 b83e
000002d0: 88c5 153f 33fa 163f bcbc 133f b984 1f3f
000002e0: 71e2 173f 0eee 0e3f 6328 ea3e a782 c03e
000002f0: 629c d53e b7da 183f 43c8 f33e 1ad3 e13e
00000300: 43ab 9b3e 1a0a 603e 4875 133e d2f2 533e
00000310: 9343 0a3e 37a0 633d ef0e 713e e7bb 923d
00000320: 3916 d8bc 7ed8 8dbe d773 babe 5227 dabe
00000330: b903 1bbe 0611 74be 2498 b5be 43a4 303b
00000340: 999d e3bd f0e7 57be a9f2 8cbe 28b5 cfbe
00000350: c08f 03bf 91fa c3be 0a50 febe dca0 13bf
00000360: b88d 26bf e68f 2ebf 75cd 29bf 36b1 06bf
00000370: b417 0fbf 07a3 13bf c0ec e7be f441 e1be
00000380: 8183 efbe 318a 03bf 83af 16bf 127e 1bbf
00000390: 9f72 f4be 9640 e1be 4661 ebbe 04b6 dfbe
000003a0: 0e28 c9be 98fc e0be 0507 dabe 3aa0 e8be
000003b0: c85b fcbe bd5d 9bbe f76c a1be d7b4 a0be
000003c0: 4ed3 63be 4c27 6cbe 0648 87be c36b aabf
000003d0: 24eb adbf 0d64 aabf e218 1dbf b99a 25bf
000003e0: bfdc 18bf 61b2 85be 90ba 97be 0677 a8be
000003f0: 97fc 62bd eea6 96bd 49c3 d2bd d490 b43e

conv3.bias f4 [64]
4.1828356 1.3409332 6.9705596 2.1569536 4.734473 3.652492 4.1749372 1.4504989
-11.136211 6.99089 6.3670554 8.308807 4.1232743 1.5544467 -1.7772679 -3.604839
10.503582 -4.954326 12.32488 4.622088 -4.700772 -0.9154079 1.101705 -4.119579
4.153422 -0.6767918 0.7506467 -5.7650228 -4.610593 0.5400849 -5.3871174 -0.5056109
2.4520876 0.93645376 -6.7284694 0.26053655 5.0310316 -0.17180939 7.6477265 -6.0161366
5.678261 -3.6955442 -8.153015 -1.1755562 2.491846 1.5976884 0.2095868 0.78464246
-0.49813858 0.49571896 -1.5406246 12.065992 1.483823 7.2705655 6.149748 4.34575
-7.9716654 0.115017354 3.8401613 4.7037926 -6.441847 3.3687863 5.5712576 0.48356098
00000000: cad9 8540 b3a3 ab3f d30e df40 870b 0a40
00000010: ce80 9740 6ec2 6940 1699 8540 f3a9 b93f
00000020: ec2d 32c1 5fb5 df40 ebbe cb40 e0f0 0441
00000030: ddf1 8340 1cf8 c63f 847d e3bf afb5 66c0
00000040: ac0e 2841 d789 9ec0 b532 4541 25e8 9340
00000050: b96c 96c0 2c58 6abf ab04 8d3f 97d3 83c0
00000060: d5e8 8440 3a42 2dbf 622a 403f 117b b8c0
00000070: fa89 93c0 0143 0a3f 4463 acc0 b76f 01bf
00000080: 01ef 1c40 6fbb 6f3f 9f4f d7c0 0c65 853e
00000090: 36fe a040 cdee 2fbe 2dba f440 3184 c0c0
000000a0: 50b4 b540 cc83 6cc0 c072 02c1 a078 96bf
000000b0: 687a 1f40 0e81 cc3f ec9d 563e 54de 483f
000000c0: 050c ffbe e0ce fd3e 3033 c5bf 4e0e 4141
000000d0: e9ed bd3f 79a8 e840 bcca c440 6210 8b40
000000e0: e217 ffc0 388e eb3d 34c5 7540 7885 9640
000000f0: 9c23 cec0 329a 5740 be47 b240 4e95 f73e

bn3.weight f4 [64]
3.4463851 5.5238695 2.7723217 4.8428106 3.7572062 3.8160315 4.3333898 2.321957
5.0039725 4.8921742 4.2578278 4.5180697 3.241164 3.0868378 3.2057002 4.208017
4.667576 5.5411043 4.408781 2.3534882 3.2981846 2.7115011 2.8188777 3.5511835
3.76237 2.0293846 3.951116 4.6534104 2.765156 5.5370526 5.2239447 4.2986507
4.5674543 3.4089334 4.7735105 4.404028 3.6186533 2.5693347 3.7590322 5.028906
3.2598846 5.8627954 4.384611 4.347569 3.635581 3.5770028 3.06156 2.8512967
2.7487223 2.7880847 3.9018621 4.7607183 3.4295316 4.2018147 4.6319222 4.4017463
3.611989 2.4269958 2.7907422 4.3936424 5.913851 4.009497 4.344985 2.3603315
00000000: 9391 5c40 8ac3 b040 b86d 3140 4ef8 9a40
00000010: 1176 7040 dc39 7440 21ab 8a40 f29a 1440
00000020: 8b20 a040 b18c 9c40 2040 8840 0794 9040
00000030: 3b6f 4f40 c08e 4540 312a 4d40 13a8 8640
00000040: c85c 9540 ba50 b140 bc14 8d40 8d9f 1640
00000050: 7515 5340 3c89 2d40 7e68 3440 9746 6340
00000060: acca 7040 70e1 0140 16df 7c40 bde8 9440
00000070: 51f8 3040 892f b140 8e2a a740 8c8e 8940
00000080: 9628 9240 f72b 5a40 99c0 9840 cced 8c40
00000090: 0498 6740 fb6f 2440 fc93 7040 ccec a040
000000a0: f3a1 5040 059c bb40 bc4e 8c40 491f 8b40
000000b0: 5cad 6840 9ded 6440 99f0 4340 a57b 3640
000000c0: 11eb 2f40 fb6f 3240 1cb8 7940 ce57 9840
000000d0: 727d 5b40 4475 8640 b538 9440 1bdb 8c40
000000e0: d42a 6740 e653 1b40 859b 3240 b898 8c40
000000f0: 443e bd40 cd4d 8040 1e0a 8b40 ac0f 1740

bn3.bias f4 [64]
0.40415686 -0.58393496 -0.59304905 0.031132339 0.24171944 0.13353989 0.40786833 -0.68157
0.5831251 0.8373925 0.5119145 0.74495006 0.3608612 0.0132142585 -0.027284596 -0.18628946
0.72796226 0.1327668 0.6392926 -0.69542843 -0.054299064 0.15362838 -0.30841732 -0.32666168
-0.115624756 -0.4962424 0.11397755 0.44229424 -0.46560267 -0.5858988 0.5869345 -0.16852729
0.4064505 0.5472441 0.5337815 -0.20254713 0.26084736 -0.6640605 0.5396011 0.24631858
-0.027789645 0.39554927 0.34743604 0.6814162 0.24317528 0.043687563 0.078937866 0.29461882
-0.07125614 0.023243414 0.24979784 0.82414716 0.4769299 0.5177887 -0.36318454 0.115522586
-0.4801059 -0.6166767 0.012911229 0.4498551 0.47802526 0.25899845 0.5248918 -0.478795
00000000: a6ed ce3e c37c 15bf 10d2 17bf 3f09 ff3c
00000010: 4d85 773e aebe 083e 1ed4 d03e 5f7b 2ebf
00000020: b047 153f 5b5f 563f d40c 033f 0cb5 3e3f
00000030: cdc2 b83e 9e80 583c f283 dfbc aac2 3ebe
00000040: bc5b 3a3f 05f4 073e aea8 233f 9907 32bf
00000050: b268 5ebd c250 1d3e e0e8 9dbe 3340 a7be
00000060: accc ecbd 7c13 febe 106d e93d 6474 e23e
00000070: 7963 eebe 77fd 15bf 5741 163f 6b92 2cbe
00000080: 481a d03e 3018 0c3f e8a5 083f 8468 4fbe
00000090: c98d 853e deff 29bf 4c23 0a3f f03a 7c3e
000000a0: 1ca7 e3bc 6f85 ca3e 23e3 b13e 4b71 2e3f
000000b0: f102 793e bbf1 323d 2daa a13d 47d8 963e
000000c0: bdee 91bd f968 be3c 01cb 7f3e 4ffb 523f
000000d0: 2830 f43e cd8d 043f 53f3 b9be 1b97 ec3d
000000e0: 71d0 f5be 86de 1dbf 9f89 533c 6853 e63e
000000f0: babf f43e 729b 843e 4f5f 063f 9e24 f5be

bn3.running_mean f4 [64]
4.465903 6.8786316 6.5646324 5.7208858 1.3703383 3.3596392 -3.453748 5.731242
-16.67855 0.76718575 -0.70346165 2.7968342 3.3969357 -4.2135696 -6.975628 -1.5194368
4.8286614 -8.575869 6.3800817 11.129037 -1.7919387 -3.31206 4.246042 -2.8407836
4.267949 2.9092264 2.7008069 -7.8430896 -4.978099 9.094111 -5.956837 3.1835585
-3.200477 0.2861177 -11.232121 1.9621431 0.29529786 -0.70330036 2.522269 -9.236183
6.716471 -4.553773 -7.2135205 -2.0108294 3.617926 2.0794663 -1.0484303 3.3584301
-5.4407597 4.115732 -5.114297 7.451536 -2.5348728 3.0940115 1.5076199 5.907008
-6.7747087 12.538229 10.711942 1.7560842 -10.3526945 6.0273075 0.99020064 6.005466
00000000: ade8 8e40 c01d dc40 7811 d240 7f11 b740
00000010: 3f67 af3f 5404 5740 350a 5dc0 5666 b740
00000020: ac6d 85c1 4966 443f 1016 34bf 55ff 3240
00000030: 6567 5940 90d5 86c0 5838 dfc0 e87c c2bf
00000040: 6584 9a40 c236 09c1 a129 cc40 8910 3241
00000050: 3f5e e5bf cbf8 53c0 93df 8740 66cf 35c0
00000060: 0a93 8840 c430 3a40 05da 2c40 97fa fac0
00000070: 964c 9fc0 7b81 1141 699e bec0 6cbf 4b40
00000080: 9dd4 4cc0 057e 923e c5b6 33c1 8127 fb3f
00000090: 4831 973e 7e0b 34bf db6c 2140 68c7 13c1
000000a0: 55ed d640 82b8 91c0 29d5 e6c0 6eb1 00c0
000000b0: 198c 6740 fa15 0540 f732 86bf 85f0 5640
000000c0: b41a aec0 14b4 8340 52a8 a3c0 fc72 ee40
000000d0: 5b3b 22c0 4904 4640 b0f9 c03f 3606 bd40
000000e0: 6aca d8c0 969c 4841 1d64 2b41 5ec7 e03f
000000f0: a3a4 25c1 b4df c040 ca7d 7d3f c72c c040

bn3.running_var f4 [64]
46.39622 199.57547 50.138485 230.66121 78.544014 92.17903 79.039604 39.46752
54.6256 59.701023 62.18913 88.96064 69.45616 49.781937 64.154724 137.62007
67.33621 130.56104 74.711426 59.315937 93.30365 76.78468 59.070778 61.708614
67.32604 53.833267 54.389637 86.34111 48.514877 242.6949 96.164055 130.88556
138.67236 71.114105 94.3435 52.080658 64.548836 53.565205 104.28554 57.499153
67.59382 123.84255 84.13423 70.58345 64.70175 45.64457 45.505882 58.02251
70.74844 75.28615 55.63008 78.91346 99.024185 59.62766 46.414474 85.45669
48.441914 50.72875 72.1203 66.44505 120.526634 76.23189 37.57932 93.58117
00000000: bb95 3942 5293 4743 cf8d 4842 45a9 6643
00000010: 8916 9d42 aa5b b842 4714 9e42 bede 1d42
00000020: 9d80 5a42 d9cd 6e42 abc1 7842 d9eb b142
00000030: 8ee9 8a42 b420 4742 384f 8042 bd9e 0943
00000040: 24ac 8642 a08f 0243 406c 9542 8543 6d42
00000050: 789b ba42 c291 9942 7a48 6c42 9fd5 7642
00000060: efa6 8642 4455 5742 fd8e 5942 a6ae ac42
00000070: 3c0f 4242 e5b1 7243 ff53 c042 b4e2 0243
00000080: 20ac 0a43 6c3a 8e42 dfaf bc42 9852 5042
00000090: 0119 8142 c542 5642 3292 d042 22ff 6542
000000a0: 0930 8742 63af f742 ba44 a842 ba2a 8d42
000000b0: 4c67 8142 0a94 3642 0606 3642 0d17 6842
000000c0: 347f 8d42 8292 9642 3485 5e42 b1d3 9d42
000000d0: 620c c642 b982 6e42 6ca8 3942 d3e9 aa42
000000e0: 85c4 4142 3dea 4a42 983d 9042 dee3 8442
000000f0: a30d f142 ba76 9842 3951 1642 8f29 bb42

fc.weight f4 [9, 64]
0.38308275 -4.9998875 0.5735929 -3.2607057 1.6258119 1.8355554 1.2173629 -0.67285174
-0.74888235 -0.68754137 2.1123989 -0.3026295 1.4858325 -0.2337583 0.037931208 -2.973689
0.4137623 -1.5796086 0.114397585 -0.15624948 -3.0706725 0.34211472 0.092046775 -2.2084658
1.1291184 -1.1258463 0.96120775 0.15305753 -0.37050542 -5.3025827 -0.556639 -2.8379374
0.45738274 0.004674698 -0.27271083 0.53770375 1.7578704 -0.15558828 -0.7398879 -2.3311825
-1.5432582 -0.62585795 -0.15646146 1.0248823 -0.78884137 -0.02548154 1.5275643 1.0891632
0.22759794 0.9843419 -1.1394702 -0.392564 0.26267964 1.9348612 -3.1709573 0.92857754
-1.3820627 0.12037764 -0.78349984 0.39409214 -0.5226559 1.5716591 0.90532535 0.7074018
2.0623097 1.382914 0.21297158 -0.83396137 -0.27791533 -0.5891746 -1.472822 -1.4517412
-0.7546692 1.3267888 -1.2204167 0.33901992 1.2951801 0.8829584 -0.23981175 1.2040942
1.0043511 -3.3935874 0.50932705 0.13685098 -1.2655208 -1.2831808 0.64289856 -1.0062357
-1.4392457 -1.6049196 1.5020391 -0.19642106 -0.4895053 -0.030683951 -2.5310721 1.6221831
0.38891625 0.6941928 -1.3319871 0.6195377 -0.41489175 0.29425225 -1.0881999 -1.6078969
-2.9227977 -3.839043 -1.0311853 0.974043 -1.4219147 -2.0590756 0.4518759 -1.1678882
0.42609492 -0.3375837 -0.19483587 -0.39902294 0.16220427 -0.3264264 1.5878973 -0.7219814
-0.109010786 0.49688554 -0.7616561 -0.04684441 -2.6130064 -0.6510603 -1.3011489 -0.5849601
-0.47827917 2.2482402 -0.50573826 1.5503507 0.8493075 1.284513 0.20947698 -1.4901735
-1.6554276 -2.3824966 -0.07561871 -0.43874592 0.9625796 -0.44509107 0.17848498 1.520532
-1.1615274 -1.3001553 -0.95865256 -1.0067611 0.57852495 -1.8787669 -0.7501724 0.31604257
-0.7685487 -0.9037878 -0.40437895 -0.6476237 1.0392221 2.1264591 -0.5609318 1.5402466
-0.32385266 -0.19560458 -0.6024461 -0.10924763 0.97357 -0.6684296 -1.1615229 -1.526308
-1.2062311 -0.3653819 0.45551503 0.27470887 -1.9539133 -1.2588146 -2.5237713 -1.6628753
-0.0065924865 -1.0578017 1.7067137 -0.4546088 -0.44636264 0.35846698 1.2196006 2.478885
1.6959598 -1.1059742 -0.6048229 -0.9053612 -0.6244811 1.0520116 -1.2944676 -0.9582061
-0.04940134 -0.56650233 0.830501 -0.18297319 -1.3733163 -1.2609133 -1.0603579 0.84727
0.29930973 -1.0396656 -2.0564995 0.8710669 -1.1695133 0.029201066 1.131447 -0.75929576
0.038698528 0.85357755 0.6142442 1.3464967 -0.36948836 -0.59467375 -0.27867618 -0.3007526
0.30533275 0.85674405 0.22214167 0.6076473 -1.4160568 -0.37535676 1.0951916 -1.157518
0.26369715 0.63387793 1.0814508 0.71476865 -1.7230307 0.9043876 1.0540249 0.35940784
0.47547942 0.45048273 -0.15396918 0.21246684 -0.87032455 0.24238482 -0.6164578 -0.005392212
-0.41450804 -0.555203 -0.058229223 0.9681194 0.12693933 -2.5577984 -2.3942833 -1.9328822
-2.2798333 0.8105689 1.2549381 0.6928449 0.49091652 -0.47986907 -1.7688377 -0.7431525
00000000: 6c23 c43e 14ff 9fc0 fcd6 123f 67af 50c0
00000010: 9b1a d03f 7bf3 ea3f 8cd2 9b3f 0340 2cbf
00000020: c1b6 3fbf b602 30bf 8b31 0740 41f2 9abe
00000030: c22f be3f 565e 6fbe c15d 1b3d ec50 3ec0
00000040: a7d8 d33e 9d30 cabf 4849 ea3d ddff 1fbe
00000050: e685 44c0 a929 af3e 0583 bc3d 8157 0dc0
00000060: f486 903f bb1b 90bf b611 763f 1dbb 1c3e
00000070: e3b2 bdbe c2ae a9c0 e57f 0ebf c4a0 35c0
00000080: 122e ea3e 362e 993b c1a0 8bbe f4a6 093f
00000090: e601 e13f 8952 1fbe 4b69 3dbf 1832 15c0
000000a0: 7c89 c5bf 3a38 20bf 6f37 20be 582f 833f
000000b0: 82f1 49bf aabe d0bc 3a87 c33f b369 8b3f
000000c0: 6f0f 693e d5fd 7b3f 29da 91bf 26fe c8be
000000d0: f27d 863e 88a9 f73f f7f0 4ac0 42b7 6d3f
000000e0: 6ee7 b0bf 8d88 f63d 7293 48bf 72c6 c93e
000000f0: c7cc 05bf 202c c93f 67c3 673f 4918 353f
00000100: e2fc 0340 5303 b13f 3915 5a3e 7e7e 55bf
00000110: eb4a 8ebe 26d4 16bf 6e85 bcbf a8d2 b9bf
00000120: 0032 41bf 37d4 a93f 9d36 9cbf 0594 ad3e
00000130: 76c8 a53f 9009 623f 3691 75be c21f 9a3f
00000140: 948e 803f 8930 59c0 4263 023f aa22 0c3e
00000150: 96fc a1bf 453f a4bf 0095 243f 55cc 80bf
00000160: 3439 b8bf 016e cdbf d142 c03f 9a22 49be
00000170: 70a0 fabe e95c fbbc 16fd 21c0 b2a3 cf3f
00000180: 0820 c73e 9fb6 313f 8e7e aabf 069a 1e3f
00000190: b16c d4be 3ba8 963e 224a 8bbf 91cf cdbf
000001a0: 1e0f 3bc0 e1b2 75c0 e1fd 83bf e25a 793f
000001b0: 4d01 b6bf e5c7 03c0 475c e73e 5c7d 95bf
000001c0: 1d29 da3e c5d7 acbe 0e83 47be bc4c ccbe
000001d0: e018 263e 5c21 a7be 3840 cb3f c6d3 38bf
000001e0: 0c41 dfbd c867 fe3e e5fb 42bf eddf 3fbd
000001f0: 7f3b 27c0 e3ab 26bf 0c8c a6bf f2bf 15bf
00000200: 02e1 f4be 2be3 0f40 1078 01bf e471 c63f
00000210: 376c 593f ec6a a43f 2281 563e 01be bebf
00000220: 0de5 d3bf d37a 18c0 fbdd 9abd 4ea3 e0be
00000230: 9e6b 763f fae2 e3be c4c4 363e cba0 c23f
00000240: eeac 94bf 7d6b a6bf 416a 75bf 8cdd 80bf
00000250: 361a 143f 6f7b f0bf 4c0b 40bf 55d0 a13e
00000260: 9cbf 44bf a35e 67bf c20a cfbe abca 25bf
00000270: 3b05 853f e817 0840 3a99 0fbf cd26 c53f
00000280: 04d0 a5be 914c 48be e839 1abf 39bd dfbd
00000290: e23b 793f 341e 2bbf c8ac 94bf 0f5e c3bf
000002a0: c865 9abf 5613 bbbe 4439 e93e a4a6 8c3e
000002b0: d519 fabf d620 a1bf 7885 21c0 19d9 d4bf
000002c0: c905 d8bb 0c66 87bf 9875 da3f 7cc2 e8be
000002d0: a589 e4be fc88 b73e df1b 9c3f 0da6 1e40
000002e0: 3615 d93f 9090 8dbf acd5 1abf c0c5 67bf
000002f0: fedd 1fbf 51a8 863f 1db1 a5bf ff4c 75bf
00000300: 0f59 4abd 4c06 11bf b79b 543f 535d 3bbe
00000310: d4c8 afbf 9b65 a1bf cfb9 87bf b0e6 583f
00000320: 203f 993e c313 85bf b09d 03c0 3efe 5e3f
00000330: 9db2 95bf 1337 ef3c 41d3 903f 3561 42bf
00000340: 5982 1e3d 0f84 5a3f 1c3f 1d3f 015a ac3f
00000350: 942d bdbe 8a3c 18bf a5ae 8ebe 3ffc 99be
00000360: 9354 9c3e 9453 5b3f 1b79 633e c68e 1b3f
00000370: 5941 b5bf c32e c0be 3d2f 8c3f 8d29 94bf
00000380: 5003 873e d345 223f fb6c 8a3f 14fb 363f
00000390: 458c dcbf f285 673f 4aea 863f 4e04 b83e
000003a0: 0a72 f33e aca5 e63e 19aa 1dbe e890 593e
000003b0: 97cd 5ebf ba33 783e 2ed0 1dbf 27b1 b0bb
000003c0: 663a d4be c921 0ebf c481 6ebd acd6 773f
000003d0: 62fc 013e f8b2 23c0 f03b 19c0 af68 f7bf
000003e0: cae8 11c0 7281 4f3f d0a1 a03f 495e 313f
000003f0: 6959 fb3e 66b1 f5be 4669 e2bf 3e3f 3ebf

fc.bias f4 [9]
0.11966441 -0.24763216 -0.38611418 -0.24096365 0.14265533 -0.22553621 0.2546207 0.49349174
-0.363454
00000000: 9d12 f53d 4993 7dbe c2b0 c5be 2dbf 76be
00000010: 3d14 123e f7f2 66be a55d 823e f3aa fc3e
00000020: a516 babe
