experiments/Loukia/Loukia_best.pth (torch, 331154 bytes, 20 tensors)

conv1.weight f4 [16, 1, 3, 3, 7]
00000000: 1a48 57bf a928 2bbf 1b69 15bf 367a 00bf
00000010: 6ecb 21bf 47c0 33bf 5065 abbf cdc5 61be
00000020: a702 cebd 8365 a0bc d1ec 1bbe 0781 e5bd
00000030: 050d 4dbe 8ae7 53be 347c 563e 66f8 763e
00000040: 4fd5 173e fe0f 4c3e 9822 943e 7501 983d
00000050: 98e1 253e 063c 2bbe eeba 4bbe d7d1 30bd
00000060: 382d acbd 18af 07be 51b3 6cbd 9b05 9fbe
00000070: 237d d53b 9bff e33b f584 933d a2c8 ccbc
00000080: a890 05be 8aa6 32bd 89d0 47be 7929 debd
00000090: 6c1a 203b f252 763d 39cb d83c fdc7 f3bd
000000a0: e01e 09be c78c cbbb 30c5 393d 8fab c7bc
000000b0: b0b4 343d 9f17 2b3e 979b 2e3d 7033 d8b6
000000c0: 0144 a6bd 26f9 563e 4108 113e 5a21 1c3e
000000d0: 8b5c 7fbc 3851 37bd 7a3b 063e c8a1 01be
000000e0: 0328 d43c 769f 61bd 6941 133e 8e1a 063d
000000f0: c7de 363d fe28 fabd 6fa9 bebb 4581 04be
00000100: e934 203c 03da 803e eece 553e 65a9 d93c
00000110: 19cd 363e 7a53 00bd 2d8d 0e3e 175b e83d
00000120: e3d3 be3e 1afa bc3e 1034 a13e b77a c23e
00000130: 5ac1 4d3e 7098 bcbe 12e6 a2be 4d54 debc
00000140: d45d 7fbc 0a45 fdbd cbfa efbd 0179 5dbe
00000150: d316 5dbe 55ee 9abd 9eb9 373c 3e04 0cbe
00000160: 1c98 43be a7c9 023e 1bbf a2bd 9fe0 9bbe
00000170: 0e55 5bbc e4ed c0bc a370 85bd 1f06 32be
00000180: 8cc9 bc3d bb4b c5bd 730e b9bd 6785 843d
00000190: 4b11 943d 4d83 e7bb e952 953d 04bf 9a3d
000001a0: 7262 ffbc e18b bebd 0c2d 833c 7fab f83d
000001b0: d9c2 35bd f25b b93c 7413 e53d d2e3 24bd
000001c0: 5e25 1dbe 61ee 67be 9989 12be 95eb 46be
000001d0: 0cd6 cebd a2d7 903d 4f6e 29be 3662 e53d
000001e0: dbc6 6e3d 93a7 783e b334 ac3d c190 ae3c
000001f0: 0873 963e 8a10 0c3e 938f c03d 2d66 e6bd
00000200: f2c9 f4bd 04ac 08be 8818 eabd 13cc d3bd
00000210: 69da d7be 1c38 813e eb32 333e dd71 2f3d
00000220: 302a 01bd 7653 133d 9129 24bd 8b09 c5ba
00000230: bbec a33d 6c76 eb3d 1eb3 363d 736b b13c
00000240: 2966 903d b881 2b3e b577 1fbe f50b e43d
00000250: e3d8 fcbd dd4f 1fbe 495f 44bd 56e8 80be
00000260: 525a 0abe cb10 9dbe 9525 673e fd91 293e
00000270: db9b 413c 89c0 e9bc beee 063e 9831 cbbc
00000280: 569f 37be d2db f43d ead6 d83d c24b 2f3e
00000290: 5482 283d 7c82 c63b 30be 473b 4a94 7cbd
000002a0: 5b25 a03d 1938 ea3b b5ff 3abe b3f6 a5be
000002b0: 9de5 c8be fe0b c8be 38f5 90bf 6a7f 6d3e
000002c0: deeb 243e 82e4 013e 011b f73d b495 593d
000002d0: 231e 2b3c 033f 22be 6d0e 573e 5731 abbd
000002e0: 90ff b8bd d474 febc c97b 0bbe 3168 ecbd
000002f0: f091 9fbe 11de f6bb 1e7a 2f3e 66ab 533c
00000300: bdbf d9bc 4080 cfbc b146 be3d 5b66 cc3d
00000310: 59a0 943d 5710 b93d 1f2a c5bd 18fe c8bd
00000320: b5d2 d6bd 80a7 3fbe 72e5 2fbd fb67 0dbc
00000330: 43b9 1fbe a4bc 6ebe 4ae2 05be ec93 52be
00000340: f5e0 9abe 5292 77be bf20 823e d405 003e
00000350: 90fb f13d 8e53 f23d f2e9 3d3e eae5 cdbc
00000360: 963a ba3e 1a33 aabd 763b edbd 5bcb a13c
00000370: a9aa 4dbb 3ccb 21be 7212 0dbe 7580 b4bd
00000380: 478f 183c 0983 09bb 11b2 59bd af7a 70bc
00000390: 9411 43be 797d 57be 4923 f63d cf21 5c3e
000003a0: 7a86 ac3e e466 7a3e e55f 933e 17d4 d03d
000003b0: a4d9 923e 2e5e 053f f288 50bc 4755 63bd
000003c0: 687d 34be 0c39 0abe 4517 0ebe a775 16bd
000003d0: 4747 de3d 95e5 59be da69 aebe 1ece 50be
000003e0: 2dc0 31be f986 87be 4aa7 aebe b5b5 fabd
000003f0: 8518 483e c9bf a0bc 566e 78bd ed54 443e
-0.84094393 -0.6685892 -0.58363503 -0.5018648 -0.63201034 -0.70215267 -1.3390293 -0.22048111
-0.100591 -0.019579655 -0.15227057 -0.11206251 -0.20024498 -0.20693794 0.20945817 0.24118194
0.14827465 0.19927976 0.28932643 0.07422153 0.16199338 -0.16722116 -0.19895527 -0.04316887
-0.08407062 -0.13250387 -0.057788197 -0.31058964 0.0065151616 0.006957961 0.07203094 -0.024998013
-0.13043463 -0.043615855 -0.19513144 -0.10847754 0.0024429811 0.060137697 0.026464092 -0.11903379
-0.13390684 -0.0062118503 0.04535407 -0.024373798 0.04411763 0.1670823 0.04262885 -6.4432897e-06
-0.081184395 0.2099348 0.14163305 0.15247098 -0.015586029 -0.04475519 0.13108626 -0.12659371
0.025897985 -0.055083714 0.1438042 0.03274017 0.04464605 -0.1221485 -0.005818538 -0.12939937
0.00977824 0.2516633 0.20879719 0.026570031 0.17851676 -0.03132961 0.13921042 0.11345499
0.37271032 0.36909562 0.31485033 0.3798425 0.20093289 -0.3683505 -0.31816155 -0.027139807
-0.015586335 -0.12366684 -0.11717757 -0.2162819 -0.21590738 -0.075649895 0.011213688 -0.13673493
-0.19100994 0.12772237 -0.07946607 -0.3044481 -0.013386978 -0.023550935 -0.065156244 -0.17385148
0.092181295 -0.09633585 -0.09035959 0.06470757 0.07229861 -0.007065213 0.072912045 0.075559646
-0.031174872 -0.093040235 0.016012691 0.12142085 -0.044375274 0.02262685 0.11185351 -0.04025633
-0.15346286 -0.22649528 -0.14310302 -0.19425805 -0.1009942 0.07072379 -0.16545986 0.11200373
0.058295112 0.24282674 0.08408489 0.021309258 0.29384637 0.13678184 0.094023846 -0.11249957
-0.119525805 -0.13346869 -0.1143046 -0.103416584 -0.4215882 0.2523812 0.17499892 0.042833198
-0.031534374 0.035968266 -0.040078703 -0.0015032751 0.08004137 0.114971966 0.044604413 0.021657681
0.070507355 0.16748703 -0.15573008 0.11135093 -0.12346055 -0.15557809 -0.047942434 -0.25177258
-0.13511017 -0.30676875 0.2257293 0.16559596 0.011816944 -0.02853419 0.1317701 -0.024803922
-0.17931876 0.1195599 0.105878666 0.17118743 0.041139916 0.0060580354 0.003047835 -0.061664857
0.07819625 0.0071478006 -0.18261607 -0.3241478 -0.3923768 -0.3907165 -1.1324835 0.23193136
0.16105601 0.12684825 0.120656975 0.053121284 0.010444197 -0.1584435 0.21001597 -0.0835902
-0.0903312 -0.031061567 -0.13621439 -0.115433104 -0.3116603 -0.0075337966 0.17136428 0.012919283
-0.026580686 -0.025329709 0.09290827 0.0998046 0.072571464 0.0903632 -0.096271746 -0.098140895
-0.10489408 -0.1871624 -0.042943425 -0.008630748 -0.15598015 -0.23314148 -0.13074604 -0.2056424
-0.30249754 -0.2417691 0.25415608 0.12502223 0.1181556 0.11832343 0.18546274 -0.025134046
0.36372823 -0.08310528 -0.11583607 0.019750288 -0.003138224 -0.15800184 -0.13776568 -0.08813564
0.009311504 -0.0020982644 -0.053148333 -0.014677688 -0.19049674 -0.21043958 0.12018449 0.21497272
0.33696347 0.24453312 0.287841 0.10196703 0.28681672 0.5209683 -0.012727963 -0.05550125
-0.17625964 -0.13498324 -0.13876064 -0.036733296 0.10853439 -0.21278985 -0.34065133 -0.20391127
-0.17358465 -0.26470163 -0.34112006 -0.12241689 0.19540603 -0.0196227 -0.0606521 0.19173022

conv1.bias f4 [16]
00000000: 9ca3 9bba a6b2 a2be 669d 67bc 7fbf d23e
00000010: 76e9 4abe 4498 6d3c 1976 a8be ac19 7ebc
00000020: 07cb bc3d 1911 9b3e 85a2 e8bd 5017 683d
00000030: 7474 203e 184d 88bd 365a 6cbe e1cd 163e
-0.0011874321 -0.31776923 -0.014136648 0.41161725 -0.19815621 0.014501635 -0.329026 -0.01550905
0.09218412 0.30286482 -0.11359123 0.056662858 0.15669423 -0.066553295 -0.23081288 0.14726974

bn1.weight f4 [16]
00000000: 8da0 383f f97e ab3f 1457 253f 986b 543f
00000010: aa99 533f 54c2 4a3f a0ed 8d3f c468 3b3f
00000020: a6a8 883f 5717 b53f fa87 8a3f 27a3 803f
00000030: 1421 353f 5feb 883f bc7d ab3f bbd4 413f
0.7211998 1.3398124 0.64585996 0.82976675 0.8265635 0.7920277 1.1088142 0.73206735
1.0676467 1.4147748 1.0822747 1.004979 0.707536 1.069683 1.3397746 0.75715226

bn1.bias f4 [16]
00000000: ffd2 d2be 072d 91be 2a12 d3bb 1b25 acbd
00000010: 157c 4bbe dca7 733a 015c 92be feda 2bbe
00000020: 04c3 12be e2e6 d8be 468f 88be 6e49 0bbf
00000030: 02d0 66bb 733a a5be 75ba 87be cc6b 3cbe
-0.41176602 -0.28354666 -0.0064413743 -0.08405515 -0.19871552 0.00092947274 -0.28585818 -0.16782758
-0.14332205 -0.4236365 -0.2667181 -0.5440892 -0.0035219197 -0.32271156 -0.26509443 -0.18400496

bn1.running_mean f4 [16]
00000000: 5ea8 91bf 2bcd 89be d92d f8be cb55 0f3e
00000010: 960c cfbe b841 bf3b 66b8 c1be e116 b3be
00000020: be22 d9bd 7297 5f3e fb02 e5bc 3d6d a6be
00000030: 2474 c2bc a94f 0ebc aed4 b1be d99f e13e
-1.1379507 -0.26914343 -0.4847248 0.13997571 -0.4043929 0.0058366917 -0.37835997 -0.34978393
-0.1060233 0.21835116 -0.027955523 -0.32505217 -0.02373702 -0.008685985 -0.34732574 0.44067267

bn1.running_var f4 [16]
00000000: dc8e 873f 759b bd3c 4fb6 943e 2fa6 6f3e
00000010: 8c8e 873d 04bd 293e 5f04 9e3c a4b2 543e
00000020: 61bc d53d 48c6 9b3d a098 be3d 179d 083e
00000030: 729e c43d 1875 cf3d 8751 233d 8acf 2d3e
1.0590472 0.023145417 0.2904534 0.23403238 0.066189855 0.1657601 0.019289194 0.20771271
0.10436321 0.076061785 0.09306455 0.13341175 0.096005335 0.10129756 0.039872672 0.16973701

conv2.weight f4 [32, 16, 3, 3, 5]
00000000: 03eb fbbd eba5 0dbe 84c7 04be 076c 01be
00000010: 25c8 23be 4d87 003e 3a9e 113e 001e 083e
00000020: 71b9 1a3e 2248 e93d ba14 04bd 8bb7 a4bc
00000030: b5da 69bd 376d 9dbc f1e3 17bd 3261 88be
00000040: 4c72 8bbe 61db 55be b1ef 7cbe 8c03 3bbe
00000050: d552 db3d d86e 043e 6d89 e43d 9d8f 1b3e
00000060: f39b 163e f9b6 d3bd a990 8ebd 9e45 80bd
00000070: 5cf4 8ebd 9e99 1bbd 0087 1bbe 919e e3bd
00000080: 3895 efbd 047b eebd 086d 4cbe 144b cf3d
00000090: 447c d63d a1a7 f43d 614f 073e dc14 3b3e
000000a0: 6da8 95bd afee a5bc 169e 9ebb b7f2 273a
000000b0: ccbe e0bb 4176 47be 3f83 60be 8b5c 5abe
000000c0: d311 5bbe 23fb 42be f2fb b3bd aed7 f7bd
000000d0: 895f 2fbe 9f27 04be faa0 2cbe e5d6 69bd
000000e0: c6ed d1bc db3c ffbd 8bb7 14be 34c7 5fbe
000000f0: 906f 1d3e 6eff 103e 2f23 fe3d c370 2c3e
00000100: 0bcf 2f3e c97d 5c3e a2b8 243e e427 1d3e
00000110: f9a3 193e 424b e53d 4d08 0b3e baea c93d
00000120: b22c d13d e441 9b3d b4e6 22bb 63bc 5ebb
00000130: 360a e6bb 0e08 743d d406 1f3e 4200 693e
00000140: ea7f 4abe 8266 42be 64c1 1bbe b0e8 14be
00000150: 71a1 21be a5dc 8ebd e7ac 05bd 62ac c8bc
00000160: 94d6 50bd ce0d 13bd ea2c d9bc a6e9 48bc
00000170: 7cfc 20bb bc6a a0ba 950e 063c 61c8 823e
00000180: ff81 783e c6c9 943e 29bc a23e dbed a03e
00000190: 1934 7e3d 3762 443d a8e8 c13d 603e 8f3d
000001a0: 8f1f 2d3d 5b71 61be 8fc8 51be 37b6 40be
000001b0: ac19 59be 9e23 29be fddc 6ebd 0cca 30bd
000001c0: 5b14 a23b 407a 393d 1941 b13c 71b4 0d3d
000001d0: 78ad 893b 4b5d 09bd 5e3a 053d b02a 40bc
000001e0: 070e 3ebe 2eeb 36be 41e5 29be 3590 42be
000001f0: 546e 6dbe 0041 973d 6d2b b33d b949 d53d
00000200: cd87 0c3e 0944 243e bf7a 2d3e e90b 4a3e
00000210: 1e66 4b3e e283 4a3e 1171 613e 8c6e 76be
00000220: 2797 38be 0ec9 37be d153 36be 23ea 5cbe
00000230: f353 05be 4fb7 f3bd 56c9 04be 3c14 10be
00000240: f60b 20be ce9b bebd 5abb d3bd b203 29be
00000250: 6d65 44be 5f89 6fbe e038 18be d4eb 21be
00000260: b5cb b5bd b094 f1bd 58cd 9fbd 9505 e3bd
00000270: d789 8fbd c947 45bd b180 abbd 627e 00bd
00000280: 8159 ee3c a6cf db3b 433d 2c3a acea d53c
00000290: 378f 833d e44f 20bb 8989 8a3c 233f 7b3d
000002a0: 8d5a 193d dc85 a33d 53bb 23be e9ad 46be
000002b0: add1 2bbe e355 f0bd cc45 1abe 7d5f f2bd
000002c0: d70c d1bd ae8f fbbd 491e 68bd fcf8 a0bd
000002d0: fd7c 5e3d cac8 063e 4c57 383e d49d c13d
000002e0: ba16 813c c961 00bd 0301 8e3c 1860 bf3d
000002f0: bd65 633d 3cd1 e13c e30a 84be c5c4 97be
00000300: 1058 74be 4432 98be 74ee a7be ee91 273e
00000310: 8f11 143e f169 2b3e 4b71 343d 9585 43bc
00000320: 4161 8c3d 3f36 ca3d a0ef 253e 152e 0a3e
00000330: dd35 313e d682 743d 025f 5dbd 5713 71bd
00000340: 884d a6bd d3b3 a2bc 3ae1 dc3b dbeb 01be
00000350: a331 2dbe acf5 68be 3c94 83be 0f20 e8bc
00000360: ae3f 9abd d48b d3bd ffba 0bbe 974a 9bbd
00000370: 67a6 ab3e ad22 863e f427 463e 76c5 363e
00000380: 2731 503e b288 023e ce1c 253e b6b7 ad3d
00000390: bcb4 043e c8a8 bf3d d5ba 6c3e ab6f 543e
000003a0: 5fec 6b3e ef8e 453e b9a0 6a3e d1f2 963e
000003b0: e0ef 8f3e 24ca 8d3e 6c6f 833e 0ccd 903e
000003c0: db74 b1be d54f bdbe 1c62 b9be 5882 b8be
000003d0: 376e ccbe 8ca5 abbd c257 ecbd a3bc d3bd
000003e0: 4720 abbd 8e30 a7bd 5623 beba b223 4ebd
000003f0: e482 c8bb 1b0b 8fbc 11f0 0bbd f504 363d
-0.12300684 -0.13832824 -0.12966734 -0.12638865 -0.15994318 0.12551613 0.14220515 0.13292694
0.15109803 0.11390711 -0.03224633 -0.020107051 -0.05709334 -0.019217117 -0.037082616 -0.26636654
-0.2723564 -0.20884468 -0.2470081 -0.18263072 0.10709158 0.12932909 0.111590244 0.15191503
0.14707927 -0.10337634 -0.069611855 -0.062632784 -0.069802016 -0.037988298 -0.15188217 -0.111142285
-0.11698383 -0.11644557 -0.19963467 0.10121742 0.104729205 0.11946035 0.13213874 0.18269676
-0.07307515 -0.020255415 -0.0048406227 0.0006406712 -0.0068586823 -0.19478704 -0.21925066 -0.21324365
-0.21393518 -0.19041114 -0.08788289 -0.121016845 -0.17126288 -0.12905739 -0.16858283 -0.057089705
-0.025626075 -0.12462779 -0.14523141 -0.21853334 0.15374589 0.14159939 0.124090545 0.1683989
0.17168824 0.21532358 0.16086057 0.15347248 0.15003957 0.11195995 0.13577385 0.09859224
0.10213603 0.07580927 -0.0024856748 -0.00339868 -0.00702026 0.059577994 0.15529948 0.22754005
-0.19775358 -0.18984416 -0.15210491 -0.14541888 -0.15784241 -0.06975678 -0.032635596 -0.024496261
-0.050985888 -0.035901837 -0.026510675 -0.012262737 -0.0024564555 -0.001223884 0.008182188 0.25543502
0.2426834 0.2906019 0.3178418 0.3143147 0.062061403 0.047945227 0.09468204 0.06994319
0.042266425 -0.22015898 -0.20486663 -0.1881951 -0.212012 -0.16517493 -0.05831622 -0.043161437
0.004946274 0.045282602 0.021637486 0.03459591 0.0042015873 -0.033536237 0.032526366 -0.0117289275
-0.18560039 -0.17863151 -0.1659136 -0.19000323 -0.23186618 0.07385445 0.08748517 0.10414452
0.13723679 0.16041578 0.16941355 0.19731106 0.19863173 0.19776872 0.22015788 -0.24065608
-0.1802641 -0.1794779 -0.17805411 -0.21573691 -0.13020305 -0.11900198 -0.12967429 -0.14070219
-0.15629563 -0.09307061 -0.10338469 -0.16505316 -0.19179316 -0.23392247 -0.14865446 -0.15812618
-0.08876745 -0.11795938 -0.07802838 -0.11085049 -0.07008713 -0.048164163 -0.08374155 -0.031370528
0.029095413 0.006708103 0.0006570408 0.026112877 0.064238004 -0.002446168 0.016911285 0.06133951
0.03743987 0.07984516 -0.15989427 -0.19402279 -0.16779204 -0.117351316 -0.15065688 -0.11834619
-0.10207527 -0.12283264 -0.056669507 -0.0785999 0.054318417 0.13162532 0.18002051 0.094539315
0.015757907 -0.031343255 0.017334467 0.093445 0.055516947 0.027565591 -0.25789556 -0.2964231
-0.23861718 -0.2972585 -0.32799113 0.16364262 0.14459823 0.16739632 0.044053357 -0.011933704
0.06854487 0.09873628 0.16204691 0.13494141 0.17305703 0.059695087 -0.054045685 -0.058856335
-0.08120257 -0.019861137 0.0067407163 -0.12687628 -0.16913466 -0.22749966 -0.2569903 -0.0283356
-0.07531677 -0.103294045 -0.13645552 -0.07582586 0.33525392 0.2619833 0.19351178 0.17848763
0.2033125 0.12747458 0.1612427 0.08482306 0.1295957 0.09358364 0.23118146 0.20745723
0.23039387 0.19292806 0.22912873 0.2948213 0.28112698 0.27693284 0.25670946 0.28281438
-0.34659466 -0.3697497 -0.36207664 -0.36036944 -0.39927837 -0.08381185 -0.11540176 -0.10338714
-0.08355766 -0.08163558 -0.001450638 -0.05032701 -0.006119119 -0.01746135 -0.034164492 0.04443832

conv2.bias f4 [32]
00000000: 15fa 60bd aae8 aabd 2548 2ebc 640b bfbd
00000010: 46c6 2bbd 9a8e 3abe 4c50 37bb 72e8 0bbc
00000020: e5bb 0dbd 0648 1abd 55cd 67bc 3564 023d
00000030: 4d2f 41bb 1ac7 b2bd 167f 62bc f345 19be
00000040: bd7d 92be 4b43 293c 175a 3fbd ed8b 8cbc
00000050: 1713 703d 45ed cfbb 8f5d ecbd 78c6 f53c
00000060: 1f1b f73b 82fd 8c3b a935 95bc 1929 71bd
00000070: 72b0 7dbd c694 543d f4bf 54bd 90bd 8cba
-0.054925997 -0.083451584 -0.010637318 -0.093283445 -0.041937135 -0.1821846 -0.0027971445 -0.008539306
-0.03460302 -0.037666343 -0.014148076 0.031833846 -0.0029477656 -0.08729382 -0.013824245 -0.1496809
-0.28611556 0.010330985 -0.046716776 -0.017156566 0.058611955 -0.0063454234 -0.115412824 0.030001864
0.007541075 0.0043026814 -0.018214064 -0.058877084 -0.06193585 0.051899694 -0.051940873 -0.0010737646

bn2.weight f4 [32]
00000000: 557a 6e3f 567f 633f 666c 223f a488 493f
00000010: a3e0 6d3f 8393 7b3f 8fc4 5f3f ddc7 523f
00000020: 9281 5c3f f661 713f f5cd 2c3f 467d 443f
00000030: 7345 333f 5926 733f 36bf 553f dfd7 793f
00000040: 9344 793f 8cfa 4f3f d45d 703f b9a7 573f
00000050: 1a07 6a3f 8ae1 553f ff3a 723f e17c 603f
00000060: 576c 3b3f dc4e 663f c452 663f 88f6 703f
00000070: cd21 6d3f b5ec 7a3f bba5 583f 5e7d 463f
0.93155414 0.88866174 0.6344665 0.7872412 0.92920893 0.9827196 0.874093 0.8233622
0.8613521 0.942901 0.67501765 0.7675365 0.70027846 0.9498039 0.8349489 0.9759502
0.9737026 0.8124168 0.9389317 0.842403 0.91417086 0.8354727 0.9462127 0.8769055
0.7321219 0.8996408 0.8997004 0.94126177 0.926297 0.98017436 0.84627885 0.77535045

bn2.bias f4 [32]
00000000: aa83 27bf d940 30bf fc27 dfbe 1d35 b8be
00000010: 5adc f6be e1a2 5fbf 035a f4be 3490 0cbf
00000020: b153 b6be 9c02 0cbf deb2 01bf 0be9 d2be
00000030: dd72 bfbe 4511 2ebf 98d0 13bf 7060 15bf
00000040: 859f 1bbf b188 18bf abb0 22bf 3e80 0ebf
00000050: 052f 0abf 3806 bfbe aec4 34bf ae22 1dbf
00000060: eb9f d4be b365 02bf 4613 e3be b2c0 3dbf
00000070: d692 21bf 5f88 18bf f649 9ebe 7678 b3be
-0.6543528 -0.6884895 -0.43585193 -0.35978022 -0.4821499 -0.8735791 -0.47724923 -0.54907537
-0.35610726 -0.5469148 -0.50663555 -0.41193423 -0.3739232 -0.679951 -0.57740164 -0.58350277
-0.6079028 -0.59583575 -0.63550824 -0.5566443 -0.53977996 -0.37309432 -0.7061261 -0.6138104
-0.41528258 -0.5093643 -0.44350642 -0.74122155 -0.6311468 -0.59583086 -0.30915803 -0.35052842

bn2.running_mean f4 [32]
00000000: 8308 25c0 1089 aac0 4fbe 4d40 2d08 9cc0
00000010: 8d8e 6cc0 c3c4 4cc0 7723 b4be 86d2 1ec0
00000020: 0f52 86c0 1222 94c0 a389 fd3f 9489 bac0
00000030: 63f2 b8be 9d75 5cc0 8c02 c5bf 3b0d 98c0
00000040: 6f99 b3c0 3829 83c0 5a16 50c0 722a 43c0
00000050: 9dd0 2dc0 ae8b 96c0 eeb1 77c0 99fd 19bf
00000060: ce5d 67c0 78bf d9c0 ff35 8ec0 0cdf fdbf
00000070: 100d 6cc0 b9d4 37c0 5e2e a7c0 f944 6ac0
-2.5786445 -5.3292313 3.2147405 -4.875998 -3.6962006 -3.1995094 -0.35183308 -2.4815993
-4.197517 -4.629159 1.9807628 -5.829294 -0.36122426 -3.4446785 -1.5391402 -4.751615
-5.6124797 -4.0987816 -3.2513642 -3.0494657 -2.7158577 -4.7045507 -3.870235 -0.60152584
-3.6151004 -6.8046227 -4.4440913 -1.9833694 -3.6882973 -2.8723586 -5.22441 -3.6604598

bn2.running_var f4 [32]
00000000: 7841 5b41 bf4e 6241 2a46 3841 2e9b c741
00000010: c7f6 7241 cb67 e340 07a3 8d41 4edb 4941
00000020: 3978 1f41 16ca be41 bdd6 9441 e66f d841
00000030: 4f12 0242 e11e a840 ea71 2f41 cc30 1541
00000040: 9ee6 0741 be3f 1a41 5d9b e340 46c1 3041
00000050: 29f5 1241 63e9 a941 5a2c e940 dbba a641
00000060: c47b 3b41 39f4 2542 d75f 0e41 89f2 9240
00000070: fbea 1341 d082 2d41 aa84 0742 1d35 3641
13.703484 14.144225 11.51713 24.950771 15.185248 7.10642 17.704603 12.616041
9.966851 23.848675 18.604853 27.054638 32.51788 5.2537694 10.965311 9.324413
8.493803 9.640562 7.1127152 11.047186 9.184854 21.238958 7.286664 20.841238
11.717716 41.4885 8.898398 4.5921063 9.244868 10.844437 33.879555 11.387967

conv3.weight f4 [64, 32, 3, 3, 3]
00000000: 4d57 a23d 67fa 0f3d a07a 333d fa39 1f3d
00000010: 31f1 30bd 4f52 b3bc a21a 5a3e 846b fa3d
00000020: fc6d 193e ff88 ba3d 83dc 493d 998a c63d
00000030: ee0b 373e 47a0 023e 0fe3 223e 2e79 9e3e
00000040: a157 813e 46e2 983e 8231 433e 1f26 dc3d
00000050: 75c2 153e e863 2f3e 94a3 d73d 7f1a 083e
00000060: 36ac 443e f6fa 1c3e 1794 363e 1172 fd3d
00000070: 8a9b d63d c1ed fa3c aee2 9fbd 006b b5bd
00000080: 8dcf 03be 559f 1f3d 5043 58bc 23c4 3bbd
00000090: d061 823d 9848 0a3d fd9e 653c 6ace c1bd
000000a0: ccdc b5bd 2168 eebd bdc0 0fbe 6c95 1bbe
000000b0: 5a2c 37be 5bab 14be 266a 39be 0fab 18be
000000c0: c644 3bbc 52bb 61bd e86d 01bd 13a4 993c
000000d0: 8b45 343c 9202 03bd 319f 41be 51f6 46be
000000e0: 3e8c 1dbe 9d61 75bc c95a 6ebd eb00 d33b
000000f0: b2f0 123e ab14 963d 9854 fb3d b33e 4abe
00000100: b324 5fbe 45d3 5bbe 42d8 75bd dca3 8cbd
00000110: 6e93 f0bc 8566 213e 2cb9 ec3d e41a 303e
00000120: a659 d8bc d537 62bd e9d3 35bc dd8b c83d
00000130: dc2c 7e3d ce84 843d 1884 4a3e 0b82 263e
00000140: 788c 3a3e 4ac1 343e 8ba0 133e 31f3 713e
00000150: 2774 863d 7593 bb3d 3ad4 1b3e 37b4 0c3e
00000160: 4ab0 f33d 22f6 513e 7fbf 8f3d 815a a73d
00000170: 0d70 353e 0ff0 813d eb1e f6ba 0abd ac3d
00000180: 9aaa 083e 2ec1 0e3e f02f 383e 3e51 c83c
00000190: 746a 2d3d e80a 903d 7373 c33d 9f1c 273d
000001a0: 22bd 043e 8d68 113e c44c 093e ffa8 5a3e
000001b0: bd6e 3dbc 6bd7 c8bb 289a 15bd 9e8c 333d
000001c0: d468 c0bc c1c4 bfbd cb3c 2f3e cc56 bc3d
000001d0: 093d 903c 337e 19be 1308 48be be57 2ebe
000001e0: ae77 153c 5216 d2bd b395 7ebd efde 0e3e
000001f0: babc 64bc 45d1 e03c 9fc5 10be 38e7 15be
00000200: 8046 f0bd 617e fcbd 5d76 66be f556 4bbe
00000210: 7f1b 6ebe 56ef 83be 3fe9 9cbe 9835 00bf
00000220: 62dc 8bbe d817 04bf 56e9 bbbe 6045 4fbe
00000230: b1e2 d4be 162c c6be 2c04 6cbe 6eae d1be
00000240: 46f0 0bbf 8679 99be e61b 0abf 5043 e9be
00000250: 99ed 75be c966 edbe 0c00 08bf db05 a7be
00000260: 4342 05bf 3e67 08bf 5b84 c2be dc05 15bf
00000270: 0794 08bf 0603 a7be 5e29 0bbf 8956 27bf
00000280: 325a 00bf 3116 32bf 0edb 0d3d 2913 ac3d
00000290: 12b8 073e 4930 fb3d b83a ae3d bf9e 093e
000002a0: 71e7 f03d 37c6 ea3d be62 2c3e a483 363d
000002b0: 389f 503c 58bb 643d 6bb5 183e dbb7 a73d
000002c0: a752 3f3e 7cad 283e 56be d43d d4c5 433e
000002d0: 9e16 1cbe db57 73be 1f9a 31be ed15 fdbc
000002e0: ebd1 dbbd a3b4 dcbc 3b7a ba3e 2495 ac3e
000002f0: ef14 b13e fb4d 04bf 4260 a5be 17a7 82be
00000300: 96a3 1abe 378f a4bd 3208 0abd 4f63 e23d
00000310: 17af 123e c049 473e 57d3 f3be 072c 97be
00000320: 0081 83be f440 8cbe 2a91 08be 5887 0bbe
00000330: eccd b6bd 1da5 8cbc 35e8 bdbc b0b6 74be
00000340: cb4a d1bd 0dd2 b3bd dc21 a5be c42c 46be
00000350: 0c26 98be 1e6a 37be 1541 a7bd 1c9f 69be
00000360: d8aa debd 1c7b f6bd c034 f3bd 73b1 83bc
00000370: eb7f 86bd efaa bcbd df57 05be d7eb f6bd
00000380: 71f3 44be 8059 23be 52a8 42be 352f 07be
00000390: cd64 27be 8b67 3cbe 1145 4abe 73ea c6bd
000003a0: 70ee 07be 15a5 20be 5031 d93d 344a 883d
000003b0: 5925 213d 0a8a 173e 24de 6c3d 7c52 8d3d
000003c0: fdfa 1cbc 5623 12bd 0afb 3dbd 18f6 0ebe
000003d0: a325 5cbe 3049 11be dcc8 56be 3854 84be
000003e0: ec88 93be 1493 57be b0ab 5cbe 38cd 87be
000003f0: 7589 fa3d e5d2 a03d 158b b53d 2b7b c9bd
0.079268076 0.03515091 0.043818116 0.03887365 -0.043198768 -0.021889834 0.21299222 0.12227538
0.14983362 0.09108161 0.049282562 0.09694404 0.17875645 0.12756453 0.15906928 0.30951828
0.25262168 0.29860133 0.19061854 0.107494585 0.1462496 0.17127955 0.10529247 0.13291357
0.19206318 0.15330109 0.1782993 0.12375272 0.104788855 0.030630948 -0.078069076 -0.08858299
-0.12872143 0.03897031 -0.013199642 -0.045841347 0.063663125 0.033760637 0.014014957 -0.094631985
-0.08880004 -0.11640955 -0.14038368 -0.15193719 -0.17888013 -0.14518492 -0.18106899 -0.14909004
-0.011429971 -0.055110283 -0.031598955 0.018754994 0.011002908 -0.031984873 -0.18908383 -0.194299
-0.1538553 -0.014976886 -0.05819205 0.0064393184 0.1434963 0.07328161 0.12271994 -0.1975048
-0.21791343 -0.21467312 -0.060020693 -0.06867191 -0.029367175 0.15761764 0.11558756 0.17197758
-0.026409935 -0.055229027 -0.011097887 0.09792302 0.0620545 0.06470643 0.19776952 0.16260545
0.18217647 0.17651859 0.14416711 0.23627926 0.06565123 0.091589846 0.15217677 0.13740622
0.11898859 0.20504048 0.07018947 0.08171559 0.17718525 0.06344616 -0.0018777525 0.08434494
0.1334633 0.1394088 0.17987037 0.024452802 0.04233785 0.0703333 0.095435046 0.04079878
0.12962773 0.14200039 0.1340819 0.2135353 -0.011562047 -0.0061291954 -0.036523968 0.043835275
-0.023487486 -0.093637 0.17113034 0.09196243 0.017607229 -0.14989547 -0.1953433 -0.17025658
0.009122772 -0.102581635 -0.062154483 0.1395223 -0.013961012 0.027443537 -0.14137886 -0.14638984
-0.11732197 -0.12328792 -0.2250609 -0.1985739 -0.23252676 -0.25768536 -0.30646703 -0.5008178
-0.27316576 -0.5159888 -0.3670146 -0.20241308 -0.41579202 -0.3870551 -0.23048466 -0.40953392
-0.54663503 -0.29975528 -0.5394882 -0.45559168 -0.24016418 -0.4636748 -0.5312507 -0.32621655
-0.5205423 -0.53282535 -0.37991604 -0.58212066 -0.5335087 -0.32619494 -0.54359996 -0.6536642
-0.5013763 -0.6956511 0.034632735 0.08402092 0.13253811 0.12265069 0.085072935 0.13439463
0.11762894 0.11463588 0.16834542 0.044559136 0.012733273 0.055842727 0.14912955 0.081893645
0.18683873 0.16472429 0.10387866 0.19118434 -0.15243003 -0.23763983 -0.17343949 -0.030894244
-0.10733398 -0.026941603 0.3642138 0.33707535 0.34586284 -0.5168149 -0.323 -0.25518104
-0.15101466 -0.080351286 -0.033699222 0.11054098 0.14324604 0.19461727 -0.47622177 -0.29525778
-0.25684357 -0.27393305 -0.13336626 -0.13625848 -0.08925995 -0.017168576 -0.023182014 -0.23897815
-0.10219344 -0.087802984 -0.32252395 -0.19353014 -0.29716527 -0.17911574 -0.0816671 -0.22814602
-0.108724296 -0.120352 -0.11875296 -0.016075825 -0.06567367 -0.092122905 -0.13021801 -0.12056702
-0.1923349 -0.1595211 -0.19009522 -0.13201602 -0.16347046 -0.18398874 -0.19752909 -0.097126864
-0.1327455 -0.15687974 0.10605109 0.06654778 0.039342258 0.14798751 0.057829037 0.06900498
-0.009581325 -0.03567823 -0.046381988 -0.13961065 -0.21498732 -0.14188075 -0.2097506 -0.25845504
-0.288154 -0.210522 -0.21549869 -0.26523757 0.12233249 0.07852725 0.088644184 -0.098379456

conv3.bias f4 [64]
00000000: bded 573d 46a3 d0bc b9f4 2d3d c158 003f
00000010: 234a eabd 8f7c 8d3e 3e6b 23be 571c 9dbd
00000020: 4303 ff3d 0986 bcbc ad74 d03d bb1c 70bd
00000030: 4e79 623e a44d c5bd ef01 2ebe c2dc 4d3e
00000040: 88a9 c3bd 3a52 e53d 143e 823e 1562 e5bb
00000050: 0386 0ebe b9aa 3f3e a5ca 49be 0597 25be
00000060: de58 903e 2e7f bc3e b48a e93a 3846 29be
00000070: 7a21 60be 03a9 b33d bdbd 8d3b 875c dcbb
00000080: d19b debd 95e1 1bbd ba91 6fbd 1229 163e
00000090: 5fd4 56bd 69d0 12be a5af 473e 1fae 43be
000000a0: 55fc bf3e 85b0 8c3d bc1d 3bbe 5358 af3e
000000b0: 40d7 2c3d 388c 30bd 0345 093e 87a3 a03c
000000c0: f9b9 143e 487a 9e3c 8fa1 13bc 726a 3f3e
000000d0: 9626 663d d2a6 94be fdb0 ad3d 185f 283e
000000e0: 70ae 04bc e70c 0fbc 4bff 23bd 7e66 3f3d
000000f0: ba9f 833d c9a2 a03e f718 54bd 78f3 8f3e
0.05271696 -0.02546848 0.042469714 0.5013543 -0.11439922 0.27634093 -0.15958878 -0.07671421
0.12451794 -0.023013132 0.10178504 -0.05862115 0.22116587 -0.096339494 -0.16992925 0.20103744
-0.0955382 0.11197324 0.25437987 -0.0070002177 -0.13918309 0.1871747 -0.19706209 -0.1617089
0.281928 0.3681578 0.0017817826 -0.16530693 -0.2188777 0.08772471 0.004325597 -0.0067248973
-0.10869563 -0.03805693 -0.058488585 0.14664105 -0.052448627 -0.14337315 0.19500597 -0.1910939
0.37497202 0.06869606 -0.18273062 0.34247074 0.042197466 -0.043102473 0.13405232 0.019609226
0.14524068 0.019345418 -0.009010687 0.1869295 0.056189142 -0.29033524 0.084810235 0.16442525
-0.00809823 -0.0087311035 -0.04003839 0.046728604 0.0642695 0.31374195 -0.05178162 0.2811544

bn3.weight f4 [64]
00000000: 766c 7040 48ec 7840 c9bf 4d40 d7b7 5040
00000010: 1123 4840 10ad 5c40 6d6a 6b40 3f47 4340
00000020: f033 5a40 3ac9 3b40 8e3c 7e40 0311 6a40
00000030: 77d1 4040 3c23 7240 71a8 3f40 93d9 3940
00000040: 83db 5140 fce7 5940 09e4 5c40 adc1 3540
00000050: b8fe 5d40 0c22 6040 e67c 5640 018a 4d40
00000060: d043 6540 9258 5640 ca27 6340 9f50 2b40
00000070: 3c6a 4d40 17a3 6a40 3c4e 6340 ed06 6e40
00000080: d0e4 6440 9280 3140 ed63 3340 9cc3 5840
00000090: c078 4f40 6779 5840 c15a 6640 301f 4440
000000a0: b099 2940 bcdc 2840 ea7c 5640 6a93 3840
000000b0: e6c8 4d40 c583 3740 40c5 7a40 eafd 4c40
000000c0: bff4 5340 50fa 5840 f0df 8e40 4418 2d40
000000d0: 8cec 5a40 3445 3240 c812 4d40 f144 3740
000000e0: 0844 3140 96b4 3640 b470 4140 70cf 7340
000000f0: 3647 6240 5bfd 2440 8792 3040 9517 3140
3.75662 3.8894215 3.2148306 3.2612207 3.1271403 3.448063 3.6783707 3.0512235
3.40942 2.934157 3.972446 3.6572883 3.0127847 3.7834005 2.9946558 2.9039047
3.279023 3.4047842 3.4514182 2.839946 3.4686718 3.502078 3.3513732 3.211548
3.582264 3.349156 3.5493035 2.6767957 3.209609 3.6662042 3.55165 3.7191727
3.5764656 2.7734723 2.802974 3.386939 3.241745 3.3824098 3.5992892 3.0644035
2.6500053 2.6384726 3.3513741 2.8839974 3.2153869 2.8674176 3.9182892 3.2029977
3.311813 3.3902779 4.464836 2.704606 3.4206877 2.7854738 3.2042713 2.8635828
2.7697773 2.854772 3.0225039 3.809536 3.5355964 2.5779636 2.7589433 2.7670643

bn3.bias f4 [64]
00000000: 7f1b 403f 8ff7 6d3f 97d6 713e 9e47 0e3f
00000010: caa8 fa3e 6b1a 443f 0a79 3b3f d5c2 7a3e
00000020: 3084 f83e 9a12 b73e d2d8 193f 2408 373f
00000030: 7910 813e 8d4c 4e3f c834 d53e 29b9 9c3e
00000040: a46d de3e e270 033f 52fe 853e 9340 c63e
00000050: 705c ef3e 66de 3f3f e1e0 df3e 5aac cd3e
00000060: e915 143f 68f1 103f 1ef4 e53e 7c9f ad3e
00000070: 9ad3 a33e a419 673f 3e4c 003f 1bf4 393f
00000080: e8e0 253f 037d ac3e 5118 fb3e 4274 293f
00000090: 75ab 573f 5d6c e33e 9a83 7a3f e22c 073f
000000a0: 2cd4 c83e 4c4d 1d3e b90b e33e abec f43e
000000b0: 2b6d 2a3f b495 303f d1f2 323f 356a 1a3f
000000c0: feeb f03e 8cbc 133f 46b6 653f 2323 313e
000000d0: 3862 153f 5876 b93e eac7 0f3f de8b 673e
000000e0: f9a3 db3e 7843 c13e f96d d73e 0d29 ef3e
000000f0: 9664 2f3f 5912 353e 3102 883e 99e2 993e
0.75041956 0.9295587 0.23617016 0.5557803 0.489569 0.7660281 0.73231566 0.24488385
0.4853835 0.3575638 0.60096467 0.71496797 0.2520788 0.8058556 0.4164183 0.30610016
0.43443024 0.5134412 0.26170594 0.3872114 0.46750212 0.7494873 0.43726256 0.40170556
0.5784593 0.56618357 0.4491281 0.3391074 0.31997377 0.902735 0.50116336 0.726381
0.64796305 0.33689126 0.4904199 0.6619302 0.84246 0.44418612 0.9785706 0.5280286
0.39224374 0.15361518 0.4434488 0.47836813 0.6657283 0.6897843 0.6990176 0.6031831
0.47055048 0.57709575 0.8973125 0.1729856 0.58352995 0.36223102 0.5616442 0.22611949
0.4289854 0.37746787 0.4207609 0.46711007 0.68512857 0.1768278 0.26564172 0.30055693

bn3.running_mean f4 [64]
00000000: bd93 11bf 368d 51be 442a 66bf 6b50 563f
00000010: d2c8 3e3f 2477 99bf 1797 29bf a709 0cbf
00000020: 7fb2 d43d 8cca 31bf 64e4 8d3f a8f5 58bf
00000030: 050f 253d 1fdc 87be 444a 1bbf 443b d53f
00000040: 7c2c 24bf 9090 533e 4f48 06bf 2bba aabe
00000050: e8d7 e9be 99e5 353e 4c96 dfbe ec99 51bf
00000060: 069c a3be 134b 0dbe df2d 41be 018d 82bf
00000070: f3e2 8bbe 2d20 78bf cc16 91bf 57ec b2bf
00000080: 6557 fcbe 0069 70bf 2db5 00bf c2b7 7dbe
00000090: c719 c4bf 9ac4 63be 27fd 83bf cb00 02bf
000000a0: 5726 a1be 7682 0dbf fb82 03be bc07 29bf
000000b0: 2d59 a5bf ccc3 c5be 15b3 163e 7e75 adbe
000000c0: cb61 943f 2ef3 2cbe ca59 7c3f d031 e8be
000000d0: 5cce bdbe 8087 00be 98cd 81bf 0ac4 a0bc
000000e0: 5b81 71bc 4c92 763e 121d 3ebf 90f6 50bf
000000f0: 1277 45bf 802b 0fbf 276e 3fbf cea3 913f
-0.56866056 -0.20464024 -0.8990824 0.8371646 0.7452518 -1.1989484 -0.6624617 -0.5470223
0.10385608 -0.69449687 1.1085324 -0.8474984 0.040297527 -0.26535127 -0.60660195 1.6658711
-0.6413038 0.20660615 -0.52454084 -0.3334516 -0.45672536 0.17763366 -0.43669355 -0.8187549
-0.31954974 -0.1379817 -0.18865155 -1.0199281 -0.27321586 -0.96924096 -1.1335082 -1.3978375
-0.49285427 -0.9391022 -0.5027645 -0.2477713 -1.5320367 -0.22242966 -1.0311631 -0.5078246
-0.31474563 -0.5527719 -0.12842934 -0.66027427 -1.2917839 -0.38625944 0.14716752 -0.33878702
1.1592344 -0.1688964 0.9857451 -0.45350504 -0.37071502 -0.12551689 -1.0140867 -0.019624729
-0.014740313 0.24079245 -0.7426311 -0.81626225 -0.7713481 -0.5592575 -0.74777454 1.1378114

bn3.running_var f4 [64]
00000000: c6c2 3140 f624 1740 9b1e 0740 7943 1d40
00000010: 180a 1240 7a1e 1c40 7a95 1240 8f7d 1040
00000020: 1693 1740 8a7d e03f 3e8d 0940 9d42 0640
00000030: e8a3 f83f b8bd 1840 5d8b 1c40 2c08 3140
00000040: f072 0c40 1841 fc3f 5728 0740 099a cd3f
00000050: 28e2 f23f 03cf 1c40 e2b4 0040 c203 f13f
00000060: 0b67 0740 c1da e33f 183b 0a40 cc80 0a40
00000070: 9c09 f73f 9b55 1d40 488c 1040 c7b9 1740
00000080: 9f0a ed3f e926 ef3f b844 0e40 6a97 0a40
00000090: fa10 0e40 f43c dc3f c9ef 2d40 98db 0f40
000000a0: 0a09 f23f 26c9 e63f 57b7 ed3f 6840 1540
000000b0: 5aa8 ec3f 6f7b 1c40 a363 0440 efad 1140
000000c0: ade9 3540 fe65 ef3f 8bca 0740 6dd0 fa3f
000000d0: ffa5 1940 c27e e23f 9b7f 0a40 ee2d ed3f
000000e0: 3099 1040 7384 4840 0f29 ee3f b87b 1640
000000f0: eb5d fd3f 5eaf d43f 227c ec3f bf48 1140
2.777513 2.361631 2.111243 2.4572432 2.281866 2.4393601 2.2903733 2.2576635
2.3683524 1.7538311 2.1492457 2.0978158 1.942502 2.3865795 2.446006 2.7661238
2.1945152 1.9707365 2.1118371 1.6062633 1.8975267 2.450135 2.0110402 1.8829272
2.1156642 1.7801133 2.1598568 2.1641111 1.9299808 2.45835 2.258562 2.370714
1.8518866 1.868375 2.2229443 2.1654916 2.2197862 1.7206101 2.7177603 2.247778
1.8909009 1.8030136 1.8571576 2.332056 1.8488877 2.4450338 2.0685813 2.276241
2.8423874 1.8703 2.1217372 1.9594857 2.4007566 1.7694933 2.1640384 1.8529642
2.2593498 3.133084 1.860628 2.3513012 1.9794286 1.6616018 1.8475382 2.270065

fc.weight f4 [14, 64]
00000000: 1a48 89bf 4a8a 7c3f cf5d 233e b288 8abf
00000010: 1281 97bf de2d d83d 8e0a 87be 5750 24bf
00000020: 8ab7 40bf c3ce 88bc 78b3 34c0 767a 33bf
00000030: f79d 563f c103 603e 2aa8 8abe 89d5 a2bf
00000040: b77e 923f 5ff0 853e 782e 87bf de7f 4d3f
00000050: 1c57 863f 7dd3 f8be c845 a6bd bc80 2ebf
00000060: 8c43 033f 0edd a53d 3965 843f c5d9 55bf
00000070: 02c7 63bf ee44 1fbe eb31 a3bf af7f 06be
00000080: 0900 9a3f b386 f2bd d665 083f 2432 a43f
00000090: 4149 9ebe 6459 333f b23c b53e a57e e13e
000000a0: 7fa8 5abf 87d2 89be cc2b 523f 052b c4bf
000000b0: add3 8f3e 9ea1 e4bd b8d3 18c0 6694 363f
000000c0: ebca 1cc0 e05f 743f ce54 ae3e 8b94 4bbf
000000d0: bc68 8dbf b7e6 ef3e 4785 1a3f 73f6 a63e
000000e0: 7824 1bbf bcfb 36bf ca43 e0be 8a97 6dbf
000000f0: d448 0d3f c9e8 9abe a3c2 9ebf 25fa 44bf
00000100: a56b 45bf 44e4 d0bd dc90 1d3f 7478 253f
00000110: dc79 fcbe 1ef5 8e3f 0b2b 46bf ad85 a83e
00000120: a573 343d c45a a2bf efa1 993e 8c9c 703e
00000130: 5696 e3be 6ba6 43bf 1256 a8bf b37d e63e
00000140: 46fc d1be ee72 7dbe fec3 4dbf 9f17 81be
00000150: 78d5 54bf 5d3d edbe 90f9 12be 3a47 793f
00000160: 0aee 59be 4dd1 893d efd7 913e 31b0 99bf
00000170: 3d40 51bf 9826 283d 9eb3 b0bf 2043 5e3f
00000180: 6d42 3fbf bb12 353f df30 1b3d b550 da3e
00000190: 4d20 7ebf 664e e83e df24 213c 77c6 56bc
000001a0: 0517 95bf 8706 0dbf e2a0 dcbf 74a7 06bf
000001b0: 76df a53e eea9 d0bd 8285 44bd 634e 1d3f
000001c0: f98e a33e 04d5 8fbf 5ec6 8bbe 6a80 38bf
000001d0: 1a06 b0bf 5b07 54bf e3e9 9a3f 3ea3 c23e
000001e0: 07c7 46be 21d8 c7bf 40be 0cbf 7085 48bf
000001f0: 9657 36bf d387 8ebb 819f 7abf 74b6 0fbf
00000200: 0344 1f3d 02d0 c6bf c976 823e ae7f 23bf
00000210: 8066 e2be c91b 0d3f 8e07 0fbf c72b 4abe
00000220: e7c1 463f 5468 6abf e4dd 94bf a7e6 b53e
00000230: 604e 363e 5060 443f 51fe 17c0 43b5 3e3d
00000240: 77bc 77be f40a 883f 505a 1e3f 435a 71be
00000250: 253c 243f 036d 45bf cfd0 b93e 4c70 16bf
00000260: dacc 433f b795 5e3f 888a bd3e 2342 debf
00000270: 312c 2d3f 4ba1 48be 5905 6d3d c708 70bf
00000280: 58f1 c23e 8108 bbbd 51fc 073f 4651 68bf
00000290: bef0 26bf 4dc7 273f 613d 6b3e 93ef 0a3f
000002a0: 1284 96bf 6539 fcbd 2f92 3bbe 5dde 0fbf
000002b0: 7a07 6d3e da79 01c0 5bf5 fdbe 2fbb 5e3f
000002c0: b257 71bf 28fe 303e b550 a1be baa2 223d
000002d0: d73e 34bf 7bc9 a2bf b97c 483f d74c 9a3d
000002e0: c36a a8bf 149a cdbf 7ba0 edbe ffc9 523e
000002f0: 7efd 7d3f 03ca 08bf c976 82be 0240 d2be
00000300: f4b6 9ebf 17d9 c8bf 42df 8ebf 2693 e1bb
00000310: fa79 4abf a634 b2be d121 0cbf a441 6c3f
00000320: 95b5 563f ed0b fa3e d3dc cbbe 85e9 dcbd
00000330: 57af 32be e9e5 7abe c95e cb3e dcb3 673f
00000340: b299 69bd d51f 063f de86 32bf b9f4 273f
00000350: a119 a83e 7314 0dbf 7ed1 8dbe de16 e73e
00000360: b985 23bf e413 2e3f 772d 263f fb9b b2bd
00000370: ac47 60bf c28b b3bf ec91 3ebf 15fc 243f
00000380: d64c 443f fda8 af3d aa08 88bf 9291 94be
00000390: 1a7f cabe 70da 9ebe 155e 91bf a4be 30bf
000003a0: 5ad4 8c3f 3d21 493f 4a52 4d3f 1d6e 58bf
000003b0: 27bb 2cbe 4516 55bf 005b ecbf d352 023f
000003c0: ad65 34bf 79c7 453f a6b9 c5bf ee29 4ebf
000003d0: 8a0d b9be 4485 f13e 18e9 b03e 23a6 24be
000003e0: 0987 633e 32cf 873e b779 503f f7f2 93bf
000003f0: d646 283f 45f6 61be 837a 1c3f c52d b7be
-1.0725129 0.9864851 0.15953754 -1.0822966 -1.1836264 0.105556235 -0.2637524 -0.6418509
-0.7528006 -0.016700154 -2.823454 -0.70108736 0.83834785 0.21876432 -0.27081424 -1.2721416
1.144492 0.2615995 -1.0561056 0.80273235 1.0495334 -0.48598853 -0.081187785 -0.68165183
0.51274943 0.080988035 1.0343391 -0.83535415 -0.88975537 -0.15553638 -1.2749609 -0.13134645
1.2031261 -0.11842098 0.5328039 1.2827802 -0.30915263 0.70058274 0.3539787 0.44041935
-0.85413355 -0.26918432 0.8209808 -1.5325629 0.28091183 -0.111636385 -2.3879223 0.7132019
-2.4498851 0.95458794 0.34049076 -0.79523534 -1.1047587 0.4685571 0.60359615 0.326099
-0.6060252 -0.71477866 -0.4380172 -0.92809355 0.5518925 -0.30255726 -1.2403148 -0.7694419
-0.7711738 -0.10199788 0.6154916 0.6463692 -0.4931172 1.1168554 -0.7740943 0.32914487
0.0440556 -1.268395 0.30006358 0.23497218 -0.44450635 -0.7642581 -1.3151267 0.45017776
-0.41012782 -0.24750873 -0.80377185 -0.25213334 -0.8313823 -0.4633588 -0.14353013 0.9737431
-0.21282211 0.06729374 0.28485057 -1.2006894 -0.81738645 0.04105243 -1.3804815 0.86821175
-0.7471073 0.70731705 0.037888404 0.426397 -0.9926804 0.45372313 0.009835451 -0.013108841
-1.164765 -0.55088085 -1.7236598 -0.52599263 0.3239705 -0.101886615 -0.047978885 0.61447734
0.31945017 -1.1236882 -0.2729978 -0.72070944 -1.3751862 -0.82823724 1.2102627 0.3801517
-0.1941186 -1.5612832 -0.549778 -0.7832861 -0.71227396 -0.0043496876 -0.97899634 -0.56137776
0.03888322 -1.5532229 0.2548125 -0.638667 -0.44218826 0.5512052 -0.558709 -0.19743262
0.7763962 -0.9156544 -1.1630216 0.35527536 0.17803335 0.7670946 -2.3748972 0.046559583
-0.24192987 1.0628343 0.61856556 -0.23569588 0.64154273 -0.77119464 0.3629212 -0.587651
0.76484454 0.86947197 0.37019753 -1.7363933 0.67645556 -0.19592778 0.057866428 -0.93763393
0.38074756 -0.09132481 0.5311938 -0.90749013 -0.65211093 0.65538484 0.22972633 0.5427181
-1.1759055 -0.12315635 -0.18317483 -0.56198674 0.23147383 -2.0230622 -0.49601254 0.8700437
-0.9427444 0.17284453 -0.31506887 0.03970597 -0.70408386 -1.2717737 0.7831531 0.07534187
-1.3157581 -1.6062646 -0.464115 0.20584868 0.99214923 -0.53433245 -0.2548125 -0.4106446
-1.2399583 -1.569125 -1.1161883 -0.0068839965 -0.7909237 -0.34805793 -0.547391 0.9228766
0.8387082 0.48837224 -0.39816913 -0.10786728 -0.174497 -0.24501766 0.39720753 0.9050882
-0.05703134 0.5239232 -0.6973704 0.6560779 0.32832053 -0.5510933 -0.27698892 0.45134634
-0.6387592 0.679991 0.64913124 -0.08721157 -0.8760936 -1.4027026 -0.7444141 0.64447147
0.7667974 0.08577154 -1.0627644 -0.2901731 -0.39550096 -0.3102603 -1.1356837 -0.69040895
1.1002305 0.7856634 0.8020369 -0.8454302 -0.16868268 -0.83237106 -1.8465271 0.5090763
-0.70467645 0.77257496 -1.544728 -0.8053273 -0.36143142 0.47171986 0.34552836 -0.16079001
0.2221948 0.26525265 0.8143572 -1.1558522 0.6573309 -0.220666 0.6112444 -0.35777107

fc.bias f4 [14]
00000000: b759 453e e456 e7bd 295d 1c3d e98d 77be
00000010: 00fb 463d 3b41 81be 35d1 7abd 7f83 c6bc
00000020: a21b 49bd 87e9 f33b d184 963e c473 5e3e
00000030: b31c 3b3f ff13 7f3e
0.19272505 -0.1129587 0.038174782 -0.24175228 0.048579216 -0.2524508 -0.06123467 -0.024232624
-0.04909862 0.00744361 0.29398206 0.21723849 0.73090667 0.24909972
