experiments/WHU_Hi_LongKou/FPGSST/FPGSST_best.pth (torch, 916411 bytes, 64 tensors)

fpm.fc.0.weight f4 [64, 16]
00000000: 6790 d7bf 58f4 90bf b131 40bf e618 853f
00000010: 5f14 5bbf e05c aabe 1677 e43e 5ee6 303f
00000020: c79c a4bf fa5f b3be 3787 2c3d d068 68be
00000030: 14b5 3fbe f658 2d3f 794e e63e cf52 8ebd
00000040: ab6e c9bf 0c94 8dbf 961c 96be ba6f 97bf
00000050: 5eb0 6dbf c254 98be 76fd 6b3e bec9 40be
00000060: c173 813e 15eb a53e f50f 97bd 31ec a53d
00000070: 5089 09bf aebe 82be b36b 20bd 3bc7 32be
00000080: 91c8 e03e db74 0d3d 4bc8 28bf 92e4 c73e
00000090: 6522 f2bc e557 173e fdd4 1abe 0b75 043f
000000a0: 5562 243f ed3d b73d 9dfd a1bd 2b91 68bc
000000b0: 3ddc d2bd 6914 423f 7375 79bd be71 0a3e
000000c0: 1446 1dbe e94b 013e c047 413f 09a1 a6bf
000000d0: 0145 6dbf b839 09bf e5eb 493e 3028 63bf
000000e0: bd7c cbbe 0a6e 09bd cead 183d ec88 36be
000000f0: 71ea 64bf c37d 7fbf f2a2 d33e 2615 adbe
00000100: 50d8 673e a0b6 9cbe a98a 75bd 1597 c3be
00000110: b534 80be 818b 3f3d d894 a63e 1295 76bd
00000120: 22e6 d33e c9bd bc3e f871 dcbe 54ca 583c
00000130: d34b 573d fcf1 90bd 0ffe 2d3e 0ed2 493e
00000140: e3c2 c13d 0b4b 03bf c01f ecbb 33a8 fdbe
00000150: 2d2a 2abf 6871 e5be e314 a93e c7d7 27be
00000160: a07d d5bc b0fe a03e fb75 6ebe a3b6 1e3e
00000170: 0914 e3be 56d9 873e f812 9b3e 2ee3 8abe
00000180: 60ac 833e b6df 7b3d 2399 813f e214 4fbe
00000190: d463 f0be dd37 40bf cda8 b7be 8f31 2dbf
000001a0: 5230 afbe 2dcf 35be 7723 743d c6ba 99bd
000001b0: 5edf aabf 2d29 35bf 865d d4be 48d2 4fbf
000001c0: 7777 b23e bfa6 62be 53de c73e d08d bbbe
000001d0: 96ff c9be b29f 7d3e a96c db3b e909 de3c
000001e0: 18bc 783e 677d 343d 2fd8 debe 5b4a cb3e
000001f0: 3627 86bd deda 49be 3d66 af3e 25b2 363e
00000200: f4c6 d03e 26f9 c53d e3f5 793f 9874 0f3e
00000210: 56c1 133f 2603 553f 546a 0abe 49a2 ccbd
00000220: 9a60 1cbf d2b4 12bf 57b2 9dbd 8703 ddbe
00000230: 7206 7c3e 3f78 d03c a76b ccbe 475d 4a3f
00000240: 3bcd 06c0 a7c5 cfbf 1e20 a0bf 95d9 8bbf
00000250: 74bc c8bf d293 d7be 5a68 9bbe a337 07bf
00000260: 8d0c 7f3e 10fe d6bd c8ba 823d a7d4 273e
00000270: 4180 7bbf 69bc 05bf b467 f33d b15e 33bf
00000280: d8a6 81bd 5800 1bbe 27c3 763f a335 5dbf
00000290: 71b2 60bf fd18 01bf 105a 2d3e f879 70bf
000002a0: 322f 84bf 8385 46be 0fd8 853d f2b7 44bd
000002b0: 9089 48bf 5657 71bf 390b a73c 4e7a a0be
000002c0: 2fbe 91bb 07c0 eabd 8f6c 203e 6a7d a4be
000002d0: 234e 3bbf 112e 17be ff6a a43e 2d5a 8fbe
000002e0: f79d d03e 0670 b53d 390a d9be f3db c13e
000002f0: 97bb f23b 4422 57bd c1af ac3e 8251 e93d
00000300: 8534 1f3e 8b11 5bbe 2eab 3c3f 9e17 11bf
00000310: 8cef c33c 2be4 aebc e076 1b3e a5ed d1be
00000320: b810 ff3b c103 b8be a0cf 11be 3c20 5dbe
00000330: 0b1d 92be 19a3 3bbe 9d1b 4ebe 23b5 10be
00000340: 9399 a43c a6d8 fabe e9d4 643e 6dd1 8dbe
00000350: 8935 b7be 7276 c43c 8926 1f3e 19c9 4bbc
00000360: 3993 9d3e 6e50 bf3e a47b f8be d19a c63d
00000370: 2c93 69be 2134 b23d 23b3 b23e 743c 833e
00000380: c646 15bf 25a4 3cbe 5639 0abf 2fe9 21be
00000390: 8aec 29be b45c d23e 7e67 38bf a7cf 02be
000003a0: a6c3 a7be cc4b 5abe f431 c7bd 1afe 8ebe
000003b0: 845b 963e 8638 9abe 9994 fabe 4a5b 103e
000003c0: 67ac 033f c08b a13e 29d4 78bf 2520 5d3f
000003d0: 1e62 13be ae8b 72bc b822 b43d 6269 af3c
000003e0: a689 bfbf d9aa d23e d217 7d3d c97a 663e
000003f0: f159 0cbf a07a 3bbe a91e c6be 885c 80bd
-1.6840943 -1.1324568 -0.75075823 1.0398223 -0.8557796 -0.33273983 0.44622105 0.6910151
-1.2860345 -0.35034162 0.04212114 -0.22696233 -0.1872142 0.6771387 0.44981745 -0.06949388
-1.5736898 -1.1060805 -0.29318684 -1.1830971 -0.9284724 -0.29752165 0.23045906 -0.18826959
0.25283626 0.32405916 -0.073760904 0.081016906 -0.5372515 -0.25536102 -0.03916521 -0.17458813
0.4390302 0.03453527 -0.6593062 0.39041573 -0.029557416 0.14779623 -0.15120311 0.51741093
0.6421254 0.08947358 -0.07909701 -0.014194767 -0.10295913 0.75812393 -0.060903024 0.13519952
-0.15358764 0.12626614 0.75500107 -1.3017894 -0.92683417 -0.53603697 0.19718893 -0.88733196
-0.39743605 -0.033552207 0.037275128 -0.17825669 -0.8942023 -0.9980127 0.41335255 -0.33805197
0.2264111 -0.30608082 -0.05994669 -0.38201204 -0.25040212 0.0467639 0.32535434 -0.06020076
0.41386515 0.36863545 -0.430557 0.0132318325 0.052562546 -0.07077405 0.16991447 0.19709036
0.09461 -0.5128638 -0.0072059333 -0.49542388 -0.66470605 -0.44813085 0.33023748 -0.16390906
-0.02606088 0.3144431 -0.23287193 0.15499358 -0.44351223 0.26533002 0.3028791 -0.2712645
0.2571745 0.061492644 1.0124859 -0.2022281 -0.46951163 -0.7508524 -0.35870972 -0.67653745
-0.34216553 -0.17754813 0.059604134 -0.07506327 -1.3349416 -0.70765954 -0.41477603 -0.8118024
0.3485677 -0.22133921 0.39036807 -0.36631632 -0.3945281 0.2476795 0.006696303 0.027104335
0.24290502 0.044064905 -0.4352431 0.39705166 -0.06550448 -0.19712397 0.3425769 0.17841394
0.4077679 0.09666662 0.9764082 0.1400932 0.5771688 0.8320793 -0.13517123 -0.09991891
-0.610849 -0.5730716 -0.07700031 -0.43166754 0.24611834 0.025447963 -0.39925882 0.7904858
-2.1062763 -1.6232194 -1.2509801 -1.0925776 -1.5682511 -0.42104965 -0.3035305 -0.5281927
0.24907131 -0.10497677 0.06383282 0.16389714 -0.98242575 -0.52240616 0.11885014 -0.7006636
-0.06330651 -0.1513685 0.9639153 -0.8640997 -0.8777228 -0.50428754 0.16928887 -0.9393611
-1.0326903 -0.19386868 0.065353505 -0.048026986 -0.78334904 -0.9427389 0.020391094 -0.3134331
-0.0044477205 -0.114624076 0.15666412 -0.32126933 -0.731661 -0.14763667 0.32112882 -0.27998486
0.40745518 0.088592574 -0.42390612 0.3786312 0.0074076164 -0.052522913 0.3372784 0.113924995
0.15547378 -0.21393411 0.736987 -0.5667666 0.023917936 -0.021349033 0.15182066 -0.4100162
0.0077839755 -0.35940364 -0.14239359 -0.21594328 -0.28537783 -0.18323936 -0.20127721 -0.14131598
0.020092761 -0.48993415 0.22346844 -0.27698842 -0.35783032 0.02398226 0.15542044 -0.012438082
0.30776384 0.3736605 -0.4853183 0.09697498 -0.22810048 0.08701349 0.34902295 0.2563206
-0.58311117 -0.18421991 -0.5399374 -0.15811609 -0.16594139 0.41086352 -0.72032917 -0.12774526
-0.32766455 -0.21317977 -0.09726325 -0.2792824 0.29366696 -0.3012125 -0.48941496 0.14097324
0.5143494 0.31551933 -0.9719873 0.86377174 -0.14392897 -0.01480381 0.087956846 0.021412555
-1.4963882 0.4114597 0.061790295 0.22507776 -0.5482474 -0.18308496 -0.38695267 -0.06267649

fpm.fc.0.bias f4 [64]
00000000: 4752 63be 0ba6 9b3e 1cee 95be aed9 19be
00000010: cf33 a23d c53f c5be 9511 19bf 15ef c33d
00000020: c34b 8e3d d111 9c3e 9079 a4be b1a3 843c
00000030: d676 37be 30c5 b53e 78a0 003f 27c0 42bf
00000040: d162 733e 0990 e2be f90e 1a3f 5e41 3d3e
00000050: e062 11bf d750 353e f244 4e3e 967c 043f
00000060: 72fc 493f ebe0 dabc 90b0 a4be 7b94 683d
00000070: bb8c 4cbe 19ec fbbe be46 3c3f cabb 503e
00000080: 8e7d ec3e 5cff 10bf c117 62be 1c88 4b3e
00000090: bb2e cbbd dfb7 843e 9fba 0abf 819f 743e
000000a0: 9149 9b3e b41a 7fbe d639 df3d 7b10 acbe
000000b0: f81e bfbe a7b6 9c3e 8d5f 3f3e e757 c03e
000000c0: a42b e33d 9e60 323e 4ea8 263e 92a6 2a3f
000000d0: e5e5 293f 0043 203f f717 b1be c928 f63d
000000e0: 43aa 91be 0ce7 0f3f 6643 803e 6317 8fbe
000000f0: 82b1 dbbe 5371 92be 48a8 15be fb5f f03d
-0.22199355 0.30400118 -0.29283226 -0.15024444 0.07920038 -0.38525215 -0.59792453 0.09567086
0.06948044 0.30482343 -0.32123995 0.016191335 -0.17916426 0.35502005 0.50244856 -0.7607445
0.23768164 -0.44250515 0.60179096 0.18481967 -0.56791496 0.17706619 0.20143488 0.51752603
0.78900826 -0.026718577 -0.32165956 0.056782227 -0.1997556 -0.49203566 0.73545444 0.20384136
0.4618954 -0.5663965 -0.22079374 0.1987614 -0.099210225 0.25921533 -0.5419101 0.23888971
0.30329564 -0.2491253 0.10899703 -0.33606324 -0.37328315 0.30608103 0.18688793 0.37567064
0.11092308 0.17419669 0.1627514 0.66660416 0.66366416 0.62602234 -0.34588596 0.12019498
-0.28450212 0.56211925 0.2505142 -0.2794753 -0.42908865 -0.28602085 -0.14614975 0.11737057

fpm.fc.2.weight f4 [64, 64]
00000000: 891c 213d d543 9abd f331 c6bd 80a9 1c3f
00000010: 2b94 6dbd a2fb cabd be13 793e 65ac c73d
00000020: e93b d33d 4d85 1a3f 2579 833e b120 4b3d
00000030: 2e03 11be d0af 063d 2250 f33e 485f 06bf
00000040: cd04 99bd f469 8a3e 5f9a c13e 04c7 4c3e
00000050: 3399 0ebe 8f83 91bc 6de1 913e 2889 143c
00000060: 8677 d73d 7490 edbc c876 69be 0a2a e0bc
00000070: c6a2 783d 75e7 cabd 21a2 6abe 13bf 5dbc
00000080: ac17 5d3e 1d0b a7bd 9982 073e e432 7abe
00000090: 9218 96be 32c4 6f3e 9500 0fbe 9f50 34be
000000a0: e341 fb3e 25df f63d bd0a 1b3e 8884 8cbd
000000b0: 3219 413e eb42 ddbe b79c a83d 8c4a 1dbd
000000c0: d0f5 99bd ced3 43be 7e30 c6bc 22bf ca3c
000000d0: 2494 e93e 31e7 3bbc 0073 2c3e 3866 24bd
000000e0: 8909 8bbe 10a6 fc3d 7409 bbbe 6395 d9be
000000f0: d47d 59be f3ae 493d c8e5 f0bc 18f6 4c3e
00000100: a9e4 5e3d cc47 5b3d 0495 35be 1e85 983e
00000110: a206 b63e b485 b33e 37c0 5a3e 31e7 173e
00000120: 7581 853d 4ba5 913e be38 babc 5c51 a33e
00000130: 854f 413e cb11 c43e 7e94 183e 541f b93d
00000140: 7f3b e9bc 9b0b 083e ffe4 24be 46ab fa3e
00000150: fcab 33be e567 033f 656b 1a3f 9b38 67be
00000160: f084 963e 978b 823d 832d 5a3e 4166 433e
00000170: 9d2e 053f d0d9 5f3e 0264 06be 2edd 7f3e
00000180: 2bf4 103e bb63 593d f900 de3d cf23 09bd
00000190: e543 ed3c aee6 423f 48ed 38bd 88dc 463e
000001a0: 6977 a1be 2024 c73e fd9e 5f3d f7a8 fd3e
000001b0: d5cc 843e 0d7f bfbd 1053 b63e 222c c0ba
000001c0: deed 743e b337 80be 796f c73e 5bec c33d
000001d0: d7d9 b63e bec3 5dbd 7493 273e 240e 353e
000001e0: baac 7c3e f033 85be 4339 2ebe 2986 77bd
000001f0: 3499 443e 9765 44bd a613 c03d 1c36 153f
00000200: 21ba 563f 4a50 97be 6333 893d a1e8 a23b
00000210: 6101 103f 4806 9abd dfc7 afbd 4cda 573f
00000220: e990 393e 001e 69bd 85ec 103d 1147 563f
00000230: 0ced 713e b188 2b3f f485 d8be 6b3f f13d
00000240: 23ff 34be 2c8f f23d ccff 2abe c413 253f
00000250: e807 e03d 2c70 483f 49c0 c83e 2879 30bf
00000260: 547c 76be e187 783d f430 ce3d 6c9e 41be
00000270: cb3a 8ebd 2d8b d33d 4297 23bf f28f cbbd
00000280: 2e8b f7be de23 07bd f135 29be b588 b8be
00000290: e66c 323d 0fc9 4b3f 9eec c03c 15b9 0cbf
000002a0: 0bee cd3b 592c 19be 865e 413e bdfb 1c3d
000002b0: f5d8 fdbc c749 32bf 8238 6f3f b399 09bf
000002c0: d40a 4f3f 0b74 8abe 0b51 413f ef86 10bf
000002d0: b4aa f5be 47ef dcbe 7c3a 533e 9e6e 8dbe
000002e0: c2fa d53c b57d e3bb 8b6d 0d3f 1fd4 eebe
000002f0: 027a 823c c550 d9be fd04 55bc 3c67 353f
00000300: 5a3c 02be d7fe 923e 81da 6abe 43eb 0d3e
00000310: 528b 2cbe c74e c13c d884 08be 3ec3 7cbc
00000320: 181b a0bd 7130 553e b306 403e d291 34be
00000330: 397a a9bd 2144 98be 6f30 0e3e eaae 21be
00000340: 43f2 a73d 0d45 f53c 8428 113f 825c 1abe
00000350: 53aa d53c 8d5f 67bd 85ea 6fbe 6264 a33b
00000360: 4d29 083e 19da 943e 695e 5d3e 870a 0b3e
00000370: 5303 5f3c 9685 08bc 5654 d63d bfa0 ae3d
00000380: 6721 223e 16e0 4abd 3d4b fa3d 0263 be3d
00000390: 2f5e b6bc 7684 60bd c560 0c3d f639 d3bc
000003a0: 8195 1d3f aba7 1abe bc75 a3be 3c08 82bb
000003b0: 2e51 2fbd c9cf 87bd 1386 46be 057e ca3c
000003c0: e13d 4fbd c34f 59bd cbcb 69be b0c8 553d
000003d0: e35a 093d 9008 4b3e 69ef 84be 7a39 443d
000003e0: bb4d 223e 12aa f9be 9128 383e b9cf 1ebd
000003f0: cd7b c4bd b1c4 563d 39c3 97be c71a 2bbd
0.039333854 -0.07532469 -0.09677496 0.61196136 -0.058002632 -0.099112764 0.24323937 0.097496785
0.10314161 0.6035965 0.25678363 0.049591724 -0.14161369 0.03288251 0.47522074 -0.5248914
-0.07471619 0.2703396 0.37813088 0.19997793 -0.13925628 -0.017762927 0.284923 0.009065904
0.10520844 -0.028999545 -0.22799218 -0.027363796 0.060702108 -0.09907428 -0.2291341 -0.013534325
0.21591061 -0.081564166 0.13233413 -0.24433476 -0.2931562 0.23414686 -0.13965066 -0.1760888
0.49073705 0.1205428 0.15140815 -0.06861216 0.18857267 -0.43215117 0.08233016 -0.03840117
-0.07517588 -0.19123766 -0.024193045 0.024749342 0.45620835 -0.011468695 0.16840744 -0.040136546
-0.27155712 0.123363614 -0.3653065 -0.42496786 -0.21239406 0.04923911 -0.029406443 0.20015752
0.054417286 0.053535268 -0.17732626 0.2978906 0.35551935 0.35062945 0.21362387 0.14834286
0.065188326 0.2844642 -0.022732135 0.3189801 0.1887799 0.38294825 0.14900395 0.090391785
-0.028470753 0.13285677 -0.1610298 0.48958796 -0.17546076 0.51330405 0.6032012 -0.22580187
0.29398298 0.06374281 0.21306424 0.19081976 0.5202425 0.21860433 -0.13124087 0.24986717
0.14155643 0.053073626 0.10840029 -0.033481415 0.028963039 0.7613324 -0.045148164 0.19420063
-0.31536415 0.3889475 0.054594982 0.49542972 0.25937524 -0.09350405 0.35610247 -0.001466159
0.23918864 -0.25042495 0.38952234 0.095665656 0.35713074 -0.054141752 0.16364843 0.17681175
0.24675265 -0.26016188 -0.17014031 -0.06043068 0.19199067 -0.047948446 0.09378748 0.5828569
0.8387776 -0.29553443 0.06699254 0.004971579 0.56252104 -0.07520729 -0.08583044 0.8431747
0.18121685 -0.056913376 0.035381813 0.8370219 0.23625582 0.6700545 -0.42289698 0.11779674
-0.17675452 0.11843714 -0.16699141 0.64483285 0.10939008 0.7829616 0.39209202 -0.6893487
-0.24070865 0.06067646 0.10067931 -0.1890809 -0.069448076 0.1032928 -0.63902676 -0.09939565
-0.48348373 -0.03299319 -0.16524483 -0.360418 0.043560885 0.79603666 0.023550328 -0.5496991
0.0062844804 -0.14958324 0.18883714 0.038326014 -0.030987242 -0.69643825 0.934456 -0.5375015
0.808759 -0.2704166 0.75514287 -0.5645589 -0.479818 -0.43151304 0.20627779 -0.27623457
0.026120547 -0.0069424757 0.55245274 -0.4664621 0.015927318 -0.42444435 -0.013001678 0.7086065
-0.12718335 0.28710052 -0.22934915 0.13859276 -0.16850021 0.023597134 -0.13331926 -0.015427409
-0.07817668 0.2081926 0.18752556 -0.17633751 -0.08275265 -0.29739478 0.13885663 -0.1578938
0.08200505 0.029940153 0.56702447 -0.15074351 0.026082193 -0.05648761 -0.23429306 0.004986332
0.13297005 0.29072645 0.21618046 0.13578235 0.013611632 -0.008332631 0.104653046 0.08526754
0.15833054 -0.04953011 0.12221382 0.09296228 -0.022261707 -0.054813825 0.034271974 -0.025784474
0.6155625 -0.15103023 -0.31925762 -0.003968267 -0.04280203 -0.06631429 -0.19387083 0.024718294
-0.05059612 -0.053054582 -0.22831647 0.052193344 0.033533942 0.19827485 -0.25963905 0.047906376
0.15849964 -0.48762566 0.17984225 -0.03877232 -0.095939256 0.052433673 -0.2964113 -0.041773584

fpm.fc.2.bias f4 [64]
00000000: d032 f63c 6020 12bd 3bbe 0bbe 7176 9e3d
00000010: eaa7 383d e259 8a3d 9a7d 583d 8564 4fbe
00000020: c515 7c3d cfc3 633e a87c afbd bfe2 5cbc
00000030: af7e f83d 2501 76be c579 c63d 8ac4 313e
00000040: 4209 31bf 6f4a f13d 4c64 81be 0534 503d
00000050: 6164 bebd 8a81 28be b70b 0c3d 1314 9cbd
00000060: f957 99be 58d8 9c3b 38c0 93bd 6f76 b33d
00000070: 417a e73c 6c38 90be d081 483d c9b7 42be
00000080: ef36 aabc 0140 84be aeb0 123e d20b 1dbe
00000090: 711b 1a3b 4736 3e3d 0ffc a2bd 437d a2be
000000a0: b13d 34be 3ce2 a63d 7a46 79b9 1a14 4ebe
000000b0: be71 94be 674a fbbd aafe 88bd 7f16 afbe
000000c0: 8dcc 54bb 1950 20bc 16ab b1be 7a51 88bd
000000d0: 6d94 6bbe 2866 82bd 34d5 1dbe 39f7 1dbe
000000e0: 8642 fabc daab ac3c 922b e0bd 11c8 d9bd
000000f0: 3e24 e9bc 6c06 c8bb be78 16be ccf4 3b3e
0.030053526 -0.035675406 -0.13646786 0.07737435 0.04508201 0.06755425 0.052854158 -0.20253189
0.0615442 0.22242664 -0.08568698 -0.013481795 0.12133538 -0.24023874 0.096911944 0.1736013
-0.6915475 0.11781775 -0.25271833 0.05083086 -0.092964895 -0.16455665 0.03419086 -0.07621016
-0.2994993 0.0047865324 -0.07214397 0.08762824 0.028256537 -0.28168046 0.048951924 -0.19015421
-0.020778148 -0.2583008 0.1432521 -0.1533654 0.0023514892 0.04643848 -0.079582326 -0.31736192
-0.17601658 0.081486195 -0.00023772745 -0.20124856 -0.28993028 -0.122700505 -0.06689198 -0.3419685
-0.0032470555 -0.009784722 -0.3470084 -0.066561654 -0.23005839 -0.06367141 -0.15413362 -0.15426339
-0.030549299 0.021078039 -0.109458104 -0.10633863 -0.028459664 -0.006104281 -0.14694497 0.18355101

speformer.spec_proj.weight f4 [64, 1]
00000000: fba0 24bf 4d92 1abf 70cb fbbf 4feb 963f
00000010: fefa 5abc f89e debe b8ae 633b 215b 0abf
00000020: 6f11 0ebc c006 503e 3829 e23b 7fa3 ff3b
00000030: e874 00bb 1bbd 68bf d458 313b c7bc 603f
00000040: 288d 62bd f725 403c 5c57 c0bb 1d91 a8be
00000050: 5be2 903f 61f8 4cbf e585 9c3b 3cb1 4a3f
00000060: b9ac c8bf 228b 4a3f e8cd e5be 52e1 ffbb
00000070: 9cc4 90bb fe92 61bf ebf5 fd3f 7828 9bbf
00000080: bc2a 1bbb 2a90 17bb a931 c9bd 6897 62bf
00000090: 29be 08be d8a9 383e 7d82 bdbf d6ac 9bbf
000000a0: 41ae 59bf c483 8dbf 1ff7 3abf b6ab 263f
000000b0: 2134 083f 96d3 403a 3767 99bb d094 303f
000000c0: 67e7 67bf f1c7 7c3f ea1a e63f 5c79 fcbb
000000d0: 90b7 c03f 15f6 d23f 727b 4abf 96be cc3e
000000e0: 7c08 52bf 738a af3f 4999 86bf fe4c 44bf
000000f0: 4a53 a93f b0b8 45be 9e37 44bc 0f43 b3bf
-0.64308137 -0.6037949 -1.9671459 1.179056 -0.013365505 -0.4348066 0.0034741592 -0.540453
-0.008671149 0.20315075 0.0069018863 0.0078014727 -0.0019600932 -0.9091355 0.0027061002 0.8778805
-0.0553104 0.0117278015 -0.005869789 -0.32923213 1.1319078 -0.80066496 0.0047767037 0.7917669
-1.5677711 0.7911855 -0.44883657 -0.0078088427 -0.004417969 -0.8811492 1.9840673 -1.2121725
-0.0023676595 -0.00231267 -0.09823925 -0.8851228 -0.1335379 0.1803354 -1.4805447 -1.216212
-0.85031515 -1.1055837 -0.73033327 0.6510576 0.5320454 0.00073557475 -0.0046814936 0.6897707
-0.90587467 0.98742586 1.7976964 -0.007704897 1.5056019 1.6481348 -0.7909461 0.39989156
-0.82044196 1.3714126 -1.0515529 -0.7667998 1.3228543 -0.19308734 -0.011976151 -1.400484

speformer.spec_proj.bias f4 [64]
00000000: 7938 443e 6e70 593e ce06 063e dc42 1fbf
00000010: f6d1 a9b9 5f13 afbd 8466 5aba 1a23 3c3e
00000020: c14b 5f3a f194 0dbd 80ec 2eb9 3113 6abb
00000030: f1dd 62ba e08c 443c 1478 ed39 399b 17be
00000040: 8d1b 363e e0f6 3abb a945 963b 8dfc 573d
00000050: a90f 99bd 6620 443e 1a1c 11ba 3b47 acbe
00000060: f7d4 573d 0011 48be fd75 973d 8c8d 5f3a
00000070: 772f a1bb 0080 b43e a00d 80bd 362c 233f
00000080: 4a99 8b3a 4d65 1c3a 4606 913c c85b 173f
00000090: e6cc ec3c 8744 163f f815 b83e ebd7 003f
000000a0: d78b 543e 0d1d 0d3f 3d65 8e3d 5c2c 133c
000000b0: c76e 47be f34c 15bb c05f 39bb 5624 6abe
000000c0: 5e6f 003f e52b eebe 8d1a 3ebe 8d8c 78bb
000000d0: 35c6 84be ae42 35bd a4f5 883e 1aaf f5bd
000000e0: dc3c 9d3e ee2a 27be ba94 883d 60ce c23e
000000f0: 9715 9b3d b445 003d 63ec 54ba 1c41 7f3d
0.19162168 0.21234295 0.13088533 -0.62211394 -0.00032390625 -0.085486166 -0.0008331316 0.18372765
0.0008518063 -0.03456587 -0.00016682036 -0.0035717005 -0.00086542877 0.011996478 0.00045293628 -0.14805306
0.17783947 -0.0028528497 0.004585941 0.052731086 -0.0747369 0.19152984 -0.00055354985 -0.33648095
0.052693333 -0.19537735 0.07395551 0.0008527867 -0.0049189883 0.35253906 -0.06252599 0.63739336
0.0010650542 0.0005966023 0.017703187 0.5912442 0.028906297 0.58698314 0.3595426 0.50329465
0.2075647 0.5512245 0.069529034 0.008982744 -0.19475852 -0.002278146 -0.0028285831 -0.22865424
0.5016993 -0.46517864 -0.18564816 -0.0037925572 -0.2593247 -0.044253044 0.2674991 -0.119962886
0.30710495 -0.1632497 0.06668992 0.38048077 0.07572477 0.031316474 -0.00081223826 0.062317953

speformer.transformer.encoder.layers.0.self_attn.in_proj_weight f4 [192, 64]
00000000: 482d c4bc 1ca7 0abd 0c81 963d 8579 87be
00000010: e379 e53d ae72 fdbd aad6 92be ec44 f4bd
00000020: 639a 0d3f 016c 333c a847 e1bb 1100 44be
00000030: 6a70 12bd 6974 9bbd fa25 ee3c 3bc7 3bbe
00000040: 0de0 03bd 7575 6cbe 74b1 55be 835b 323d
00000050: 79cf f93d 4ca8 9bbd 9460 8dbd 1bf2 a13c
00000060: 7cea a03c 54ea 9a3c 7ae8 14be 2f97 0c3e
00000070: ba28 8ebd 5a6d 7dbd f0ff ec3d 2f76 7f3d
00000080: 0b2f 023e 7d26 8dbd 0824 1c3e 7cda 653d
00000090: 9db2 d4be d322 bf3d 0302 4bbd 3d8a aebd
000000a0: e0d5 22be 3a6f e6bd 8f24 6b3c cacd f6bd
000000b0: bea6 273e b2ec 6dbd d48c 973d a1dc 23bd
000000c0: c777 0f3e 1580 313e 0965 dabd ec63 3d3e
000000d0: c227 52be 6243 793b 4331 2fbe 50e3 8e3e
000000e0: fe62 f9bd f1f9 24be a2df 32bd 8e94 913c
000000f0: 56b9 ff3c 59f9 1f3c 3853 cbbc dcbc 043e
00000100: 42de 05be 47ad 64bc e9e6 a9bd 58e7 b83d
00000110: b35a 1ebe 2591 e63c f882 84be 663f b7bd
00000120: 7e68 e43d 53f0 dcbc 9e43 d13d 7985 f23b
00000130: 9676 943e a738 77bc 699f 5dbe 27b2 0f3e
00000140: 0075 463c d737 a73c 4631 9abd 2c76 893d
00000150: 4e3d f13c 6196 3c3d 56b3 563e 20c4 1abe
00000160: 0078 903d dae4 763d 8b52 2e3d 1cf6 8f3d
00000170: 6abb 0bbe 0290 8f3d 15ea ae3c ed87 963b
00000180: 5c41 e33d c348 19be 7b19 f63d b1a5 213e
00000190: e77d bfba ba3f 5b3d d138 b0bd e4fe ce3d
000001a0: 99c0 203e ddce 89bc de0c 06bd 66a2 0d3e
000001b0: 9e96 85bd eba1 4ebe 80e9 08be dd69 d2bb
000001c0: 7049 3abd 99fa a83d 23d2 0dbe bd84 a63c
000001d0: c0a6 f43d a859 d13a 3d32 853d a6cc 8a3d
000001e0: 6697 8dbd da63 dbbd 9d6b 1fbe 1626 10bd
000001f0: 5d19 10be 709a d3bd 2f2b 29be 8427 503d
00000200: 7941 8abd 2ba1 bf3d 3dad 683d 4156 8b3d
00000210: acaa f2ba 0009 3bbc ec47 57bd f2dd 253e
00000220: 11f3 dd3d 34f3 d5bb b8ae 3b3d 4cf2 81be
00000230: 32e0 cabc f4e0 8abc dc37 433e 5680 8dbd
00000240: bb06 bebd 8b19 bbbd 9a20 003e 03d3 9cbd
00000250: 768c 7fbd 3e72 a3bc ac08 a03b d5a5 0dbe
00000260: 53e5 ad3d 59c6 0a3d 9001 e7bd d0cd da3e
00000270: a86c 3f3d af94 4cbd 44e7 c73d da9c 023e
00000280: a300 7e3c f101 253e 79f2 463d 57b9 abbd
00000290: 9129 283c 8d34 b8bc b6b1 0f3d bbee a43d
000002a0: 558b 153d 9fa5 bdbd 5107 b83d 43f6 673c
000002b0: b2ff 59be 84d0 98bd c3f9 9fbd 212c 16bd
000002c0: 76f5 e33d 0c9f be3c d474 853c 11d6 353e
000002d0: adcf e9bb 8110 a1bb acc0 253d 952d f7bd
000002e0: 5a41 1a3e 6202 323e 219c d6bd bcc0 3e3d
000002f0: 7cc8 24bc 820a d9bd f452 ddbe 4f1b 80bd
00000300: d988 5c3e e056 1c3e b3b7 38be 9c77 ce3d
00000310: e571 fbbd 5abc 923d cf5e f33e 62cc bc3c
00000320: 1c04 8ebe 0788 66bd 0e04 b6bd 33f3 bf3e
00000330: ddb6 0cbe c6e4 bcbd f89a 473d 64a1 71bd
00000340: 6bbb 76bd abca 9ebd f75c 243e d6e3 d7bd
00000350: 043b 26be 8010 ef3d 623c 2ebd f65b 493a
00000360: f16b 123e df5f b6bd 4fec 463e 04d3 80bd
00000370: d37d 913b f915 0fbe 189f 033e 9aba 9c3d
00000380: 0fc4 833d 38d3 1fbe 026c fb3d b014 25be
00000390: cb4d 9c3e cda8 323d 5ae4 b6bd 89db d2bb
000003a0: a830 b83c d71a 12bd 8b2f eabd ec79 b73d
000003b0: b9b5 b8ba 99cc 9c3d a028 90bd 1cca 23be
000003c0: 0aec 533d adf0 babd 1a51 fc3c 729c 513c
000003d0: bd81 b23d 90f1 aebd 5aa1 a2bb 9673 02be
000003e0: 235e 093e f9be 0cbd 55b1 97bd d90e 1dbe
000003f0: 501e 833c 1639 923d 1e64 9ebd c4ab e83b
-0.023947373 -0.033850774 0.073488325 -0.264599 0.11204889 -0.12375389 -0.286794 -0.11927208
0.553137 0.010951043 -0.006874997 -0.1914065 -0.035751738 -0.07590563 0.029070843 -0.18337719
-0.032196093 -0.23091681 -0.20868474 0.043544304 0.121977754 -0.076004595 -0.069031864 0.019768765
0.01964306 0.018910564 -0.14541808 0.13729547 -0.06941362 -0.061871864 0.11572254 0.062368568
0.12713258 -0.06892107 0.1524812 0.056116566 -0.4154252 0.09332814 -0.049562465 -0.085224606
-0.159019 -0.112516835 0.014351978 -0.1205097 0.16372201 -0.05808706 0.07399908 -0.04000533
0.14010535 0.17334016 -0.10663802 0.18495148 -0.20522979 0.0038034548 -0.17108636 0.279078
-0.121770844 -0.1611097 -0.043670304 0.017771032 0.031216305 0.009764039 -0.024819955 0.12962669
-0.13073066 -0.013957328 -0.08295996 0.090285 -0.15464287 0.028145382 -0.2588117 -0.08947639
0.11152743 -0.026970064 0.10217975 0.007401165 0.28996724 -0.015089191 -0.21642841 0.14032803
0.012112856 0.020412369 -0.075289294 0.067119926 0.029448178 0.04604185 0.20966849 -0.15113878
0.07054138 0.060276844 0.042559188 0.070293635 -0.13645712 0.07009889 0.021351853 0.0045938403
0.11096451 -0.14969163 0.12016579 0.15785863 -0.0014609665 0.05352757 -0.08604587 0.1010721
0.1569847 -0.016822273 -0.032727115 0.13831481 -0.065228686 -0.20178954 -0.13370323 -0.0064213113
-0.04548019 0.08250923 -0.13849692 0.020326966 0.119458675 0.0015972154 0.06503723 0.06777315
-0.069136426 -0.107124045 -0.15568395 -0.03519257 -0.14072175 -0.10332191 -0.1652038 0.050818935
-0.06750769 0.09356912 0.056805838 0.06803561 -0.0018513999 -0.01141572 -0.052558824 0.16197947
0.10837377 -0.006529236 0.04582092 -0.2538017 -0.024765108 -0.01695297 0.19064277 -0.06909244
-0.092786275 -0.09135731 0.12512437 -0.07657435 -0.062389813 -0.019951936 0.0048838463 -0.13832791
0.08491006 0.033880565 -0.11279595 0.42735147 0.046734482 -0.049946483 0.09760907 0.12755147
0.0155030815 0.16114022 0.048571084 -0.0838496 0.010263816 -0.022485996 0.035081588 0.08053347
0.03650983 -0.09260105 0.089857705 0.014157834 -0.21288946 -0.07461646 -0.0781131 -0.03666318
0.11130802 0.023269199 0.01629106 0.17757441 -0.0071353526 -0.0049152975 0.04046695 -0.12069241
0.15063992 0.17383721 -0.10478998 0.046570525 -0.010057565 -0.10597707 -0.4322735 -0.06255209
0.21536578 0.15267515 -0.18038826 0.100814074 -0.12277583 0.071648315 0.4753327 0.023046676
-0.2773751 -0.05628207 -0.08887492 0.37490234 -0.13741632 -0.092233226 0.048731774 -0.058991805
-0.06023733 -0.077534996 0.16051088 -0.10541503 -0.1623345 0.11673069 -0.042538054 0.0007681245
0.14298989 -0.08905005 0.19426082 -0.06290248 0.0044400482 -0.13973226 0.12853658 0.07652779
0.064338796 -0.15607917 0.1227646 -0.16121173 0.305281 0.043618012 -0.08930273 -0.006434862
0.022484139 -0.035670128 -0.11434849 0.089588016 -0.0014092244 0.076562114 -0.070389986 -0.15995067
0.051738776 -0.091279365 0.030800391 0.012793647 0.08716152 -0.08542168 -0.0049630823 -0.12739405
0.13414817 -0.034361813 -0.0740687 -0.15337695 0.016005665 0.071397945 -0.077339396 0.007100554

speformer.transformer.encoder.layers.0.self_attn.in_proj_bias f4 [192]
00000000: 46dc 293d a87b ce3c 5d82 86bc bf25 6dbd
00000010: 73a1 3cbe 2998 353e 7b62 bdbc 1dac 6cbc
00000020: 6ca5 b83c 5cb2 34be f267 a03c e300 52be
00000030: 7a92 5abe 2e12 f03c 755f 6fbc c1a4 a2bc
00000040: b149 6b3c 300a 2ebd cd34 2f3d 352d 69bd
00000050: f0c1 86bd df6b 6bbd 921c c33c 6a29 53bd
00000060: 8e4c 073a 75ef cb3c ba08 0b3d d50e 05bd
00000070: e8d1 833d 05ed 50bc abdc 613c 5c3e 31bc
00000080: 45b2 ccbc 2571 95bc 8076 623e 6180 a33c
00000090: 7a5f 7b3c 1980 5c3d 975f cebc acdb 6f3c
000000a0: b46b 06bd 28bf 9dbd ac57 d73c 797f 2b3c
000000b0: a2d9 833c 25d5 15bd 9c15 9d3c 9132 a13c
000000c0: 197e 23bc d975 0c3e 94d5 4cbe 300a cd3c
000000d0: 39d9 54b7 bb49 21bd 1046 f63b ce4d 5bbe
000000e0: 5bce 2cbe 6d43 bf3a 0253 083c ffa5 b63b
000000f0: 8c44 b4bc 62cf 403e f7bb 603e c792 3f3e
00000100: ce70 1bbd 6141 b4bb f707 013d 3cee e7bc
00000110: 1026 7abe 5312 943e 54fa a73d 340c 043d
00000120: 4782 903d 65eb 8cbe cf82 dd3c 205d 8fbe
00000130: ed12 7dbe 8549 a93c 5af1 2c3c c06f 8f3d
00000140: 475d 3a3d 9032 1a3e 4284 11be b228 363e
00000150: 05d5 1d3e aaea 133e e2d6 11be 3053 2d3e
00000160: 6110 4c3b 689f 0dbd f94b a03d d4f9 78bd
00000170: d48f 0abe a129 533c cfa8 053c 9f2e 5b3d
00000180: 05d6 4538 e999 48bd 7757 c23e 8b01 663d
00000190: 33be bcbd ae1b 8c3e 4166 0ebc 11f9 1a3e
000001a0: 418b 1fbe 9464 81be 8c54 243e 94dc 833d
000001b0: 12ba ef3d a7ed 09be b239 173d eb64 813d
000001c0: 652c 05be 17e2 25bf dc22 313f 5c44 30bd
000001d0: 3689 083c 2643 3ebd 7304 023d 8e9c 313f
000001e0: 61d8 2c3f 9333 2f3d d5ce 203f 35eb 04bf
000001f0: 65f3 7a3e 4f5f 28bf 937f 31bf e47c 29bf
00000200: c306 9ebc def7 5cbc 9485 c13e 3832 ab3b
00000210: 91ef a4bc 74c5 423c 457f 41bc 38ea e5bc
00000220: a1ff 973e 32f7 923c 0534 f1bc fbe1 55bc
00000230: db94 6c3a 4575 0cbd bb5a 1fbd 8cd0 713c
00000240: 75f3 103d fd80 4f3c d0c6 b33c b556 71be
00000250: 5482 d43d 3686 59ba d50d 513c a099 083b
00000260: 9ed8 72bc 33c2 ebbb 6d1e 793c 3686 5cbc
00000270: d11f eebb 580c 2a3c 940a e4bc c52a 4e3b
00000280: 84ff e53c b25e b7bc f83d 15bc deb0 283b
00000290: a6fc afbc ab09 4b3c f55a 493e 585a 453c
000002a0: b2bd e63c 98c8 7dbc 4665 af3a e7d4 d03c
000002b0: d719 11bd 0b75 933c 23e1 04bd 646c 9bba
000002c0: 3601 793d 3c08 14bc f9e0 aebb edbb 043c
000002d0: 92a3 8b3c 3d28 62bb 72cc 0fbc edde c7bd
000002e0: 0577 363c 2c2b 9abd 2f5c 58ba 9edc 913c
000002f0: 221c 77bd d89d 3a3e e208 9d3d b291 093c
0.041469835 0.025205448 -0.016419584 -0.057897326 -0.18420963 0.17733826 -0.023118248 -0.014445332
0.022539817 -0.17646164 0.019580815 -0.20508151 -0.21344939 0.029305544 -0.014610161 -0.019853951
0.014360831 -0.042490184 0.042774964 -0.05692788 -0.065799594 -0.05747592 0.023817334 -0.051553167
0.0005161249 0.024894455 0.03394387 -0.032484848 0.06436521 -0.012751822 0.0137855215 -0.01081809
-0.02498735 -0.018242428 0.22115517 0.019958677 0.015342588 0.0538331 -0.025192065 0.014639776
-0.032817557 -0.07702476 0.026286922 0.010467404 0.016094986 -0.036580224 0.019175343 0.019677432
-0.0099787945 0.1371683 -0.20003349 0.025029272 -1.2686761e-05 -0.039376955 0.0075156763 -0.21416399
-0.16875593 0.0014592238 0.008320572 0.0055739875 -0.022005342 0.1882911 0.21946703 0.18708335
-0.037949376 -0.005500958 0.031501736 -0.028311841 -0.24428582 0.2892023 0.08202043 0.0322382
0.070560984 -0.27523342 0.027039913 -0.28000736 -0.24714251 0.02066494 0.01055559 0.070037365
0.045499112 0.1505835 -0.14210609 0.17788962 0.15413292 0.14444986 -0.14242128 0.16926265
0.0031137692 -0.03457585 0.07826991 -0.06078513 -0.13531429 0.012888343 0.008157923 0.05351126
4.716778e-05 -0.048974905 0.37957355 0.056153815 -0.09215965 0.27364868 -0.008691371 0.15134074
-0.15580465 -0.25272048 0.16047877 0.06438556 0.11705412 -0.13469563 0.036920257 0.06318077
-0.13005216 -0.6479811 0.69193816 -0.043033943 0.008333495 -0.046450756 0.031742524 0.6937951
0.6751767 0.042773794 0.628156 -0.519214 0.2450691 -0.6577043 -0.6933529 -0.6620619
-0.019290334 -0.0134868305 0.37797225 0.0052244924 -0.020133765 0.011887897 -0.011810129 -0.028065786
0.29687217 0.017940138 -0.02944375 -0.013054366 0.0009024867 -0.034291524 -0.038904887 0.014759194
0.03538843 0.012665031 0.021945387 -0.23568232 0.103764206 -0.0008297892 0.0127596455 0.002084352
-0.014822153 -0.007194781 0.015205008 -0.013459733 -0.0072669764 0.01037892 -0.027837075 0.0031458598
0.02807594 -0.022384021 -0.009109013 0.0025740187 -0.021482777 0.012392442 0.19663604 0.012045465
0.028166626 -0.01548972 0.0013381622 0.025492145 -0.035425033 0.018000146 -0.03244127 -0.0011857864
0.06079217 -0.009035166 -0.0053368774 0.008101446 0.01704577 -0.0034508847 -0.008776771 -0.097593166
0.011136775 -0.07527766 -0.00082534825 0.017805394 -0.060329564 0.18224275 0.0766771 0.008396553

speformer.transformer.encoder.layers.0.self_attn.out_proj.weight f4 [64, 64]
00000000: 5fee dcbc 14a9 d83d cc1f cd3d e1ba d4bc
00000010: 4e9c f43c 46e3 f2bd f28e 053e 677e 37bd
00000020: 241c 52bc 9c41 4d3d 30c6 1dbd 3ebe febd
00000030: 4926 a8bd 2b86 803e f71d 023d 316c 023d
00000040: 6064 21bd 8908 2d3d 5136 c83d a96d 8abd
00000050: ed23 a7bd 5593 3d3d 60c7 59bc 1ee5 0abc
00000060: 2c38 dcbd 92c0 633d 6433 f5bd 53ae 1fbe
00000070: 244c 573c 454c b2bd 8ffb fd3d cbb0 30bd
00000080: b66c fdbd a720 203c 5188 0e3e 4132 40be
00000090: 7b83 37be 6c1b 5bbe 86ce eebc 0fdf cbbd
000000a0: 2e72 443e ba1e 573e 8777 5c3e 9585 d53c
000000b0: 7b49 2f3d 7aca 933d 1803 d43d b8ec 8ebd
000000c0: 2a53 05be 0158 fbbd 2d87 163d 9e17 b93c
000000d0: ef7e 753c 1218 253e cee3 6f3d 7b2c 113e
000000e0: 7370 2f3c 6993 973d da62 8f3d a7ab 0bbe
000000f0: 7dbd 983d f7b2 af3d d998 75bd 1f00 1abd
00000100: 397a 333d a2b5 9f3d 42b0 7bbd ac91 c93d
00000110: ca60 98bd 2ca8 163e be88 a23d d804 c03b
00000120: e179 63be 09f5 cb3b 3b9c 2dbc 3b86 59bd
00000130: e78f 95bd 98ec a83c e665 bebc 3ba5 5f3b
00000140: 3365 863c 36a4 f03c d316 d53c a36e dd3c
00000150: a952 f9bd dddd 833b 29fe bc3c ece8 1d3b
00000160: a73c 2bbd 0f01 52bc d9ca 38bc 033f d73c
00000170: 4268 ef3c f159 b43d d60a 223d 2526 ae3c
00000180: c8ec 483c 3930 d53d 1ba5 153d 10a9 99bd
00000190: 2e24 9ebd cd83 563c d227 91bc ae7d afbd
000001a0: a4aa 4b3d 2898 ae3d 6c67 b3bc 5cba 7ebc
000001b0: 5205 5f3d 2a0b adbd f9cf a83c bef6 2bbd
000001c0: 5f74 273e 826b 193d 0191 d6bc a9d7 abbc
000001d0: a980 163d b4e9 5ebc 9e97 e8bc 46bb 9cbe
000001e0: 21b6 80bc 6df8 e6bd 9873 9a3d 921d 3e3c
000001f0: 5873 1bbd 2921 643f b68d 113e 3c11 d7bc
00000200: 9b34 85bd 4dac 05bc d6bb 93be 5afc 99bb
00000210: f0d5 063d e32f 353c 881b 293d 294f 9f3c
00000220: 127f 91be a6ed 2d3c 4634 1ebd 070a 47bd
00000230: d0a7 92bd 0a07 e7bc d069 0fbc 84cb f3bc
00000240: d40a d6bc ef95 82bc 940e ffbc 5805 16be
00000250: 0a1a a93e a653 15bd 58a7 9e3b f2b5 b23c
00000260: 7235 cd3b 7a66 553d cbde f8bc 1a9e e3bb
00000270: d67c 033d 7424 22bc 917d 54bc a519 113d
00000280: c558 893c c59e 85bc 7de8 78bc 3897 a33c
00000290: cf0a 24bc dbf2 a0bc 4848 ac3e 6c35 b93c
000002a0: 9f41 083d 3930 d13c 06b6 9fba 780f 86bb
000002b0: 7d95 b63c 25af d03c e027 673c 6d86 c8bc
000002c0: 5a77 503e 6295 b53c 3573 6ebd 7f3d 113d
000002d0: 03d0 8dbd abea 97bc 9ccb f83c 2d71 a5be
000002e0: 40af 24bd b787 b0be bd9f eabc c3c6 b53c
000002f0: 7853 e7bd 0de0 083e 9764 9c3e 7c52 9b3d
00000300: 0e6f 903c d218 473b 8009 d6be 59c5 3e3c
00000310: 3dae 10bd 63d2 4abc 10c5 593c 257a 09bd
00000320: 16d3 69be 7fb4 b9bb 0396 c5bc 8129 74bc
00000330: 9e88 a6b7 0de6 7c3c 92ff 8bba d3b1 953b
00000340: 9154 0ebc 70f2 933c 99a3 e8bb 5959 a63e
00000350: 2f80 4ebe e28e ec3b ef71 ed3b d7a8 0b3c
00000360: 1866 603c 6455 a73c 717e 6cbb 0c23 1a3c
00000370: 736f 493c 10aa 95ba 3b8a b2bc 7fbc 933c
00000380: 6f23 593c e2b0 92bc fedb 1a3b cf39 883b
00000390: 4082 4e3c f1e1 20bb 0dd6 3ebf 62be bdb9
000003a0: d4ad 6c3b 0a4d 0fbc 55c1 24bc fc1a 433c
000003b0: 83e1 ecbb cd25 f83c b643 d9bc 9993 a1bc
000003c0: 74d3 b43d acb3 0f3d 5b71 dfbc e8a0 633c
000003d0: 2dd5 afbc a797 e3b9 a775 053b b1a4 d43b
000003e0: 661d 173a 747b 95bd d07f 11bc 0aa7 eb3b
000003f0: 0342 d1bc 3885 32be 9ebf f03d 876a 68ba
-0.026969133 0.10579124 0.100158304 -0.025968017 0.029859688 -0.11859755 0.1304281 -0.04479828
-0.012824092 0.050111398 -0.038519084 -0.124386296 -0.08210427 0.25102362 0.031766858 0.03184146
-0.039402366 0.042244468 0.09775985 -0.06759197 -0.08161149 0.046283085 -0.013292164 -0.008477477
-0.107529014 0.05560357 -0.119726926 -0.15593843 0.013140712 -0.087059535 0.124014966 -0.043137353
-0.123742506 0.00977341 0.13919188 -0.1876917 -0.1792125 -0.2139718 -0.029151212 -0.099546544
0.19184181 0.21007815 0.21529971 0.026064673 0.042794686 0.07216354 0.103521526 -0.06978744
-0.13020006 -0.12272645 0.036750007 0.02259427 0.014983877 0.16122463 0.05856686 0.14177124
0.010707962 0.07401163 0.07001276 -0.13639699 0.07458017 0.08579057 -0.05996022 -0.03759777
0.043817732 0.077983156 -0.06144739 0.09842238 -0.07440336 0.1471259 0.07936238 0.0058599524
-0.22214462 0.006224279 -0.01059633 -0.053106528 -0.07302838 0.02062063 -0.023241948 0.0034125585
0.016405677 0.029375177 0.02601186 0.027030295 -0.12173969 0.004024251 0.023070412 0.002409513
-0.04180589 -0.012817635 -0.011278831 0.026275164 0.029224519 0.088062175 0.039561115 0.021258423
0.012263484 0.10409588 0.03653441 -0.07502949 -0.077217445 0.013092947 -0.017719183 -0.085688934
0.049723282 0.08525115 -0.021899901 -0.015547361 0.054448433 -0.08449395 0.020606982 -0.04198336
0.16352986 0.037456043 -0.02619219 -0.020976858 0.036743794 -0.013605524 -0.02839261 -0.30611628
-0.015711846 -0.11277852 0.07541579 0.01160373 -0.037951797 0.891131 0.14214215 -0.026253335
-0.06504174 -0.0081587555 -0.28854245 -0.004699272 0.03291887 0.01105878 0.04128602 0.019446926
-0.2841726 0.010615742 -0.03862407 -0.048593547 -0.07160914 -0.028201599 -0.008753255 -0.02976013
-0.02612821 -0.015940635 -0.031134881 -0.14650476 0.3302768 -0.036456726 0.0048417263 0.021815274
0.0062624747 0.052099682 -0.030379673 -0.0069463374 0.032101475 -0.009896386 -0.0129693905 0.035424847
0.016765961 -0.016311059 -0.015192148 0.019969568 -0.010012343 -0.019647053 0.33648896 0.022608481
0.033265706 0.02553569 -0.0012184985 -0.0040911995 0.022288078 0.02547414 0.014108628 -0.024478162
0.20358029 0.022165958 -0.05821534 0.035459038 -0.06924441 -0.018544516 0.030370526 -0.3231291
-0.040206194 -0.34478542 -0.028640622 0.022189504 -0.11295217 0.13366719 0.30545494 0.07584092
0.01763108 0.0030379784 -0.41804123 0.011643731 -0.035322417 -0.012379262 0.013291612 -0.03356375
-0.22834429 -0.0056672688 -0.024119383 -0.014902473 -1.985236e-05 0.015435708 -0.0010681024 0.0045683174
-0.008687154 0.01805994 -0.0070995805 0.32490042 -0.20166086 0.0072191814 0.007246248 0.008524141
0.013696216 0.02042646 -0.0036086107 0.00940777 0.012294638 -0.001141848 -0.021794429 0.018034218
0.013253077 -0.01790661 0.002362966 0.004157282 0.012604296 -0.0024548734 -0.74545366 -0.00036190735
0.0036114352 -0.008746395 -0.01005586 0.011908289 -0.0072290315 0.030291462 -0.026521545 -0.0197237
0.08829394 0.035083458 -0.027275732 0.0138933435 -0.021463955 -0.00043409804 0.0020364316 0.0064893593
0.00057645736 -0.072989374 -0.0088805705 0.0071915435 -0.025544172 -0.17433631 0.11755298 -0.00088659715

speformer.transformer.encoder.layers.0.self_attn.out_proj.bias f4 [64]
00000000: bbad a13d acc8 cc3e e1a1 82be 097e 21bf
00000010: 3413 0fbe e6ad 09bf 19bd 6dbe 48fe 11bd
00000020: 12fc 11be 1b90 b73e 4c66 b2bd f58d bbbd
00000030: 3615 de3e 546d 19bf 878c dcbd f431 bebd
00000040: 0bda 1b3f 878e 853e 6a01 053f a634 65bd
00000050: b64e 46bd cff7 a0be 7806 933d 6793 acbe
00000060: 3e5c a9be a061 2abe 0319 7ebd 7457 183c
00000070: 1ad0 acbe d3b5 09bd c952 f13c 6fdb a13e
00000080: c2a5 fa3d c7e8 0a3f e33d 8bbe c1f9 043f
00000090: 0f50 783e c1ca 2a3f 68aa eabd c977 a03e
000000a0: d9f3 a63d 2bee fa3d c07e 0cbf 0d8b 8c3e
000000b0: 3f35 82be a4cd 003f 7a68 eabe faa9 11be
000000c0: b038 fa3e e55b 17bf d998 d43e fde8 abba
000000d0: 131c 78bd 5df3 33bd a5f7 093e bd37 1bbf
000000e0: e6c3 453d 3bb7 11bc 8530 35bc 02af c03d
000000f0: 326f 133f be57 23be 9fca 25bd bec4 8ebe
0.078944646 0.3999685 -0.2551413 -0.6308294 -0.13972169 -0.5378097 -0.23216666 -0.035642892
-0.14256313 0.3585213 -0.08710918 -0.091579355 0.43375558 -0.59932446 -0.10768991 -0.092868716
0.6087958 0.26085302 0.5195528 -0.055958413 -0.04841491 -0.31439063 0.07178968 -0.3370621
-0.33078188 -0.16638803 -0.06203557 0.009298194 -0.3375252 -0.033620667 0.02945842 0.31612727
0.12238647 0.5426144 -0.27195653 0.51943594 0.2424929 0.6671563 -0.11458284 0.3134139
0.08151979 0.12252458 -0.54880905 0.27449837 -0.2543125 0.5031378 -0.45782834 -0.14224997
0.48871374 -0.59124595 0.41522864 -0.00131157 -0.06057365 -0.04393326 0.13473375 -0.60631925
0.048282526 -0.008893783 -0.011058931 0.0940838 0.57591546 -0.1595144 -0.040476438 -0.27884477

speformer.transformer.encoder.layers.0.linear1.weight f4 [256, 64]
00000000: bda6 633d 727f 49be 9e45 f63e dfbe 8e3e
00000010: 1401 4ebe e14e a53e 8f49 afbd a8f5 8dbd
00000020: 44fe 243e dc5a b1be 9552 593d 1895 673e
00000030: eee0 52be 0b4e a93e 3619 0d3e 7814 a63d
00000040: 7212 a3be f153 87bd 8705 88be 6ed6 f3bd
00000050: 9ac1 113d 88db 4a3e d3f0 223d 3078 11bd
00000060: 34c8 4c3e 8bdf 2a3e cc3a c23d 3be8 95bd
00000070: 78fc 043f e5a5 34bc 77c2 2bbe dc53 4e3e
00000080: 4ca6 b0be 538c 14bf cafb 643e 3dbd d73b
00000090: 521e 38bd 8573 6cbf becc 5d3e 67f3 37bd
000000a0: 97c2 31be 3ecf 31bd 67be d5bd bd8d 92be
000000b0: 3e66 c13c 9cf7 68be dd4e 2f3f 4592 9f3d
000000c0: b5b7 f0bd 10e4 be3d 925b 12be b5b5 143e
000000d0: b38b 56be 5175 0e3d fc31 c33c a4aa 743e
000000e0: 368e c93d 9613 923b 5fdb b73d ebf1 873d
000000f0: 2b83 08bf a655 37be 07f8 cbbc 77d9 a03d
00000100: eb2d ae39 5778 34be 7952 7b3e 6904 9a3e
00000110: 4d81 47bc 3d5d 9b3e 6c2b 55bd a18e d0bc
00000120: 6a1e 3bbe 9146 84bd 65b9 103e 60cd c33d
00000130: ec4a bcbd e8dc f53e 7458 a23d 40c7 1e3e
00000140: 7293 d7be 41bb 53bd 0987 12be bb7b a03d
00000150: b63f 193e b1f6 093e cf6d b7bd 7f4b 9e3d
00000160: 6d5b 773e 3c34 4b3e 4243 bbbd 66c0 18be
00000170: 736f 1d3f 3a60 6bbc cc69 27bd db7e b3bc
00000180: 8996 cfbe b4af 28bf a625 643e 6582 83be
00000190: 4c0f 233d 764d 8ebf 25a8 ab3e 1cd5 313c
000001a0: 7b08 4fbe 656d 883c c1ed c63c 35ee a5be
000001b0: e9b1 133d 71d5 a1be ee93 1c3f 1f66 543e
000001c0: eefa 2dbe 67ea 043d 6091 8dbe efb9 1b3d
000001d0: 3777 8d3d c841 39be 23dd cdbd 284d cd3e
000001e0: 82ec bc3d afb7 4dbe b0a2 84bd ad22 46be
000001f0: 6d60 44bf b646 18bd c122 89be 763c 1e3d
00000200: ade0 07be e8c2 68be 7f3e 1d3e ea9b a03e
00000210: 067d 5cbe 2b54 103f e9a1 a23e 52ab 39bd
00000220: 6e38 0c3e 51b4 a0bd 9a9d 90be a5d1 7abe
00000230: 8949 d5bd 8886 b53e 591b 0ebe f2fc 3ebe
00000240: 04cb 25bf ee23 b0be a77a 17bf 7f0b 14be
00000250: c070 9abe 4b45 a4bd 4b54 fcbd 0235 863e
00000260: a234 9e3e 0fe4 db3e b31b 9d3d 85c3 eebd
00000270: 8413 6a3e 1ddb 423e 73bb 743c fbab 93be
00000280: e5a9 79be 605a 85be 169c a13e 2fdb e9be
00000290: e6f9 863e 6556 09bf 7372 173e c20d a9be
000002a0: 0df5 1f3e 9484 2ebe b132 9c3e ebcf 533d
000002b0: 02a2 9a3e 14b8 f2be 3f15 523e 3113 dbbc
000002c0: 7ad3 d8be 4bf2 e43e 3ad6 f8bd d725 20be
000002d0: 80b7 0c3e b267 123e 50aa 16be 566d 8c3e
000002e0: aca1 5fbd 943c ab3d fcab 05be 6f46 35bd
000002f0: e612 04bf 1f95 20bc c85d 11bf 7e48 003f
00000300: d5a7 5fbe 4c9b 05bf 713e 9e3e 9abc a43e
00000310: 3c7a bebe 4f7c 4d3e 82a6 9b3e 92dc 72be
00000320: 6064 0fbd 79dc 4fbc 7606 58be 99a3 6bbe
00000330: d51f a0bc 365b 923e e13f 1bbe ba30 08bf
00000340: 0514 d4be aa52 17bf 108b b3be 2cac 9fbb
00000350: de87 2cbe 21f8 a83e 8276 c7be 688d 4dbd
00000360: 6b79 f83c 6374 273e c0c2 8ebd 533a 73be
00000370: df95 473d 54d1 c43e c4dd a83d 373e 28be
00000380: 9084 bfbd c185 58be a2d2 ee3e 530e 86be
00000390: 9c1d b5bd 497a f7be 9e66 613e 19e5 80be
000003a0: cbef 243c b1f4 f5bd 3204 cb3d a193 23be
000003b0: 4401 653e b18e 5dbe 1501 893e 00fc 71bd
000003c0: 674c 8abe 1f16 373e 846e e6bd 2f0a 27be
000003d0: 5ed8 80bd 4212 12be be58 a4be f912 fb3e
000003e0: 52d4 c53c e3de b3bd 7f0f 703e d996 90be
000003f0: e473 82be 590f da3d ec76 43bf b30f 9b3e
0.055578936 -0.19677523 0.4809999 0.27879998 -0.20117599 0.32286742 -0.08558952 -0.06931621
0.1611262 -0.34639633 0.053057272 0.22615469 -0.20593616 0.33067355 0.13779148 0.08109373
-0.3185001 -0.066078074 -0.26566717 -0.119061336 0.035585023 0.19810307 0.03978045 -0.03551501
0.19998246 0.16686837 0.09483871 -0.07319685 0.51947737 -0.01102588 -0.16773401 0.20149177
-0.34501874 -0.5802662 0.22361675 0.0065838383 -0.04495079 -0.9236377 0.21660134 -0.04490986
-0.17359386 -0.043410532 -0.10436707 -0.28623763 0.023608323 -0.22750705 0.6847971 0.077915706
-0.11753789 0.09320843 -0.14292744 0.1452244 -0.20951729 0.03477985 0.023827545 0.23893219
0.09841578 0.004457901 0.089773886 0.06637939 -0.53325146 -0.17903766 -0.024898542 0.07853978
0.00033222078 -0.17624031 0.2454318 0.3008149 -0.012176824 0.30344573 -0.052043363 -0.025458636
-0.18273321 -0.06458772 0.14133222 0.095606565 -0.09193978 0.480201 0.07927027 0.15505695
-0.4210468 -0.05169225 -0.14309324 0.078361 0.1496571 0.13473012 -0.08956491 0.077292435
0.2415597 0.19844145 -0.09143688 -0.14917144 0.61498183 -0.014366204 -0.04087238 -0.021911075
-0.40544537 -0.658931 0.22279987 -0.2568542 0.03980951 -1.1117389 0.33526722 0.010854032
-0.20218079 0.016653726 0.024283292 -0.324083 0.03605834 -0.31608155 0.6116322 0.20742081
-0.16990253 0.032450106 -0.27649975 0.038019117 0.06907504 -0.180915 -0.10051944 0.40097928
0.09224798 -0.20089601 -0.06476343 -0.19349165 -0.76709634 -0.03717681 -0.26784328 0.03863188
-0.13269301 -0.22730601 0.15355872 0.31368953 -0.21532068 0.5637843 0.31764153 -0.0453294
0.13693401 -0.078468926 -0.2824524 -0.24494036 -0.10414416 0.35454202 -0.1387762 -0.18651178
-0.647629 -0.34402412 -0.5917153 -0.1445751 -0.30164146 -0.08021029 -0.12320765 0.26212317
0.3089953 0.42947432 0.07671299 -0.11658386 0.22859007 0.19028898 0.0149372695 -0.28842148
-0.24381216 -0.26045513 0.31564397 -0.45675036 0.26362532 -0.5364745 0.14789753 -0.3301831
0.15620823 -0.17042762 0.30507424 0.051711958 0.30201727 -0.47406065 0.20515917 -0.02674255
-0.42348844 0.44716105 -0.121502355 -0.15639435 0.13741875 0.14297369 -0.14713407 0.27427167
-0.05459754 0.08361164 -0.13053888 -0.044256624 -0.51591337 -0.009801178 -0.56783724 0.50110614
-0.21841367 -0.5219009 0.30907014 0.32175142 -0.37202632 0.20066951 0.30400473 -0.23716953
-0.035007834 -0.012686842 -0.21096215 -0.23011626 -0.019546429 0.28585213 -0.15161087 -0.5319935
-0.41421524 -0.5911051 -0.35067034 -0.0048728194 -0.16848704 0.33001807 -0.38957602 -0.050183684
0.030331334 0.16352992 -0.06970739 -0.23752718 0.048726913 0.38440955 0.082454234 -0.16429983
-0.09351456 -0.21144773 0.46645075 -0.26182804 -0.08843538 -0.48335484 0.22011802 -0.25174788
0.010066937 -0.12009562 0.099129096 -0.15974285 0.22363764 -0.21636464 0.26758638 -0.059078217
-0.27011415 0.17879532 -0.11251548 -0.16312478 -0.06291269 -0.14264777 -0.32098955 0.49037912
0.024149094 -0.08782747 0.23443411 -0.28240088 -0.25479043 0.106474586 -0.76353335 0.30285415

speformer.transformer.encoder.layers.0.linear1.bias f4 [256]
00000000: 4777 96be 24ef 0bbe acfe 29bf ab6d 11bf
00000010: 8786 4abf e35c a1be 4438 17be f025 4bbe
00000020: ffa4 ea3c 7a41 9fbe 124c 16bf 54d1 44bf
00000030: 1fcb 4bbf 6ed5 91bd 0243 2cbf e2c5 3abf
00000040: 112f 19bf 9257 a6be 1214 28bf e32f 1dbf
00000050: 801d 42be 86f7 6abf fa84 49bf 21db b0bd
00000060: 0c24 11bf 2bea f9be d72d 07bf ffa7 2ebf
00000070: 8a19 87be ae97 8dbe c348 12bf cf7d cebc
00000080: 608a 96be 8c8d fbbe c683 57bf 49ff 3abf
00000090: 6335 2ebf e505 f2be efa4 1ebf 865d 22bf
000000a0: cae3 57bf a7df 35bf 0213 03bf 025a 15bf
000000b0: df00 f7be 6f7a 89be 11d2 2ebf c033 39bf
000000c0: f919 a7be cdd8 a4be 5bc5 7fbe 9a89 17bf
000000d0: 23b0 24bf 428f 7dbf 7fe3 12be 86ed f8be
000000e0: 6ad4 99be 4fca 63bf 2420 47be 2f69 34bf
000000f0: 80b1 cbbe 283d b1be ce88 1bbf d835 68be
00000100: 6dda fbbe d9bc 27be a62d 18bf 5669 38bf
00000110: a699 14bf c244 78be 4f80 e5be ce20 abbd
00000120: 1c8c 7ebe 1f85 efbe 07a4 65bf 8142 0bbf
00000130: 80d5 133e 08b5 57be a84f eabb 4640 f7be
00000140: a380 3bbf 3060 cbbe 2bfe c6be 5082 74be
00000150: fb0f fdbe 0627 3bbf f876 0bbf 48d9 bcbe
00000160: 7723 55bd ff30 3abf d35c 27bf 2573 5bbf
00000170: ca83 5abe 8e36 1bbe 2547 27bf cee2 05bf
00000180: 7756 5fbf bc68 a8be 007b ffbd 1f53 babe
00000190: 8642 90be 80b4 7bbe 96a1 13bf 662f d53d
000001a0: dfcb 28be 5243 2abf b3c0 00bf a3ce edbe
000001b0: 6b17 35bf 6368 48bf ae51 0cbf 4458 25bf
000001c0: 798c 61bf 371d a13c 6821 18be 8196 32be
000001d0: 243d 14bf 95bb bebc e8cf a0bd 2a0c eebe
000001e0: 43d6 18bf 53a2 35bf d56c 81be 16fc 9cbe
000001f0: dd52 9bbe 4e67 65bf 8fca 37bf 628f 47be
00000200: 0054 bebe 4568 20bf 23e9 3bbf 8f2e 17be
00000210: 8de1 20bf e45a 3bbf 994a cbbe 250e 57bf
00000220: f1f5 41bf f99b 34bf 4382 d6bd 8409 23bf
00000230: dc9b c5be 5b60 1dbf 5162 17bf b050 3fbf
00000240: 7dca 40be a7a8 40bf d878 4cbf 3145 d1be
00000250: 9f12 96be b01b 2dbf 42a3 bbbe 26c6 a1be
00000260: 86cd 4fbe 352b 0fbf 80f5 10bf 6a68 40bf
00000270: 3008 2ebe 9408 32bf 9c17 15bf ea37 5abf
00000280: a7b6 03bf 043f 2bbf dcbc 24bf 5cd6 abbe
00000290: 6267 a5bd 1ee5 87be 7dbd eabe ac3f 13bf
000002a0: b965 d5bd c61a f5be a49c c9be 04d7 773d
000002b0: 6a5c 30bf fb8a 10bd d85a 533e 2875 62be
000002c0: 9dfd b8be feb3 08be f725 0bbe e1eb 29bf
000002d0: 6c6a 0ebe d843 98be c34c bebe 2ddc ffbe
000002e0: 9609 3bbf b51c 65be 0c61 be3c 53f7 1cbf
000002f0: 1494 03bf d39f 54bf f13d eebe 0795 b9be
00000300: 5060 18bf 7080 04bf b900 ffbd d43f 01bf
00000310: 54cf e0be 5507 1ebe bd87 0cbf 8f73 68bf
00000320: 4d46 01bf 9566 833a 01f7 97be 1078 f3be
00000330: c147 23bf ce21 12bf dd57 65be 01b6 dbbe
00000340: 1789 3fbf 4869 22bf 3543 12bd 15d2 16bf
00000350: 2b57 2abf 107d 10bf ad3a 19bf 24a2 24bf
00000360: 2863 17bf 4bad fabd 199e 21bf c485 5cbf
00000370: fe36 c2bd f447 c9be 521f 3cbf 868a 2fbf
00000380: d8c1 c4be 142b 2bbf c400 4cbe 813c c0be
00000390: 5373 ebbd a4d9 4abf 9f90 40be c869 7ebd
000003a0: 6780 65bf 02a8 1bbf d92d 87be 9109 f8be
000003b0: d1a8 d8bd c78e cebe 7966 37be 2b25 7fbe
000003c0: ee68 083e f4dd 08bf 79b1 aabe 9928 18bf
000003d0: 31e3 21be cc64 e9be 9326 eabe 3b4e a6be
000003e0: 0e10 24be 5bf9 37bf 0133 c0be f45a fdbe
000003f0: 4aa6 32bf 33eb 86be 11e9 8abd 65bd 5dbe
-0.29387876 -0.13665444 -0.66404223 -0.56807965 -0.7911152 -0.3151618 -0.14767557 -0.19838691
0.02864313 -0.31104642 -0.58709824 -0.7688191 -0.79606813 -0.071207866 -0.67289746 -0.72958195
-0.5983744 -0.32488686 -0.65655625 -0.61401194 -0.18956566 -0.9178394 -0.7871853 -0.086355455
-0.5669563 -0.48811468 -0.5280432 -0.6822509 -0.26386672 -0.27654785 -0.57142276 -0.025206475
-0.29402447 -0.4913143 -0.84185445 -0.73045784 -0.6805021 -0.47270122 -0.6197042 -0.63423955
-0.84331954 -0.7104439 -0.5120088 -0.58340466 -0.48242852 -0.26851222 -0.68289286 -0.7234459
-0.32637003 -0.32196656 -0.24977629 -0.5919434 -0.64331263 -0.9904672 -0.14344595 -0.48618716
-0.30044872 -0.88980573 -0.19445854 -0.70473 -0.3978386 -0.3461697 -0.6075562 -0.2267679
-0.49190083 -0.16380633 -0.59444654 -0.7203573 -0.5804695 -0.24244979 -0.44824454 -0.083558664
-0.24858135 -0.4678125 -0.8970341 -0.5439835 0.14436913 -0.21065152 -0.007150609 -0.48291224
-0.7324316 -0.39721823 -0.3886579 -0.23877835 -0.49426255 -0.7310642 -0.54478407 -0.36884522
-0.052035775 -0.7273101 -0.65376014 -0.8572257 -0.21339336 -0.1515753 -0.6534293 -0.522992
-0.8724131 -0.32892406 -0.12474632 -0.3639154 -0.28175753 -0.24580574 -0.57668436 0.10409431
-0.1648402 -0.6650897 -0.50294036 -0.46446714 -0.7073886 -0.7828428 -0.54812133 -0.6458781
-0.8810497 0.019667251 -0.14856493 -0.17440225 -0.57905793 -0.023282805 -0.07852155 -0.46493655
-0.5970194 -0.7095081 -0.25278345 -0.30661076 -0.30336657 -0.89610755 -0.71793455 -0.1948829
-0.37173462 -0.626591 -0.73402613 -0.14763854 -0.62844163 -0.73185563 -0.3970535 -0.8400596
-0.757659 -0.70550495 -0.10474064 -0.63686395 -0.38595474 -0.6147515 -0.59134394 -0.74732494
-0.18827243 -0.75257343 -0.7987189 -0.408731 -0.29311082 -0.6762037 -0.36647993 -0.31596488
-0.20293245 -0.55925304 -0.56624603 -0.75159323 -0.16995311 -0.6954434 -0.5823915 -0.8524157
-0.5145058 -0.6689303 -0.64350677 -0.3356198 -0.08076359 -0.2654199 -0.45847693 -0.5751903
-0.10419793 -0.4787199 -0.3937732 0.06050779 -0.6889101 -0.035288792 0.20640123 -0.22115004
-0.36130992 -0.13349912 -0.13588701 -0.6637555 -0.13907784 -0.2973926 -0.3716794 -0.49972668
-0.730615 -0.22374232 0.023239635 -0.61314887 -0.51397824 -0.8305637 -0.46531633 -0.3624651
-0.5952196 -0.5175848 -0.1245131 -0.5048802 -0.4390818 -0.15432484 -0.5489462 -0.9080133
-0.50497895 0.0010025079 -0.29680637 -0.47552538 -0.6378136 -0.5708283 -0.22396798 -0.42912295
-0.7481856 -0.63441896 -0.035708625 -0.5891431 -0.6653926 -0.5644083 -0.5985516 -0.64309907
-0.59135675 -0.12240084 -0.6313186 -0.8614161 -0.09483145 -0.39312708 -0.7348529 -0.68570745
-0.3842914 -0.66862607 -0.19922167 -0.3754616 -0.11496606 -0.79238343 -0.18805169 -0.0621126
-0.8964905 -0.60803235 -0.26402166 -0.484448 -0.10579074 -0.40343305 -0.17910184 -0.24916522
0.13321277 -0.53463674 -0.33338526 -0.5943695 -0.15809323 -0.45584714 -0.45732555 -0.3248156
-0.1602175 -0.7186486 -0.37538913 -0.49483454 -0.69784987 -0.26351318 -0.06782735 -0.2165428
