experiments/PaviaU/PaviaU_best.pth (torch, 329874 bytes, 20 tensors)

conv1.weight f4 [16, 1, 3, 3, 7]
000000 21 4f d0 bd 01 e6 02 be b0 05 2a bd c4 e5 73 bc
       -0.10171343 -0.12783052 -0.04150933 -0.014886323
000010 4d 62 b1 3c c5 63 44 3c ac 40 5a bd 66 b9 e3 bd
       0.021653319 0.011986678 -0.053284332 -0.11119346
000020 dc c0 83 3c 90 aa 78 3d e0 a5 ab 3d ee 3c 7d bd
       0.016083173 0.060709536 0.083812475 -0.061825685
000030 e2 d0 29 3c a2 b0 ac bd 48 86 84 bd ed e8 e5 bd
       0.010364743 -0.084321275 -0.064709246 -0.11226068
000040 d0 77 92 be c3 76 26 be d2 c9 59 be eb 68 83 be
       -0.28607035 -0.16256242 -0.21268395 -0.25665984
000050 03 ee 55 be c7 a6 89 3d 44 b4 0a bc f4 71 cb 3d
       -0.20891576 0.067212634 -0.00846583 0.09933844
000060 63 00 87 3d 2c 90 4c 3d 15 cc 51 3c 21 a5 2b 3c
       0.06591871 0.04994218 0.012805005 0.0104763815
000070 5a 9c 86 bc bb f4 5a bd 3b da d9 3d ee 92 78 3d
       -0.016431976 -0.05345605 0.10637327 0.060686998
000080 04 5e 17 bd 2d c3 37 3c 44 5b 88 bc 49 02 74 bc
       -0.036954895 0.011215967 -0.016645081 -0.014893123
000090 84 d2 1a bd 0f 39 62 be 4d e1 2d be 9f 58 40 be
       -0.03779842 -0.22092079 -0.16980477 -0.18783806
0000a0 bd 71 43 be da d5 c8 bc ce 1c cf bd eb 98 3c bd
       -0.19086356 -0.024516035 -0.10112916 -0.04604427
0000b0 2d 0d 6f bb 00 42 bb 3c cd 0a 7a bd 3e 48 85 3d
       -0.003647636 0.02285862 -0.061045457 0.0650792
0000c0 28 44 c5 3d de 28 ac 3d 30 57 2b 3e 47 07 9b 3d
       0.096321404 0.08406232 0.16732478 0.075697474
0000d0 64 59 3a 3e 8a 6a 9a 3d 4c dc 44 3e f1 8e 7f 3e
       0.18198162 0.07539852 0.19224662 0.24956872
0000e0 82 25 54 bd 22 7c 98 3d 25 70 d1 bc b2 f5 d0 bc
       -0.051793583 0.074455515 -0.02556617 -0.025507782
0000f0 be db 22 3e 06 62 40 3d 4b af 8a 3d c2 5d 78 3c
       0.15904137 0.046968482 0.06771716 0.015159072
000100 1c 6d cf bd 65 1a b7 3c 33 64 7a bc bf b3 09 be
       -0.10128233 0.022351453 -0.015282678 -0.13447474
000110 83 59 07 be f0 e6 ee 3d 5b d4 95 bd f2 46 01 bd
       -0.1321774 0.116651416 -0.07315894 -0.0315618
000120 f3 66 60 3c bf 7d 9f 3d e8 ff 84 bd 2b 90 06 3d
       0.01369642 0.07787656 -0.06494123 0.032852333
000130 4d 14 7e bd e3 13 6b bd eb e1 bb 3d f5 4e dd 3d
       -0.06203108 -0.057392012 0.0917395 0.108060755
000140 93 72 22 3d 72 14 03 3e ef b1 5f bd ea cf d8 3d
       0.039660048 0.12800768 -0.05461305 0.105865315
000150 67 32 2b 3e 5b 6d 98 3d e2 cd d8 3d cf 2a cd 3d
       0.16718446 0.07442733 0.10586144 0.10017931
000160 4f 2b f1 bc 73 1a 33 3e f9 e1 76 3d 23 24 8d 3d
       -0.029439596 0.17490558 0.060274098 0.06891658
000170 8e 96 ec bd 41 1d 7c bd 00 dd 8a bd f7 5b 0b be
       -0.115521535 -0.061551336 -0.06780434 -0.136093
000180 c2 f4 7c 3d 45 7b 32 be c2 45 01 3d f6 06 09 3c
       0.061756857 -0.17429836 0.031560667 0.008363476
000190 9f 0c cf bd 76 98 92 bc 85 6f e5 bd 49 65 f8 3d
       -0.10109829 -0.017894965 -0.11202911 0.121286936
0001a0 16 40 8a bc 35 b5 be 3d 4d d5 ae 3d a6 39 e1 3d
       -0.016876262 0.09311906 0.08536778 0.10997324
0001b0 f9 54 59 3e 04 1f 59 3e 60 d8 22 3e 80 b1 46 3e
       0.21223821 0.21203238 0.15902853 0.19403648
0001c0 d9 a0 d5 bd 8c 9b 6c bc 26 11 0d bd 2a 5b 25 bd
       -0.1043107 -0.014441382 -0.034440182 -0.040370144
0001d0 24 83 00 bd f7 2f 45 3c dd ab 01 be 52 51 e7 bd
       -0.031375065 0.0120353615 -0.12663217 -0.112948075
0001e0 78 29 02 be ee c9 18 be 67 b6 0f be 2e 47 fe bd
       -0.12711132 -0.1492078 -0.14034425 -0.1241592
0001f0 4d 63 46 bd 98 6e 1f be 61 58 0c bd a2 6e 26 3b
       -0.048434544 -0.15569532 -0.034263972 0.0025395532
000200 78 f2 08 be f4 fe 52 bd df 32 b4 bd 4b 33 1f be
       -0.13373744 -0.051512673 -0.087987654 -0.1554691
000210 3c 52 04 be 3b 0e 4f be ba e3 dc ba f1 d7 48 be
       -0.12921995 -0.20220272 -0.0016852536 -0.19613625
000220 8c b2 48 bd c4 cf 5c be 17 29 2f be 8e 65 82 bb
       -0.0489984 -0.21563631 -0.17105518 -0.0039793914
000230 b4 86 ec bc f2 f6 36 3e 3c 50 b3 3d 92 c6 7e 3c
       -0.028872825 0.1786764 0.08755538 0.015550273
000240 97 88 fd 3d e1 53 b5 3d dc 51 1c bd d5 e8 94 3d
       0.12379568 0.08853889 -0.038164005 0.07270972
000250 9f 64 59 bd 7c f0 21 be 96 be 1f be 26 98 ff bd
       -0.053074475 -0.15814394 -0.15600047 -0.12480192
000260 88 a2 90 bb 4c 77 b7 bc fa 7d a3 3d f5 d9 6a 3d
       -0.0044139065 -0.022395752 0.079830125 0.057336766
000270 72 22 70 3d 32 72 0b 3d a6 2d b6 bd 33 55 e0 bc
       0.0586266 0.034044452 -0.088954255 -0.027384376
000280 98 bf 85 bd 99 80 bb 3d 18 77 6e 3e 92 6d 37 bc
       -0.06530684 0.091553874 0.23287618 -0.011195557
000290 39 01 19 3e 7d 15 5b 3e 41 b1 2f 3e 07 4d ad 3c
       0.14941873 0.21394916 0.17157461 0.021154894
0002a0 0d 75 fc 3c 78 cc 99 bc a8 7e 1d be 3c f3 16 be
       0.030817533 -0.018774256 -0.15380347 -0.14741224
0002b0 46 a0 0f be 6f 4e 50 bd e1 c2 6b 3b 80 0c 71 3d
       -0.14025983 -0.05085605 0.0035974311 0.05884981
0002c0 63 89 a8 3c a9 00 d3 bd 30 51 8b 3d f3 bd dc bc
       0.020573324 -0.1030286 0.06802595 -0.026946044
0002d0 e5 fd 9c bd ba 6d 8d bc af 8f 27 3c f7 a9 30 3e
       -0.07665614 -0.017264236 0.010227128 0.17252336
0002e0 10 29 35 3c 54 0b 39 3d ee 0a b1 3d 48 b4 45 3e
       0.011057153 0.04517682 0.08644663 0.19307053
0002f0 26 f8 d5 ba 23 da 62 3e 31 e7 1c 3e 1e 18 a9 3d
       -0.0016324564 0.22153525 0.15322568 0.08256553
000300 e9 ac 0c 3d 6a db 18 3e d6 72 0f 3c a0 5a 0e be
       0.034344587 0.1492745 0.008755406 -0.13901758
000310 0a 48 77 3d 08 5a 44 3d a8 ba f4 3c 64 1b 02 bd
       0.060371436 0.047937423 0.02987416 -0.031764403
000320 61 75 9c bd 18 86 d2 bd 15 07 6f be 45 3a 32 3e
       -0.07639576 -0.102794826 -0.23342545 0.1740504
000330 55 0e 1d bc 21 38 30 bd 68 d2 9d 3d e4 87 0f 3c
       -0.009585937 -0.04302228 0.077061474 0.008760426
000340 a2 6d a9 bd 08 20 3d be ce 94 28 3e 45 48 c3 bc
       -0.08272864 -0.1846925 0.16463014 -0.023838172
000350 bb 0b f8 3c 2f 25 b7 3d 99 54 b1 3d cd 41 03 be
       0.030279031 0.08942639 0.08658714 -0.1281807
000360 cc 6f 44 be 86 88 b3 3d 56 0d 4a bd f2 e1 91 bd
       -0.19183272 0.08766274 -0.049329124 -0.07123174
000370 7b 3e 40 3d 21 1c bb 3c 37 d4 12 bd 24 0f 51 be
       0.046934586 0.022840561 -0.035846915 -0.20415932
000380 b7 dc 0f 3e a5 7f 06 3e 1a 82 c7 3d aa 56 08 3e
       0.1404904 0.1313463 0.09741612 0.1331431
000390 19 df 15 3e 41 df d2 bd f9 e1 a9 bd 2c 2c a6 3d
       0.14635886 -0.102964886 -0.08295054 0.08113894
0003a0 41 8a 08 3e bc 7e 37 bc 74 55 5a 3c 2d 5b e9 bc
       0.1333399 -0.011199649 0.013326038 -0.028485859
0003b0 aa da 06 3d e4 43 05 be 29 d8 6e 3c 6b d3 ae bc
       0.032923378 -0.1301418 0.014577904 -0.021341046
0003c0 84 ee ad bc 99 71 be 3c cc 56 a8 3b 69 00 be 3c
       -0.021231897 0.023247527 0.0051373 0.023193555
0003d0 fc 72 91 bc b1 17 3f 3e 36 da fc bc 65 8b 3e bd
       -0.017755024 0.18661381 -0.03086577 -0.046519656
0003e0 b7 c3 94 bd a5 cb 83 3d 2c 02 24 be f2 41 5b bd
       -0.07263892 0.064353265 -0.16016454 -0.053529687
0003f0 4b 08 52 bd 47 8d 3d 3d 5d 59 14 bd 9b dc 36 3d
       -0.05127744 0.04627731 -0.036218036 0.04464398

conv1.bias f4 [16]
000000 8e f7 13 3d d4 0c d7 bd 71 11 2b 3d d7 e8 05 3d
       0.03612476 -0.10500494 0.04176468 0.032692757
000010 7a 61 a7 bd 52 b7 8e 3d 01 09 06 3d 5a 0b 1f bd
       -0.08172889 0.06968559 0.03272343 -0.038829185
000020 e2 2b 8d 3d 6f f5 89 3c 7d 2c 8c 3c 8e 55 a8 3d
       0.068931356 0.016840665 0.017111057 0.08219443
000030 3e ae bf 3c 07 7e c0 3c 55 21 09 be 54 ca aa bd
       0.023398515 0.023497595 -0.13391621 -0.08339372

bn1.weight f4 [16]
000000 ee 30 78 3f 5a 96 90 3f d8 09 76 3f cb a7 54 3f
       0.9694966 1.1295884 0.9610877 0.8306853
000010 e4 45 8b 3f fb 0f 5a 3f e5 f2 89 3f fe 7a 71 3f
       1.0880704 0.85180634 1.077725 0.94328296
000020 6f e4 86 3f 0a 7b 76 3f 03 ca 8e 3f 9c 97 84 3f
       1.0538462 0.9628149 1.1155399 1.0358768
000030 75 8b 60 3f 2f 0d 75 3f 41 1f 63 3f f3 51 98 3f
       0.87712795 0.9572324 0.88719565 1.1900009

bn1.bias f4 [16]
000000 48 99 25 be 64 7b 41 be 8d 98 c5 bd 05 fb 55 be
       -0.16171753 -0.18894726 -0.096482374 -0.20896538
000010 01 a7 67 be a1 34 93 be eb 8e 12 3e 52 31 3d bd
       -0.226223 -0.2875109 0.14312331 -0.046189614
000020 21 85 79 be 3a d3 b2 bc 10 af b7 be 4c a8 91 3d
       -0.24367191 -0.021829236 -0.3587575 0.07112178
000030 ec f7 da 3c 49 a1 b1 bd 29 2e de bd 9b 58 a1 bd
       0.026729546 -0.08673341 -0.10848648 -0.07878228

bn1.running_mean f4 [16]
000000 03 91 aa bd f1 a5 e2 bd 48 8d 44 bd 17 92 99 3d
       -0.0832844 -0.11066807 -0.0479863 0.074985676
000010 30 14 d2 bd 24 fb 6a 3d 5d eb b0 3c 7f bb a9 3c
       -0.10257757 0.057368413 0.021596605 0.020719288
000020 9c d7 73 be 98 42 0a bd 11 40 82 bc 82 49 c3 3d
       -0.23812717 -0.033754915 -0.01589969 0.09535505
000030 46 b8 e7 3e c9 3c 84 bc 47 67 af bd 6f 4b 98 bd
       0.45257777 -0.016142266 -0.085646205 -0.07436263

bn1.running_var f4 [16]
000000 96 32 24 3d 19 f4 63 3c 0e fb 09 3d fa a5 7f 3b
       0.040087305 0.013913178 0.03368669 0.0039008842
000010 81 a1 ae 3c 3d 14 df 3b 3e b7 61 3b 5f 60 b1 3c
       0.021317245 0.0068078325 0.0034441496 0.021652399
000020 5e 43 91 3d 9b ab 98 3c ad 6f 86 3b ac ab 1e 3b
       0.070929274 0.018636515 0.0041026683 0.002421121
000030 6a 19 89 3d b1 27 bb 3b d6 d8 da 3c 39 da ea 3a
       0.066943005 0.0057115187 0.026714724 0.0017917819

conv2.weight f4 [32, 16, 3, 3, 5]
000000 1f 07 9c 3c d3 a6 74 3d ec b8 84 3d a5 31 c7 3d
       0.019046364 0.05972941 0.064805835 0.09726266
000010 be bc eb 3d 6c 96 51 3b 0f 5c df 3c 78 cf 03 3c
       0.11510609 0.0031980528 0.027265577 0.00804507
000020 21 66 06 3d 11 77 de 3c 94 ee 46 3d 46 ca 84 3c
       0.03281224 0.027156385 0.04856737 0.016209733
000030 80 9d d8 3c d0 6b a5 3d 21 36 65 3d 09 58 b3 bb
       0.02644229 0.08077204 0.055959824 -0.005473141
000040 5f 7b 37 3d 07 cb 3d 3c dc 42 1f 3d 78 7b 80 3d
       0.04479539 0.01158405 0.03888212 0.0627355
000050 e3 98 82 bc af 98 29 3c 37 65 65 3c 93 01 0b 3d
       -0.015942043 0.010351344 0.014001182 0.03393705
000060 d0 d2 73 3d c7 8a b0 3c 7c 34 96 3d 85 17 79 3d
       0.05952722 0.02155055 0.07334229 0.060813446
000070 8e cb 32 3d 38 61 9f 3d df b4 fd bc a2 c8 1b bd
       0.043651156 0.07782215 -0.030970035 -0.038033135
000080 ef f5 89 3c 61 d9 60 3d 14 db 15 3d c4 22 32 be
       0.016840903 0.05489481 0.036585882 -0.17396075
000090 2e e3 2e be d4 dd 16 be f2 5f 02 be 04 58 9d bd
       -0.1707885 -0.14733058 -0.12731913 -0.07682803
0000a0 80 de af bd 84 71 a2 bd 65 ee 17 bd 63 25 c4 3b
       -0.085873604 -0.07931808 -0.037092585 0.005985902
0000b0 0a 48 e8 3b 61 e3 b7 3d 2a f6 fd 3d a2 ba 17 3e
       0.007088666 0.08978916 0.12400468 0.14817289
0000c0 3c 9a 1a 3e e0 e3 2c 3e d7 c8 c8 3c 09 3b 6d 3c
       0.15097898 0.16883802 0.02450983 0.014479407
0000d0 94 48 6f 3d 2e 4b c3 3d 03 32 ec 3d b4 d0 f3 3d
       0.058418825 0.09535824 0.115329765 0.11905041
0000e0 d8 72 02 3e 20 82 d6 3d 63 5a c5 3d ed 04 09 3e
       0.12739122 0.10474038 0.096363805 0.13380785
0000f0 8b ca 42 3d 82 d5 cc 3d af 6f ca 3d a6 af e5 3d
       0.04755644 0.10001661 0.09884583 0.11215143
000100 44 c1 d8 3d 57 1b 8a bd cf e5 9e bd 2b 17 75 bd
       0.105837375 -0.06743496 -0.07758676 -0.059836548
000110 96 8f 39 bd f9 46 a5 bc 67 17 d4 3c 84 4e 29 3b
       -0.04530295 -0.020175444 0.025890065 0.0025834152
000120 97 e1 94 3d af 02 9c 3c 4e 91 02 3d fb 8d 8e bc
       0.0726959 0.019044248 0.031876855 -0.017401686
000130 dd bb cd bb 74 9d 29 3d 83 ea 68 3d 54 01 12 3d
       -0.0062784986 0.041409925 0.056864273 0.035645798
000140 ea 8f c8 bd e6 9d 7f bd 64 19 80 bd 9c e8 99 bc
       -0.097930744 -0.062406443 -0.06254843 -0.018787675
000150 bc f4 eb bc 96 b9 ba bd 05 18 45 bd 65 94 c8 bd
       -0.028803222 -0.09117429 -0.04811861 -0.09793929
000160 55 87 60 bd 1f c4 45 bd 08 2a a1 bd 7d 1b d6 bb
       -0.054816563 -0.04828274 -0.07869345 -0.0065340386
000170 d3 81 55 bd 3e ca a1 3c 52 f2 0f bd 50 9e 35 bc
       -0.052125763 0.019749757 -0.035143204 -0.011085108
000180 33 98 85 3c 7e fa 18 3d e1 f1 10 bc f6 aa ec 3c
       0.016307926 0.037348263 -0.008846731 0.028890114
000190 f8 35 4e bd a5 4b 11 bd d0 cd 17 bd 37 f3 36 3d
       -0.050344437 -0.03547253 -0.037061512 0.04466554
0001a0 3c 1b a1 3c 8f 38 23 3d 5c e7 68 3c 56 25 d7 3c
       0.019666307 0.03984886 0.014215317 0.02626292
0001b0 d8 2e 7d 3c bd c4 85 3d 6d 7a 13 3d 7f bb ce 3c
       0.015453063 0.065316655 0.036005426 0.02523589
0001c0 d5 eb 97 3d 53 ff c0 3c e6 bb 9d 3d 6a 94 6e bd
       0.07418028 0.023559248 0.077018544 -0.058247007
0001d0 9c d0 a5 bc a5 ec 92 3c e6 33 f6 3c 24 04 8a 3d
       -0.020241074 0.017935107 0.030054044 0.06739071
0001e0 7e 78 8d bd 10 2f 25 bd 0c d5 95 bb 15 53 68 3c
       -0.06907748 -0.040328085 -0.0045725163 0.014179965
0001f0 ff bc 4c 3d 82 b1 20 bd 5a 65 ae 39 85 e7 75 3d
       0.04998493 -0.039231785 0.0003326338 0.060035247
000200 1e b4 a2 3c ac 7b 92 3d 7b 4f d7 bd 4e 2a ca bd
       0.019861277 0.07152495 -0.105132066 -0.0987135
000210 28 3f 1c bd 0d ad a7 bc 15 58 24 bb 30 36 89 3d
       -0.038146168 -0.02046826 -0.0025076915 0.066997886
000220 24 cb ce 3b 1f 0d b4 bc 32 3b 1b be 2d 85 3f be
       0.0063108373 -0.021978913 -0.151593 -0.18703146
000230 6a 7a 9d 3d 05 1d ab 3c b8 b5 d7 bc 9c f5 dc bd
       0.07689364 0.020887861 -0.026331767 -0.10789034
000240 f2 4e 3c be 56 eb b0 3d ec dc 4e bc 0d 74 77 bd
       -0.1838949 0.08638637 -0.012625914 -0.06041341
000250 ef 8b 04 be 1f c6 65 be 32 d0 3c bd 82 40 92 bd
       -0.12944005 -0.22438858 -0.046096988 -0.0714121
000260 df e1 b6 bd 3a 72 33 be 7c 56 83 be a7 b5 76 b9
       -0.089298 -0.17524043 -0.2565192 -0.00023528059
000270 93 93 c6 bc 13 a2 bd bd f0 b3 20 be 7d 9a 75 be
       -0.02424029 -0.09259429 -0.1569364 -0.23984714
000280 fc 90 78 3c 9d a7 53 bd 24 b8 b6 bd d0 a1 67 be
       0.015171286 -0.05167352 -0.08921841 -0.2262032
000290 2e 85 9d be b2 5c f7 3b 2d 58 2f bd 62 41 cc bd
       -0.3076567 0.007548892 -0.0428087 -0.09973408
0002a0 61 b2 52 be 32 70 4e be 67 63 54 3b 44 8c d1 bc
       -0.20575859 -0.20159987 0.0032407881 -0.02557958
0002b0 f7 e6 a9 bd 97 af 26 be 67 8a 80 be 13 85 0f 3d
       -0.08296006 -0.1627792 -0.25105593 0.03503902
0002c0 5c 4d df bb 66 43 b8 bd ed 8f 0f be 67 9e 5a be
       -0.006814642 -0.0899723 -0.14019747 -0.21349488
0002d0 36 fe 1b bc ad b2 f7 ba af 4c 9f bb 93 80 eb bc
       -0.009521058 -0.0018897854 -0.0048614363 -0.028747832
0002e0 57 41 50 bc 57 f5 d1 bc db b8 b0 bc 99 87 66 bd
       -0.012710891 -0.025629682 -0.021572521 -0.05628166
0002f0 87 10 36 bd 69 6f 31 bd 2a eb 40 bd b8 91 2f bd
       -0.044449355 -0.04331914 -0.04709927 -0.042863578
000300 1e 21 11 3d 98 fd ac 3c 2c 8d 48 3d 4f d1 33 3e
       0.035431974 0.021117017 0.048962757 0.17560314
000310 a1 67 71 3e f9 07 47 3e 48 eb 51 3e 77 79 6e 3e
       0.23574688 0.19436635 0.20499909 0.23288523
000320 24 9b 12 3d e5 26 94 3d 28 69 72 3d 5d f2 cc 3c
       0.035792485 0.07233981 0.059182316 0.025017912
000330 00 30 37 3d ae d1 15 bc 0d 55 45 bd 39 e3 88 bc
       0.04472351 -0.00914423 -0.048176814 -0.01670991
000340 38 bf 83 3c 09 f6 48 3d 2b 76 14 3e af 08 2a 3e
       0.016082391 0.049062762 0.14498203 0.16604875
000350 e5 e5 30 3e 8b e4 23 3e a3 33 11 3e 08 7e a4 3d
       0.17275198 0.16005151 0.14179854 0.08031851
000360 0a c0 fc 3c a1 45 93 3d 01 6e 1c 3c 5c 7c 15 3d
       0.03085329 0.07191015 0.009547711 0.03649555
000370 8a 7d db 3c 63 0e 6e 3b 06 67 75 3b 6b 16 20 3d
       0.02679326 0.0036324493 0.003744544 0.03908388
000380 f8 cd 91 3d b3 dc 6b 3b fb e1 17 bd 39 04 42 bd
       0.071193635 0.0035989701 -0.037080746 -0.04736731
000390 dd 13 e6 bd bd 71 66 be 8b 44 2f 3d 9d 97 7e 3d
       -0.11234257 -0.22504325 0.042789977 0.06215631
0003a0 78 55 d0 3b c3 af 4f bd 4d f1 a9 bd 56 da 26 3e
       0.006357845 -0.05070473 -0.082979776 0.16294226
0003b0 33 fe 01 3e 3b 32 ef 3d bc 79 b3 bc 37 f8 2f bd
       0.12694626 0.116795026 -0.021908633 -0.042961325
0003c0 42 58 7b 3d 91 ae 4b bc a2 8f 1a bc 82 cf d8 bd
       0.061363466 -0.012431757 -0.009433659 -0.10586454
0003d0 be be 4a be cb e2 cf 3c f7 a6 97 bc 99 c4 34 bd
       -0.19799325 0.025376698 -0.018512232 -0.044132803
0003e0 08 1d 55 bd 45 7f e7 bd 26 30 d2 3d 99 a7 bd 3d
       -0.05202964 -0.113035716 0.1026309 0.09260482
0003f0 32 c3 7b 3c 5d ba 02 bd bc 14 e0 bd 53 dd 8f 3d
       0.015366362 -0.03191601 -0.10941455 0.07024636

conv2.bias f4 [32]
000000 d7 eb 41 3c df 40 8e bb 40 88 b8 3c 0c 5a b7 bc
       0.011836014 -0.0043412293 0.022525907 -0.022381805
000010 64 e9 2a bc bc 4d e1 bc 10 be cb 3c ae a2 e0 3b
       -0.010431621 -0.027502887 0.024870902 0.0068553304
000020 82 eb 45 bd 39 7a 9f bc ad 8e a3 bb e3 c8 03 3d
       -0.0483203 -0.01946746 -0.0049913735 0.032174002
000030 51 29 01 bd d1 3e 2e 3c 8e 7d 48 bc d1 57 11 bd
       -0.031533543 0.010635094 -0.012236966 -0.03548414
000040 16 9d 5d 3b be 9f 5a 3c ba 78 07 bd 10 d9 14 3c
       0.0033815554 0.01334375 -0.03307412 0.009084955
000050 c7 ea 36 3c 28 b1 a2 bc 0e 44 5e bb 45 ad 68 3c
       0.011164374 -0.019859865 -0.0033915075 0.014201467
000060 38 aa 93 bb 05 6c 0d 3d e4 52 3c bd c3 f6 3b 3d
       -0.0045063756 0.034526844 -0.04597749 0.045889627
000070 af fa fe 3c 25 0c 62 3c 75 cc 40 bc 73 ad f2 3c
       0.031125395 0.013796841 -0.011767496 0.029623723

bn2.weight f4 [32]
000000 41 c1 7e 3f 0c e3 56 3f 45 85 77 3f 0f 41 76 3f
       0.9951363 0.83940196 0.9668773 0.9619302
000010 48 6d 7d 3f 68 bc 5d 3f ef 06 81 3f 29 da 68 3f
       0.98994875 0.8661561 1.0080241 0.90957886
000020 75 65 7e 3f 6d 47 79 3f 71 d4 60 3f 9e b2 87 3f
       0.9937356 0.9737461 0.8782416 1.0601385
000030 98 61 64 3f 6e 14 6e 3f 07 50 6b 3f d3 b3 6e 3f
       0.89211416 0.92999923 0.9191899 0.9324314
000040 32 af 72 3f e9 f6 27 3f 3a f1 6f 3f cf 59 8e 3f
       0.94798577 0.6561113 0.9372746 1.1121157
000050 c1 aa 7a 3f 7f 0e 76 3f 6a 4f 64 3f 1f 59 7d 3f
       0.979168 0.9611587 0.89183676 0.98964113
000060 db 02 64 3f 4d 61 6b 3f 22 d4 6b 3f 53 89 4b 3f
       0.8906686 0.91945344 0.92120564 0.79506415
000070 eb 1e 58 3f ab a3 58 3f 4d 36 3d 3f 0a dc 68 3f
       0.8442218 0.8462474 0.7391098 0.9096075

bn2.bias f4 [32]
000000 dd 61 8c be f2 0a 62 bd b2 8e a2 be 51 69 d4 be
       -0.27418414 -0.05518622 -0.31749493 -0.414866
000010 24 b4 da be f1 9c 97 be 96 d9 7c be 4f ab a1 be
       -0.4271556 -0.29611924 -0.24692377 -0.3157601
000020 db 60 bd be 82 fd b2 be 89 dc aa be fa b5 b2 be
       -0.36987957 -0.34959036 -0.3337138 -0.34904462
000030 15 56 db bd 7c ca 18 bd 47 e7 d3 be 53 ff 96 be
       -0.10709778 -0.03730248 -0.41387388 -0.29491672
000040 a9 77 9d be c6 09 9d be 74 da 01 bf 45 3a 8d bf
       -0.30755356 -0.3067152 -0.5072396 -1.1033407
000050 b1 e3 39 be da 4e 7c be 02 51 a8 be c5 1a a8 be
       -0.18153264 -0.24639454 -0.32874304 -0.32832924
000060 f6 03 cb be 6b aa a5 be c6 a5 9b be 63 db 42 be
       -0.3965146 -0.3235658 -0.30399913 -0.19029002
000070 b3 9a 27 be 15 79 62 be e5 db ff be 74 5c 92 be
       -0.16367607 -0.22116502 -0.49972454 -0.2858616

bn2.running_mean f4 [32]
000000 5e 26 09 c0 00 ef eb c0 d0 8b 76 c0 71 a4 3a c0
       -2.1429667 -7.372925 -3.8522835 -2.9162867
000010 a9 88 9e c0 47 b4 1a bf 19 fa 30 c0 72 80 1b bf
       -4.954182 -0.6043133 -2.7652647 -0.60742867
000020 1d 34 13 c0 9d b0 e4 c0 67 4e e3 bf 05 ac 46 c0
       -2.3000557 -7.1465592 -1.7758301 -3.1042492
000030 32 24 a4 c0 1f f9 11 c1 f7 cc 37 c0 53 f1 a1 c0
       -5.1294184 -9.123321 -2.871885 -5.0607085
000040 7c dd 9b c0 f1 ac ad 3f 51 99 16 c0 32 2e e9 bf
       -4.8707867 1.3568403 -2.3531077 -1.8217223
000050 37 b3 6b c0 0c f6 48 c0 f3 21 28 c0 ec 53 1b c0
       -3.6828134 -3.1400175 -2.627072 -2.4269972
000060 3d 6b f9 be 18 99 8c c0 47 49 3c c0 8f cc 9b 3f
       -0.4871463 -4.393688 -2.9419725 1.2171801
000070 58 bd 43 c0 06 1f 64 c0 d5 03 15 3f 00 5e 61 c0
       -3.0584316 -3.5643935 0.5820897 -3.5213623

bn2.running_var f4 [32]
000000 13 58 ef 40 50 4a d2 41 04 39 aa 41 10 04 09 41
       7.4795012 26.286285 21.27784 8.563492
000010 05 ca a1 41 39 7d 01 41 7e 4b 24 42 4e 20 ff 40
       20.223642 8.093072 41.073723 7.9726934
000020 1e 8e 94 41 bc 39 0c 42 a6 30 f4 40 6a 5d 33 41
       18.569393 35.05638 7.6309385 11.210306
000030 d9 80 8d 42 0c d9 59 42 04 6b 58 41 3e 14 20 42
       70.751656 54.46196 13.526127 40.019768
000040 72 f3 e8 41 9f 00 da 40 1d cb 20 41 12 87 27 41
       29.11887 6.812576 10.049588 10.470476
000050 51 8d aa 41 86 9b a9 41 12 74 a4 41 02 54 58 41
       21.319002 21.20094 20.556675 13.52051
000060 5f d3 6e 41 5a 27 51 41 8f f2 08 41 e4 3f 28 41
       14.926604 13.072107 8.559218 10.515598
000070 ee 77 8c 41 5d 75 55 41 0f a4 9a 40 60 07 5f 41
       17.55856 13.341153 4.8325267 13.939301

conv3.weight f4 [64, 32, 3, 3, 3]
000000 87 cd 56 3d bf c9 70 3c da ae 81 bd c9 54 5a 3d
       0.0524421 0.0146965375 -0.063321784 0.053303514
000010 94 b3 d9 3a e3 11 77 bd 5f 87 9f 3d 44 15 c6 3c
       0.0016609305 -0.060319792 0.07789492 0.024180062
000020 88 66 8c bd 6a c3 5c 3d 9c be 28 3d 36 fe a0 bb
       -0.06855494 0.0538973 0.041197404 -0.004913117
000030 95 b3 d3 3d 2a 07 3c 3d 28 23 19 bd f1 cd c7 3d
       0.10336987 0.04590527 -0.037387043 0.09756077
000040 9c 17 b7 3d b3 6e 9b 3c 4f 7f 8d 3d 1e 06 89 bc
       0.0894005 0.018973684 0.06909048 -0.01672655
000050 56 11 e0 bc ee 3a 12 3d d5 75 1e 3d 04 82 81 bd
       -0.027352016 0.03570073 0.038686592 -0.06323627
000060 73 f8 1e 3e 26 4e 7c 3d 88 c0 88 3b a3 de 78 bc
       0.15524463 0.061597966 0.004173342 -0.0151897995
000070 a3 b5 60 bd c2 ec a2 bd f1 32 7d 3c c5 72 8e 39
       -0.054860722 -0.07955314 0.01545404 0.0002716986
000080 6b 5f 9b bd f6 d9 2c bd f4 d4 ae bd eb cf b6 bd
       -0.07586559 -0.04220005 -0.08536711 -0.08926376
000090 58 63 c6 bc 75 6c 54 bc 81 3c aa bd 13 24 4e 3b
       -0.024217293 -0.012965311 -0.083123215 0.0031454607
0000a0 b4 45 f0 bc 88 52 81 bd a6 55 0b bd 0c f7 b5 bd
       -0.029330112 -0.0631457 -0.034017228 -0.08885011
0000b0 77 07 bf bd b0 21 a9 bd 80 d6 e4 bd a5 61 16 be
       -0.09327596 -0.082583785 -0.11173725 -0.14685686
0000c0 52 67 0e bd 9c 1f b5 bd 59 f3 f2 bd 9f d0 0e bd
       -0.034766503 -0.0884392 -0.11862821 -0.034866925
0000d0 b1 16 18 bd e6 5c e7 bd 83 72 99 bb b6 7e 39 3c
       -0.037131015 -0.11297016 -0.0046828403 0.011321714
0000e0 3b 17 c1 ba 05 2b c7 3d fa 97 3c 3d 32 19 ca 3b
       -0.0014731655 0.09725002 0.046043374 0.0061675543
0000f0 e6 04 08 3e a7 61 c6 3d 7c a4 45 3d d9 53 d9 3c
       0.13283119 0.096865945 0.048252568 0.02652924
000100 a8 57 b5 bb f7 7a 23 bd ba 06 00 3c 1a 8a 62 3c
       -0.005534131 -0.03991219 0.007814104 0.013826871
000110 7e 6e d8 bb 31 9a 87 3d 37 8b 1d 3d 25 ae 51 3d
       -0.0066049686 0.066212066 0.038462844 0.051191468
000120 eb 61 68 3b 89 df 14 3d 4b 53 8e bc 7b 22 58 3c
       0.0035458754 0.036345992 -0.017373702 0.013191815
000130 78 f8 5c 3b 5f b7 01 bb e5 33 60 3d f6 fb d7 3c
       0.0033717435 -0.0019793136 0.05473699 0.026365262
000140 49 c0 35 3d 95 aa 20 3e 47 ab e2 3d 0e d5 ff 3c
       0.04437283 0.15690072 0.11067825 0.031229522
000150 9e 82 0c 3e 9a 3f a2 3d bb f9 d9 3d 35 01 20 3e
       0.13721702 0.07922287 0.106433354 0.1562546
000160 a9 4d c9 3d 88 40 83 3d f9 cd 55 3d 2b 49 80 3c
       0.098292656 0.06408793 0.052198384 0.01565989
000170 71 7e 22 3b 82 8d 9c 3d db e2 bf 3d a7 d6 41 3d
       0.0024794603 0.07644178 0.09369441 0.04732385
000180 07 83 23 3e b1 73 8e 3d 0c 8b bb 3c de 70 da 3d
       0.15967952 0.0695566 0.022893451 0.10666059
000190 d9 89 80 3d 2c 70 52 bc 57 a2 bf 3d 40 b0 a4 3d
       0.06276292 -0.012844127 0.09357136 0.080414295
0001a0 d6 e5 e3 3c bd 43 97 3d 0c b7 e9 3c d9 a6 ba 3c
       0.027819555 0.07385967 0.028529666 0.022784637
0001b0 bb 46 58 bd cb db 5e bd 13 06 a3 bd eb 87 59 3d
       -0.05280183 -0.05440883 -0.07960143 0.053108137
0001c0 65 0f 89 3d a4 9d a0 3d 23 98 5e 3d f4 37 14 3d
       0.066923894 0.078425676 0.054344308 0.036186174
0001d0 3a 60 74 3d 23 6a 65 bd e6 14 b5 bc dd 9a b7 bd
       0.05966208 -0.056009423 -0.022104692 -0.08965085
0001e0 f9 0f 26 3d a9 bc f0 3b e0 e4 d1 3c dc d3 44 bd
       0.040542576 0.007346709 0.025621831 -0.048053607
0001f0 2f ba a2 bd 49 11 98 bd dc e6 dc bc 37 45 8c bc
       -0.07945668 -0.07425172 -0.026965551 -0.017122848
000200 80 fc 51 bc c5 66 a1 3c a4 11 85 39 90 77 a1 bb
       -0.012816548 0.019702325 0.0002538088 -0.004927583
000210 84 49 56 bd 07 59 45 bd 42 70 23 bd d0 1f 1e 3e
       -0.052316204 -0.048180606 -0.03990198 0.15441823
000220 8c 9e ed 3d f6 a2 3b 3e 57 4a 8e 3d ae f4 ce 3d
       0.11602506 0.18323883 0.06947773 0.10105263
000230 62 45 a5 3d 2f 97 45 3d 82 e9 cf 3d 24 1e 06 3e
       0.08069874 0.048239883 0.1015196 0.13097435
000240 7f 63 09 3e 5d 6d 31 3e 9a 98 50 3e 22 51 94 3d
       0.13416861 0.17326875 0.20370713 0.07242037
000250 cb 70 02 3e 4c ff 04 3e 7b 80 92 3d 14 d7 c8 3d
       0.1273834 0.12988013 0.07153412 0.09806648
000260 cb bd 1a 3e c5 be 6b 3e 74 4d 73 3e 71 7c 82 3e
       0.15111463 0.23021992 0.23760015 0.25485566
000270 8e db 0c 3e 5b f2 f3 3d e6 a9 36 3e 12 92 6f 3d
       0.13755628 0.1191146 0.17838249 0.058488913
000280 4d 3b d8 3d 84 4e 14 3e 9a ea 2b bc a5 8f d3 3c
       0.10558186 0.14483076 -0.010492945 0.025825331
000290 5f b6 01 3d ee 6a fd ba e7 ca 79 3c 95 62 b3 3d
       0.031668063 -0.0019334236 0.01524613 0.087590374
0002a0 23 3c 81 3d 37 16 03 3d a8 6d b6 3d 53 e2 c3 3c
       0.06310298 0.032003608 0.08907634 0.02391163
0002b0 73 d3 40 3c 8b be 72 3d 95 aa 47 3c 2c bc 3b 3d
       0.011769163 0.059263747 0.012186666 0.04583375
0002c0 c5 53 9f 3d 15 97 93 3c 4a 0e 27 3d 74 77 b1 3d
       0.0777965 0.018016377 0.04078511 0.08665362
0002d0 8e 66 3b bc 78 a1 06 3c 30 7d ec 3c 44 f4 d9 bb
       -0.011438025 0.008217208 0.028868288 -0.006651433
0002e0 88 ac 82 3d d3 2b a2 3d ff cb 90 3c 7f 41 96 3d
       0.06380564 0.07918515 0.017675398 0.07336711
0002f0 88 cb f3 3d af 20 b8 3d c9 66 f0 3d cc 46 ef 3d
       0.11904055 0.08990609 0.11738355 0.11683425
000300 b8 63 7a 3d 84 e3 92 3d e7 5e b8 3d c9 01 0d 3e
       0.061130255 0.071723014 0.09002476 0.13770212
000310 86 13 13 3e fd 87 50 3e c0 b4 6b 3d cb b1 ac 3d
       0.14362916 0.20364375 0.057545424 0.08432349
000320 3d 19 8f 3d 7f 7a 45 bd 3e 97 da bb d5 07 1f 3d
       0.06987236 -0.048212525 -0.0066708615 0.03882583
000330 9a f1 ae 3d 04 8c bf 3d af e2 b7 3d 2a 04 61 3e
       0.085421756 0.09352878 0.08978783 0.21974245
000340 50 75 68 3e e8 da 5c 3e a0 ea c0 3d 72 68 c3 3d
       0.22701001 0.21567881 0.09419751 0.09541406
000350 5f 90 e8 3d 03 57 36 3e 8f 03 3f 3e 61 43 41 3e
       0.113556616 0.1780663 0.18653701 0.1887336
000360 23 09 92 3a 9e c7 80 bd bd 8c c2 bd e5 a1 46 bc
       0.0011141639 -0.06288074 -0.094995 -0.01212356
000370 0b aa 3c bd 7c dd ec bd 34 b3 93 bd 42 93 e2 bd
       -0.046060603 -0.11565682 -0.07211915 -0.110632434
000380 88 7a ad bd 77 d5 0c bd d7 96 95 bd 39 4c d7 bd
       -0.084706366 -0.034383263 -0.07304161 -0.10512585
000390 00 a6 9c bd 30 1e b2 bd 50 42 03 be 66 cd ce bd
       -0.076488495 -0.08697164 -0.12818265 -0.100977704
0003a0 69 99 06 be eb a9 5a be 31 3a a9 bd 53 86 1a be
       -0.13144459 -0.21353881 -0.08263052 -0.15090303
0003b0 1a b3 37 be cb 26 d2 bd fa f2 e5 bd 07 15 1d be
       -0.17939416 -0.102613054 -0.11227985 -0.15340053
0003c0 b1 da a1 bd 57 cb 9f bd 87 61 d0 bd 77 8f 0d 3c
       -0.0790304 -0.07802456 -0.10174852 0.008640162
0003d0 e3 4f 1e 3c ab 86 ba 3c a6 7a 09 3d 1d a6 ea 3c
       0.009662601 0.022769293 0.033564232 0.028643662
0003e0 7a 70 55 3d 9d 0b a8 3c 54 c1 bc 3d fa 76 b7 3d
       0.05210922 0.02051335 0.09216562 0.0895824
0003f0 22 b3 22 3d 43 6e 75 3c 84 a7 df 3b 6f 1f 40 3d
       0.039721616 0.014979902 0.0068253893 0.046904977

conv3.bias f4 [64]
000000 b1 99 56 bd da be aa bd cc 68 ba 3b 8a dc 39 bc
       -0.052392665 -0.08337183 0.0056887623 -0.0113440845
000010 12 0c 51 bc 0e 56 f6 bc e2 d6 7f bd f3 cd 3e 3d
       -0.012759225 -0.030070331 -0.062460788 0.046583127
000020 db 71 06 3d f2 29 8b 3b 92 07 43 3d 77 5a 61 bd
       0.032823425 0.0042469436 0.04761464 -0.055017915
000030 9a bb 01 bc cd ae 30 bc 75 51 a5 bc 91 2d 39 3d
       -0.007918263 -0.010783863 -0.020180443 0.04520947
000040 cb 1b da 3c e9 ac 34 3d e6 88 98 bd a2 db d9 3c
       0.02662458 0.044110212 -0.07447986 0.026593987
000050 c9 b8 09 3c 3f dd 9e 3c ee c1 74 3d 6c c5 02 3d
       0.008405873 0.019392608 0.05975526 0.031926557
000060 73 7b 0e 3d be 9d 8d 3c 60 b8 b3 3d e4 5b aa bd
       0.0347857 0.017287131 0.08775401 -0.08318308
000070 e2 4a 14 3b bd d7 b1 bb 88 3d 32 3c 4f 1b 3a 3d
       0.0022627641 -0.0054273293 0.010878928 0.0454362
000080 7e d7 1f 3d e6 20 52 3c 92 65 89 3d fe ef 06 bc
       0.03902387 0.012825226 0.06708826 -0.0082359295
000090 f7 c1 bf bc 39 0f 52 3c ca b3 2e 3d 9c 18 de 3d
       -0.02340792 0.012821012 0.04265193 0.108445376
0000a0 b6 dc c7 bd e2 0c 41 3d 95 0a 54 bd 07 db 35 bc
       -0.09758894 0.047131427 -0.051767904 -0.0110995835
0000b0 10 bc 64 bc b9 82 4b bd 05 79 99 3d 2b b3 a6 3c
       -0.013960853 -0.049685214 0.07493786 0.020349106
0000c0 ea 56 5b bd 44 b0 94 3d 92 c7 7b 3c 36 dd 16 bd
       -0.053549685 0.072601825 0.0153674055 -0.036832057
0000d0 33 3f be bc d9 9e 25 bc 05 5d e9 bc f2 f5 47 3d
       -0.023223495 -0.010108673 -0.028486738 0.048818536
0000e0 05 d7 00 3d e9 c6 0b 3b 16 67 2e 3d ae 0d cc 3c
       0.03145506 0.0021328276 0.04257878 0.024908867
0000f0 76 97 55 3b 5e b9 1a bd c2 68 c3 3d 57 a9 db 3c
       0.0032591498 -0.037774436 0.09541465 0.026814146

bn3.weight f4 [64]
000000 6a d0 18 40 d6 d2 f3 3f 68 5e ec 3f d4 b4 ff 3f
       2.3877206 1.9048717 1.846631 1.9977059
000010 30 fa 1a 40 67 07 de 3f 8d ba f5 3f 56 39 ef 3f
       2.4215202 1.7346009 1.9197556 1.8689373
000020 17 ef 12 40 ea 3a 0b 40 5b 28 f3 3f c6 e3 12 40
       2.295843 2.1754708 1.899669 2.2951522
000030 36 11 0e 40 66 c9 f3 3f 90 d4 16 40 19 d3 21 40
       2.2198005 1.9045837 2.3567238 2.5285094
000040 56 cd 1b 40 da 5f 11 40 eb d2 f4 3f 32 06 29 40
       2.4344077 2.2714753 1.9126867 2.6410031
000050 1a 7d 21 40 5f ad 19 40 81 6d 22 40 b5 5e 27 40
       2.5232606 2.4012067 2.5379336 2.6151555
000060 fd 96 13 40 83 53 ea 3f f4 4d fa 3f d3 90 03 40
       2.3060906 1.8306736 1.955504 2.0557144
000070 60 94 f3 3f bf 5c 0a 40 86 06 25 40 4e d1 02 40
       1.9029655 2.1619108 2.5785232 2.044025
000080 8a 62 0c 40 48 f5 09 40 24 df 0a 40 d4 66 23 40
       2.1935143 2.1555958 2.1698694 2.5531511
000090 bd 14 ec 3f 04 fb 24 40 a6 92 00 40 a3 29 15 40
       1.8443829 2.5778208 2.0089507 2.3306663
0000a0 ab 9d 06 40 09 ec 1b 40 90 50 15 40 53 1d 12 40
       2.1033733 2.4362814 2.3330421 2.2830398
0000b0 ac ee df 3f eb 0d 13 40 cd a2 f5 3f 51 cd 02 40
       1.7494712 2.2977245 1.9190308 2.0437815
0000c0 a8 93 0f 40 53 83 1c 40 b4 96 00 40 c2 ff 08 40
       2.2433872 2.4455154 2.0091982 2.1406102
0000d0 04 ce ff 3f c6 a0 1e 40 f9 e2 de 3f cd 11 10 40
       1.9984746 2.4785628 1.7413017 2.2510865
0000e0 bb 9d 18 40 ac 69 08 40 59 d8 35 40 31 0d 33 40
       2.384627 2.1314497 2.8413298 2.7976801
0000f0 53 13 0f 40 41 29 07 40 8c 38 f3 3f c3 55 f7 3f
       2.2355545 2.111893 1.9001632 1.9323047

bn3.bias f4 [64]
000000 6f 31 06 3f a1 1d a3 3e e5 8e 9f 3e 00 7e 80 3e
       0.5241918 0.31858543 0.31163707 0.2509613
000010 71 58 b8 3e e8 66 9c 3e 5e 23 b4 3e 50 4e d6 3e
       0.36004975 0.3054726 0.35183233 0.41856623
000020 03 e4 db 3e 1e 8b ff 3e 86 0a e0 3e 0b db f3 3e
       0.42947397 0.49910825 0.4375803 0.47628054
000030 63 9e b7 3e a7 e3 9b 3e 53 b1 ac 3e d2 aa 07 3f
       0.35863027 0.30447122 0.33729038 0.52995026
000040 10 10 70 3e 84 68 9b 3e 79 75 96 3e 77 ee 0c 3f
       0.23443627 0.30353177 0.293865 0.5505137
000050 6d c1 c6 3e 76 39 f7 3e fe a7 b6 3e 9c d2 2b 3f
       0.38819447 0.48286027 0.35675043 0.6711824
000060 e4 2d fc 3e 8e e1 ac 3e 41 f7 e1 3e 6d 80 3d 3e
       0.49253762 0.33765835 0.44133952 0.18506022
000070 75 2c 9a 3e 4c bd 5f 3e 91 1c e8 3e 15 02 24 3f
       0.30112043 0.21849555 0.45334294 0.64065677
000080 51 2e 15 3f 31 11 ca 3e e5 aa eb 3e 09 bc 01 3f
       0.582738 0.3946624 0.4602882 0.50677544
000090 f8 c1 ba 3e 5e ba a4 3e 2a bb 21 3e ff 07 1a 3f
       0.3647611 0.32173437 0.15794054 0.6016845
0000a0 97 3d 13 3f ab af b6 3e 22 f5 a4 3e 82 13 11 3f
       0.57515854 0.356809 0.32218271 0.5667039
0000b0 16 07 a9 3e d8 2f 0f 3f ad 42 65 3e 26 0e d5 3e
       0.3301322 0.5593238 0.22388716 0.41612357
0000c0 ae 1f d7 3e 2d af 13 3f 24 a8 39 3e 81 48 26 3f
       0.42016357 0.5768917 0.18130547 0.6495438
0000d0 ec 0f 49 3e 83 eb b0 3e 4b bd a7 3e e0 67 e2 3e
       0.1963498 0.3455468 0.32761607 0.44219875
0000e0 b3 46 29 3f 76 b6 b8 3e a7 36 0e 3f 3d 05 ae 3e
       0.66123503 0.36076707 0.5555214 0.33988371
0000f0 be 08 db 3e 48 41 cd 3e 20 b9 c3 3e 11 15 5a 3e
       0.42780107 0.40088868 0.38227177 0.21297099

bn3.running_mean f4 [64]
000000 f0 ae c5 3f ef 97 92 bf 5a f7 80 bf ef 39 90 bf
       1.5444012 -1.1452616 -1.0075486 -1.126768
000010 38 5e 22 bf b4 a9 66 bf 3e c6 a0 3d 79 ff 95 3e
       -0.63425016 -0.90102696 0.07850312 0.29296473
000020 07 48 ab bf 17 01 a6 bf 8a 5c 6d 3f ae a4 3f 3f
       -1.3381356 -1.2969083 0.9271933 0.74860656
000030 86 8e 11 bf 4a 0a c2 bf 48 d0 3e bf 50 92 2d 3f
       -0.568581 -1.515939 -0.7453656 0.6780138
000040 f8 52 ba 3d 7c 1d 98 bf ce d4 96 be 1f c8 c2 3d
       0.09097856 -1.1883998 -0.29459232 0.09510826
000050 aa 80 bb 3d 34 4a eb be f5 24 01 be 09 5a 2e 3f
       0.091554 -0.4595505 -0.12611754 0.6810613
000060 9a 36 6e be 78 0a c5 bd 95 b2 06 c0 cb 71 8d bf
       -0.23263016 -0.096211374 -2.1046498 -1.1050352
000070 b9 19 9d be ed 13 e9 be 8e 6e e0 3e ac 2f 91 bf
       -0.30683687 -0.45523015 0.43834347 -1.1342673
000080 7f 68 e6 3e 3d ce 8c bf 1f 4b 0f bf 72 21 46 bf
       0.450016 -1.1000439 -0.55974 -0.77394783
000090 f7 46 9a bf b5 4b 0f be b0 82 77 bd ab ae f2 3d
       -1.2052907 -0.13993724 -0.060427368 0.118497215
0000a0 e3 86 8b bf 41 25 37 bf 51 fa b7 bf ac e7 d3 bf
       -1.0900539 -0.7154122 -1.4373266 -1.6555076
0000b0 8b 93 14 bf 63 01 ed 3e 81 cb df 3c 8a 50 53 bf
       -0.5803763 0.4629012 0.027318718 -0.8254477
0000c0 70 78 8e bf 3d 48 e5 bc ad eb da be b7 1e b2 3f
       -1.1130505 -0.027988547 -0.4275793 1.3915623
0000d0 7d d4 a9 3e 51 2b 87 bf c2 26 eb bf 36 74 59 bf
       0.33169928 -1.0560094 -1.8371203 -0.8494295
0000e0 cc 5d dd bd d1 c0 48 3f 53 64 6a bf 74 af 94 3d
       -0.10808906 0.78419214 -0.9155933 0.072600275
0000f0 7b 38 20 bf be 69 7d bf 3f d2 ce bf 32 ad c0 be
       -0.6258618 -0.98989475 -1.6157912 -0.37632138

bn3.running_var f4 [64]
000000 9b 6f 42 40 a2 86 f1 3f 7c f3 1a 40 79 53 09 40
       3.0380619 1.8869212 2.421111 2.1457198
000010 09 4e c3 3f 21 a1 f8 3f 32 d2 c8 3f a7 d4 27 40
       1.525819 1.9424173 1.5689147 2.6223543
000020 3a 17 f6 3f fe dc e1 3f e4 e4 08 40 c6 7f fa 3f
       1.9225838 1.7645566 2.1389704 1.9570243
000030 50 fd 01 40 7a 3a 01 40 61 ff 3a 40 f6 6f fe 3f
       2.031086 2.0191941 2.921837 1.9877918
000040 a0 a8 ff 3f 1f f0 95 3f e5 90 db 3f fb 1d 0e 40
       1.9973335 1.1713904 1.7153593 2.2205799
000050 00 a4 f6 3f 3f f3 af 3f fe 99 07 40 86 28 3a 40
       1.9268799 1.3746108 2.118774 2.9087234
000060 77 a7 ec 3f 33 5d 0e 40 c7 2c 0b 40 1b dd ee 3f
       1.8488606 2.2244384 2.174608 1.8661226
000070 ae d3 d1 3f cb 10 d0 3f c4 8a 38 40 a0 55 11 40
       1.6392725 1.6255125 2.8834696 2.2708511
000080 0d 5c 00 40 24 aa c3 3f 6d 6a 0a 40 02 68 f9 3f
       2.0056183 1.5286298 2.1627457 1.9484866
000090 88 22 08 40 dd 03 04 40 69 41 dc 3f 88 a7 10 40
       2.1271076 2.0627358 1.7207462 2.2602253
0000a0 eb 8e 08 40 49 62 fa 3f 4d 8b dc 3f 28 98 ee 3f
       2.133723 1.9561244 1.7230011 1.8640184
0000b0 97 72 fc 3f e6 f7 12 40 d9 aa cd 3f 1d 2e 42 40
       1.972247 2.2963805 1.6067764 3.0340645
0000c0 e3 5b 8f 40 b7 6c 99 3f ea 4c ed 3f 38 6e 15 40
       4.4799666 1.1986302 1.8539097 2.3348522
0000d0 68 f5 ec 3f 44 d4 af 3f bd 56 d9 3f a0 25 de 3f
       1.8512392 1.3736653 1.6979595 1.7355232
0000e0 ca b7 65 40 a3 a0 ae 3f 94 3c 58 40 2f 99 e9 3f
       3.5893426 1.3642772 3.3786974 1.8249873
0000f0 e9 b1 16 40 10 da 2d 40 ed 5d d0 3f 20 b7 fd 3f
       2.3546088 2.7164345 1.6278664 1.982151

fc.weight f4 [9, 64]
000000 86 2c e8 be 0b 97 00 bf 34 f3 b1 be bc db d0 be
       -0.4534647 -0.50230473 -0.34755862 -0.40792644
000010 82 b3 a6 be 3e b7 e0 be 3d 79 c7 3d ce 2a 2d 3f
       -0.3255883 -0.43889803 0.09739921 0.6764344
000020 15 db 2d 3f 1c fe 4b 3f 01 98 c9 bd 8f 28 1a 3e
       0.6791242 0.79684615 -0.098434456 0.15054534
000030 26 73 69 be 8f 37 c6 3d 31 d1 ce be 04 a1 1a bf
       -0.22797832 0.09678566 -0.40393975 -0.6040194
000040 14 2d b8 be 81 65 11 be 21 c1 21 bd a2 c7 8b bf
       -0.35971892 -0.14198877 -0.039490823 -1.0920298
000050 de b4 94 bf eb a2 a5 3e 84 9e 9c bf e1 63 91 bf
       -1.1617696 0.3235086 -1.2235875 -1.1358606
000060 fd 75 17 3f 92 0b 2e 3f a1 34 bf 3e d8 4e dc bc
       0.5916441 0.67986405 0.3734484 -0.026893064
000070 de 94 92 3e 2b f5 cb bd 28 b1 ab bf 38 13 9b 3e
       0.28629202 -0.099588715 -1.3413439 0.302881
000080 20 7e ef 3e a7 12 0a 3f dc e3 25 3f 69 1f a1 3e
       0.46775913 0.5393471 0.6480081 0.31469277
000090 c2 92 90 3e 8b 74 06 bf 50 8c bb bc a7 99 d1 3e
       0.28236967 -0.5252158 -0.022894055 0.4093754
0000a0 40 c1 29 3d 7e c7 f4 bd 11 e8 a9 be 82 e7 73 3f
       0.041444063 -0.119521126 -0.33184865 0.9527513
0000b0 ae e8 c1 be 90 73 68 bf 80 b6 5f bf 30 e7 11 3f
       -0.37872833 -0.90801334 -0.8738785 0.5699339
0000c0 3e e3 9d bf b2 e2 95 3e 1f 95 c7 bd ee 6b 9f bd
       -1.2334974 0.29274517 -0.097452395 -0.07784258
0000d0 64 28 28 3e df 07 4d 3c 38 eb ad be 03 2f 36 bd
       0.16421658 0.012514084 -0.3396852 -0.044478428
0000e0 e9 62 7d 3e d4 19 49 3e e9 f7 b6 bf 76 53 e3 bd
       0.24744762 0.19638759 -1.4294406 -0.11099903
0000f0 ca 63 97 bf ec 66 bd be c7 2f df 3e 7a 04 fc be
       -1.1827328 -0.36992586 0.4359114 -0.49222165
000100 ab fc 84 bc 08 52 c6 be 67 27 c9 3e c1 ce 39 3f
       -0.016233763 -0.3873446 0.39287874 0.72581106
000110 bc 54 4e 3e e7 3b 18 bd 46 e9 86 be 9a e3 42 bd
       0.20149511 -0.037166502 -0.26349849 -0.04758034
000120 a9 73 87 be 5f 20 e6 bd 66 f1 28 bf d9 82 98 3e
       -0.2645543 -0.11236643 -0.65993345 0.2978733
000130 cd 5a cc 3e 77 8c 12 3f 89 94 15 bf 3e 0b df bc
       0.39913025 0.5724558 -0.5842977 -0.02722704
000140 61 b0 0d 3f 64 63 74 bd 7f 8e 3d bf 0b a8 05 3e
       0.5534726 -0.0596651 -0.74045557 0.13052385
000150 09 1a 8b 3e b6 6d a1 3c 9c 93 51 3e bf 05 eb 3d
       0.271683 0.019705635 0.20466465 0.11475705
000160 c0 4a e0 3d 58 cb 0e 3f df c0 58 bf 69 d5 48 3f
       0.109517574 0.5577903 -0.846693 0.7845064
000170 94 55 f0 be dc 47 32 3f 58 16 77 3d c2 f4 0e bf
       -0.4694029 0.696409 0.060324043 -0.5584222
000180 39 21 7f bc 1b d7 13 bf b9 ce ba bc ba 40 f4 3c
       -0.015571886 -0.577501 -0.022803651 0.02981602
000190 79 c2 f1 3e d4 75 d5 3e 27 f4 36 3f b2 2f 73 3d
       0.47218683 0.41691458 0.71466297 0.059371658
0001a0 bf fc 49 bf af 0f 9e 3e da 1f cb 3e 4a 63 0f 3d
       -0.78901285 0.3087134 0.39672738 0.0350068
0001b0 d8 b5 2f bf 3f 0b 3d 3d 73 46 fe be a6 33 08 3f
       -0.68636847 0.046153303 -0.49663123 0.5320381
0001c0 75 3d c4 3e d1 d9 51 be 29 a3 3e 3f db c5 66 bf
       0.38328138 -0.20493247 0.7446771 -0.90145653
0001d0 9a 4d 3b 3f 4c 03 21 bf d3 6d cc bd 35 47 69 bf
       0.73165286 -0.62895656 -0.09981885 -0.9112428
0001e0 39 64 6e bf e0 51 37 be 2e ab 65 3e 9c 75 92 3e
       -0.9312168 -0.17902327 0.22428581 0.28605354
0001f0 d4 a8 c0 3d 7c 0d 39 bf 86 2c 33 bf f1 07 22 3f
       0.094072014 -0.722862 -0.6998981 0.6329337
000200 99 e4 f5 be 1b dc ef 3e 20 7c 54 be 1e 50 a6 3e
       -0.4802597 0.46847615 -0.20750475 0.32483
000210 c9 0a 05 3f 03 a0 ed bc 84 0c 3d be 8b c4 1d 3d
       0.5196958 -0.029006964 -0.18461806 0.038517516
000220 ab 3d 22 bf 7a 46 57 bf 24 02 76 be 38 50 8e 3e
       -0.6337535 -0.84091914 -0.24024254 0.27795577
000230 06 1d 5a bf 20 48 ac be 2f 5e 73 3e 9a b9 8f bf
       -0.85200536 -0.33648777 0.23766397 -1.1228516
000240 6c d9 03 bd fe 77 21 3f 4e 67 6e 3e ff 63 e5 be
       -0.03218977 0.6307372 0.23281595 -0.44802853
000250 23 7c 7d 3e a8 3f ca 3e c5 30 e3 3d 52 01 00 bf
       0.24754386 0.3950169 0.110932864 -0.50002015
000260 f5 3a cb 3e ce d0 7a bd 4b a4 18 be ae 94 53 3e
       0.39693418 -0.061234288 -0.14906423 0.20662186
000270 14 ed 92 be d8 b5 73 be a8 3a f4 bb e4 98 29 be
       -0.286965 -0.23799837 -0.0074532814 -0.1656223
000280 d3 87 a9 3d 4f 31 fb be 15 30 a4 3e 1f 3e 67 bf
       0.082778595 -0.49061057 0.32067934 -0.90329164
000290 a6 0f de bd af 9e f5 3e 56 b7 b1 3e dc 9f a2 bf
       -0.108428285 0.47972628 0.34710187 -1.2705035
0002a0 5c 79 64 3d ab 04 79 bf 39 b6 c5 3e 3f 0a 5a bf
       0.0557798 -0.9727275 0.38615587 -0.85171884
0002b0 95 7a 4a be 9b c7 40 bf 37 54 4d 3e 25 c8 0a bf
       -0.19773324 -0.75304574 0.20051657 -0.54211646
0002c0 d0 25 9c be b8 6d ae 3e 03 35 54 3e ac 23 1f be
       -0.304976 0.34068084 0.20723347 -0.15540951
0002d0 6d 67 51 3e 8e 08 01 3f 0c 5a a3 be b7 bf b6 3e
       0.2044961 0.5040368 -0.31904638 0.35693142
0002e0 44 10 0b bd f0 e5 d7 3e 0e e3 34 bc 8d 0e 0b 3f
       -0.03395106 0.42167616 -0.011040462 0.5431908
0002f0 b2 39 74 be 8d 55 de 3e 36 2b d7 be 19 5f 66 3e
       -0.23850134 0.43424645 -0.42025155 0.22497214
000300 3a d3 f7 3e 16 f2 25 bf b3 f4 5f bf 30 23 54 bf
       0.4840334 -0.6482252 -0.87482756 -0.8286619
000310 88 15 1c 3c 81 1a 47 bf bc 6f 26 be d9 e6 a3 3c
       0.009526618 -0.77774817 -0.16253561 0.020007538
000320 63 00 88 3e 70 66 29 bf 24 dc 5e be c2 f2 5a be
       0.26562795 -0.6617193 -0.21763664 -0.21381667
000330 92 8e 04 3f 86 47 1e 3e 7e 1a 96 3e 63 d0 47 3f
       0.51780045 0.15456972 0.29317087 0.7805235
000340 d9 b7 18 3f ba 8e 3c bf 62 a0 a4 3e 22 68 37 3f
       0.5965553 -0.73655283 0.32153612 0.7164327
000350 29 62 18 bf ee d0 01 bf 9b 39 1f bf ed f0 05 bf
       -0.5952478 -0.50709426 -0.62197274 -0.5232075
000360 d6 0a e5 be b1 22 48 be 39 77 21 be f0 c5 1e bf
       -0.4473483 -0.19544484 -0.15768136 -0.6202078
000370 96 91 0f be d4 dc 90 3e 7f 90 fa 3e 59 a4 11 bf
       -0.1402038 0.28293478 0.48938367 -0.568914
000380 56 8c f0 be 0b a0 fa 3d 87 47 01 bf 43 92 e7 3e
       -0.46982068 0.12237557 -0.5049977 0.45228776
000390 54 ce a1 be 42 d1 fa 3e 8a ba 42 be 79 d8 0a 3f
       -0.31602728 0.48987776 -0.19016472 0.5423656
0003a0 c8 5d 65 bf 82 46 24 3f 24 9a 4f bf a7 b8 3f bf
       -0.89596224 0.64170086 -0.81094575 -0.7489113
0003b0 cb 8d 12 3e f9 fb cd be ae 48 af 3e 6e de f4 be
       0.14311902 -0.40231302 0.34235138 -0.4782595
0003c0 a0 00 4c bf 98 e0 66 be 9a 3e 3a be d9 bd 8d 3e
       -0.79688454 -0.22546613 -0.18187943 0.27683905
0003d0 37 69 80 be 3a 04 a8 3e 7c 7a ea be 09 7d d0 3e
       -0.25080273 0.32815725 -0.45796573 0.40720394
0003e0 a7 df 62 3d a0 1f 11 3d fd 01 56 bf e4 7f b6 3e
       0.055389073 0.03543055 -0.83596784 0.35644448
0003f0 ec f8 36 bf 5d 8e 10 bf 8b 0e 56 bd b6 8d ea be
       -0.71473575 -0.5646723 -0.052259963 -0.45811242

fc.bias f4 [9]
000000 8e 86 df 3d b7 fe e7 bd 86 e4 e0 bd d5 21 1b bc
       0.10914336 -0.1132788 -0.109810874 -0.009468515
000010 aa 6d 99 be ed 47 3f 3d c6 12 93 3d cb 52 a7 3c
       -0.2996648 0.046699453 0.07181315 0.020425221
000020 91 d3 16 3e
       0.14729144
