experiments/Loukia/FPGSST/FPGSST_best.pth (torch, 917691 bytes, 64 tensors)

fpm.fc.0.weight f4 [64, 16]
-0.06578222 0.021204898 0.057181127 -0.14679544 -0.2784005 -0.13530247 0.07629814 -0.022691734
-0.16827908 -0.08137108 -0.37309176 -0.23313747 -0.30372435 0.0011514265 0.00082647335 0.012736633
0.09375639 0.026146596 0.3562428 0.14506397 -0.25020555 -0.18476626 -0.36775398 0.0146824345
-0.37810948 -0.011990783 0.0839571 0.032727703 -0.21822879 0.07877282 -0.045612376 -0.3472997
0.2470156 0.26318577 -0.15505478 0.24889615 -0.07818132 0.17179647 0.10021533 0.16747814
-0.25152776 -0.3435228 -0.11173693 -0.3410661 -0.24387151 -0.17972635 0.13180088 -0.068886995
0.29577377 0.2108703 0.100827925 -0.14485763 -0.012170094 0.28993133 0.190532 -0.01143789
-0.26534912 -0.17591612 0.007572073 -0.2890841 -0.17471606 -0.17046905 -0.07861909 0.10028861
-0.0042346464 -0.22079985 -0.054759476 0.28124496 0.15336785 -0.32779258 -0.043554947 0.24226072
-0.096434124 -0.19039164 -0.11098238 -0.40570158 0.10111808 -0.14394386 0.23158166 -0.29893893
-0.40635535 -0.30091372 -0.1244194 -0.51084155 -0.38680264 -0.28044245 0.081544295 -0.006921597
-0.19626492 0.18773276 0.1755356 -0.2923685 -0.3207581 -0.15954316 -0.15382996 -0.28562498
0.08478206 -0.11040699 0.14672123 -0.5173781 -0.025360232 0.081022345 -0.2758208 0.107611634
-0.2096713 -0.37313196 0.064195305 -0.35277876 -0.117113344 0.21737343 -0.025567733 0.25390762
0.19000438 -0.0481711 -0.3021482 0.36696795 0.1759773 -0.15471481 -0.03122839 0.44243327
-0.17442575 0.21307565 0.009665227 0.33473 0.5558233 0.28173777 -0.18552792 0.26313177
-0.16579565 -0.2219792 -0.02297647 -0.43037987 -0.23939292 -0.5626245 -0.3930786 -0.51911116
-0.45539963 -0.44279253 -0.37339455 -0.36465377 -0.4539015 -0.2418328 -0.42837197 -0.45747617
-0.14036238 -0.160599 0.1016972 -0.17490718 0.1195065 -0.16896221 -0.23070593 0.055648405
0.44455403 0.14852205 -0.12476808 0.33860046 0.16135687 -0.0022710462 -0.028624382 0.13972397
-0.4023 -0.15619366 0.078997746 -0.0684137 -0.33601645 -0.42101276 -0.20402545 0.40919462
-0.028988954 -0.10055685 0.040401727 0.025561523 0.09935611 0.38466012 -0.39085677 -0.16622782
0.18772115 -0.08223745 -0.12521951 0.23848467 0.19475573 -0.28742662 0.01501276 -0.12825757
-0.306182 0.017140545 -0.10859271 0.105126284 0.063309535 -0.10067193 -0.25741056 -0.20814136
-0.3304179 0.061296877 -0.22452724 0.14420067 -0.03934423 -0.23690061 0.035372663 -0.16573057
0.12329554 0.30407816 0.03337006 0.26173595 -0.6435326 -0.36319694 -0.118689805 -0.094236895
-0.48397443 -0.034049433 -0.14964676 -0.57005394 -0.36232167 -0.15935075 -0.063079014 -0.119555764
-0.18460561 0.16682902 0.09454372 0.28830144 -0.10220358 0.056077093 -0.23383723 -0.34306833
-0.023804244 -0.037156045 -0.079751804 0.37943727 -0.008053879 -0.51674134 0.26553687 0.03396108
-0.08445358 -0.36863947 -0.11426538 0.11560678 0.047508676 0.15613768 -0.10973563 -0.25549537
-0.47684875 -0.17617397 -0.1957942 -0.5386859 -0.15211438 -0.24648166 0.01125025 -0.36959484
-0.092648536 -0.1976789 -0.32521552 -0.38654935 -0.41395724 -0.1789104 -0.3841817 -0.3652372
00000000: d4b8 86bd e5b5 ad3c c236 6a3d 8b51 16be
00000010: 838a 8ebe bb8c 0abe 3342 9c3d 04e4 b9bc
00000020: 5a51 2cbe e1a5 a6bd e205 bfbe 97bb 6ebe
00000030: c281 9bbe 76eb 963a b0a7 583a 50ad 503c
00000040: 5a03 c03d 6331 d63c 7565 b63e a68b 143e
00000050: f11a 80be 5e33 3dbe 404a bcbe 988e 703c
00000060: 9197 c1be fd74 44bc b3f1 ab3d 7c0d 063d
00000070: 5e77 5fbe a553 a13d 0bd4 3abd 44d1 b1be
00000080: a8f1 7c3e 49c0 863e aec6 1ebe a2de 7e3e
00000090: 871d a0bd 6aeb 2f3e b23d cd3d 647f 2b3e
000000a0: 3fc8 80be 38e2 afbe 55d6 e4bd 37a0 aebe
000000b0: 74b9 79be 2f0a 38be cff6 063e a014 8dbd
000000c0: a96f 973e 62ee 573e df7e ce3d 8f55 14be
000000d0: 1365 47bc e171 943e d21a 433e fd65 3bbc
000000e0: d7db 87be 5b23 34be 271f f83b d502 94be
000000f0: c4e8 32be 708f 2ebe 0c03 a1bd 1d64 cd3d
00000100: cac2 8abb 5b19 62be 794b 60bd 57ff 8f3e
00000110: 760c 1d3e 6ed4 a7be ac66 32bd 3213 783e
00000120: 417f c5bd 07f6 42be bb4a e3bd 1eb8 cfbe
00000130: ff16 cf3d 0566 13be be23 6d3e 860e 99be
00000140: cf0d d0be 5d11 9abe 99cf febd 83c6 02bf
00000150: ff0a c6be 2796 8fbe b200 a73d 90ce e2bb
00000160: acf9 48be 043d 403e 9bbf 333e 53b1 95be
00000170: 683a a4be 485f 23be 9a85 1dbe 703d 92be
00000180: 37a2 ad3d 0f1d e2bd 173e 163e e472 04bf
00000190: 43c0 cfbc 0bef a53d 6238 8dbe 7d63 dc3d
000001a0: 13b4 56be 270b bfbe d478 833d 6b9f b4be
000001b0: 1fd9 efbd 2497 5e3e 6c73 d1bc 2e00 823e
000001c0: 8290 423e 0f4f 45bd 2bb3 9abe 39e3 bb3e
000001d0: 6533 343e 8f6d 1ebe aed2 ffbc 9d86 e23e
000001e0: aa9c 32be 8130 5a3e e65a 1e3c bb61 ab3e
000001f0: 704a 0e3f ef3f 903e 08fb 3dbe 35b9 863e
00000200: 56c6 29be 844e 63be 2639 bcbc c05a dcbe
00000210: 6b23 75be 2908 10bf 9941 c9be 78e4 04bf
00000220: 242a e9be b4b5 e2be 922d bfbe e6b3 babe
00000230: c765 e8be 04a3 77be 9253 dbbe 513a eabe
00000240: 28bb 0fbe 1074 24be 9f46 d03d de1a 33be
00000250: d3bf f43d 6e04 2dbe 2d3e 6cbe 95ef 633d
00000260: 969c e33e 2a16 183e 6886 ffbd 0a5d ad3e
00000270: bc3a 253e d5d5 14bb ae7d eabc cd13 0f3e
00000280: 44fa cdbe 3bf1 1fbe 92c9 a13d 7b1c 8cbd
00000290: 590a acbe fc8e d7be 0cec 50be f581 d13e
000002a0: 3e7a edbc c0f0 cdbd 487c 253d 6666 d13c
000002b0: 377b cb3d 2cf2 c43e 611e c8be a037 2abe
000002c0: f939 403e 1c6c a8bd 8b39 00be 5335 743e
000002d0: 0c6e 473e 9529 93be 14f8 753c f455 03be
000002e0: e3c3 9cbe 546a 8c3c db65 debd 734c d73d
000002f0: 6ea8 813d 162d cebd 51cb 83be 0223 55be
00000300: 892c a9be 6f12 7b3d 78ea 65be 57a9 133e
00000310: 6a27 21bd 1396 72be ede2 103d 46b5 29be
00000320: 5f82 fc3d 22b0 9b3e 0baf 083d 4102 863e
00000330: 8dbe 24bf f3f4 b9be a413 f3bd 46ff c0bd
00000340: 7fcb f7be 6b77 0bbd 003d 19be 0eef 11bf
00000350: 3a82 b9be d82c 23be 922f 81bd a7d9 f4bd
00000360: 4109 3dbe 3ad5 2a3e 23a0 c13d 3f9c 933e
00000370: 1c50 d1bd 18b1 653d 0773 6fbe a7a6 afbe
00000380: 1e01 c3bc f030 18bd ea54 a3bd 9a45 c23e
00000390: 6bf4 03bc 2949 04bf 73f4 873e c61a 0b3d
000003a0: 00f6 acbd 50be bcbe f803 eabd 3fc3 ec3d
000003b0: 7598 423d 8ee2 1f3e 13bd e0bd 4ad0 82be
000003c0: 8525 f4be f366 34be 467e 48be 52e7 09bf
000003d0: dfc3 1bbe b065 7cbe f852 383c 893b bdbe
000003e0: 84be bdbd 566c 4abe a682 a6be cce9 c5be
000003f0: 34f2 d3be 4a34 37be 77b3 c4be 5f00 bbbe

fpm.fc.0.bias f4 [64]
-0.08057287 -0.1497547 0.17224109 0.056136604 0.35144454 -0.21859217 -0.22194012 -0.094071165
0.11209066 0.15624785 -0.10198888 0.28679618 0.055778217 -0.3257831 0.2776247 -0.18982445
0.1058424 -0.05995723 0.06823444 -0.01007777 -0.008714451 -0.14454532 -0.11069484 0.054387197
-0.0012812082 0.006600308 0.0635363 0.041458275 -0.10995056 -0.0639888 0.06891312 -0.15165621
-0.32803884 0.13898864 0.20930168 0.26200506 0.10630264 -0.21931379 -0.19650836 -0.020626673
0.14167528 0.05309051 -0.3065227 0.26823038 -0.024995185 -0.033455584 -0.10379397 -0.009793434
0.003420592 -0.28248054 0.0077482737 -0.13908413 -0.31558415 -0.021560917 0.08849419 -0.07366697
-0.03918788 0.19419041 -0.22775236 -0.2787373 0.16138645 0.38305163 -0.09375878 -0.17956688
00000000: 6403 a5bd 4c59 19be f85f 303e 7fef 653d
00000010: 8af0 b33e a0d6 5fbe 4544 63be 62a8 c0bd
00000020: ca8f e53d 70ff 1f3e 8cdf d0bd f3d6 923e
00000030: b377 643d 0bcd a6be d324 8e3e 5761 42be
00000040: e6c3 d83d b695 75bd 80be 8b3d 3b1d 25bc
00000050: 0fc7 0ebc b003 14be fab3 e2bd 1cc5 5e3d
00000060: 37ee a7ba 6647 d83b 521f 823d 27d0 293d
00000070: c22d e1bd 8f0c 83bd 5222 8d3d c44b 1bbe
00000080: b5f4 a7be 0a53 0e3e 2e53 563e 8725 863e
00000090: 33b5 d93d cb93 60be 7d39 49be 45f9 a8bc
000000a0: 5313 113e 6f75 593d 8bf0 9cbe 7e55 893e
000000b0: b4c2 ccbc b908 09bd ef91 d4bd a474 20bc
000000c0: 032c 603b 4aa1 90be 3be5 fd3b 126c 0ebe
000000d0: 3f94 a1be 85a0 b0bc 713c b53d b5de 96bd
000000e0: 7883 20bd dad9 463e ea37 69be a8b6 8ebe
000000f0: 7d42 253e 581f c43e 9a04 c0bd 61e0 37be

fpm.fc.2.weight f4 [64, 64]
-0.08408914 0.11471643 0.37048465 0.0444259 0.33525598 0.12744127 0.09896304 -0.02059905
-0.15409003 0.016842866 0.0030713365 0.342275 0.011981246 0.06929401 0.29088563 -0.09588172
0.0036256951 -0.10789341 0.3090355 0.014317036 -0.048383087 0.02327256 -0.15156136 0.05752099
-0.068137854 0.16057612 0.034399804 0.07075605 0.036003415 0.036280926 0.22817388 -0.25572917
0.0539085 0.25018388 0.20421149 -0.012227095 0.13831556 0.14754517 0.12112906 -0.21234323
-0.024328556 0.22908695 0.10061661 -0.022922385 -0.10751775 -0.06730611 -0.06101376 0.0006496777
-0.093310066 0.11547003 0.3026881 -0.11155957 -0.03273807 -0.14619598 0.054690585 0.23320511
0.030988805 0.21764942 -0.10715053 -0.20116338 0.028915077 0.3255517 0.09792876 -0.1853897
-0.0044774204 0.035788782 -0.028546229 -0.06932154 -0.030637912 -0.12604536 -0.12438502 0.11850039
-0.097230196 -0.06840566 -0.2470521 0.07664151 0.07569905 0.14165998 0.048036773 -0.197618
-0.049869373 0.08997391 0.09757228 -0.04874003 0.15530246 0.10392114 -0.036164742 0.26529983
-0.014785829 -0.15837377 0.15765148 -0.08945285 0.100788146 -0.0596957 0.14420195 -0.00308988
-0.07281481 -0.13048951 0.16203167 -0.21822216 -0.14333385 -0.08708843 0.12381081 -0.17803502
0.034624558 0.055393543 -0.13084684 -0.08807837 0.27439728 -0.11054654 -0.20990804 0.02495475
0.0046067713 0.05771372 0.122347474 0.095415734 -0.09604643 -0.18070571 -0.053920534 0.14958335
0.0004545007 0.055494055 -0.019500984 -0.2086822 -0.14702503 0.0519362 0.077047646 -0.15800749
0.25650793 0.028429607 -0.034528647 0.20053639 0.049301066 0.0015288945 0.21809776 -0.14627954
0.2117205 0.14514989 -0.004068636 0.17845719 0.02588046 -0.1331443 -0.09780763 0.13335852
-0.00023221532 -0.0030736343 0.053906966 -0.068391785 -0.05011235 0.096640676 0.3585388 -0.08478879
0.13197647 0.06786558 0.07839424 0.0038822412 0.13131468 0.109867856 -0.16737507 0.134235
0.021385528 -0.023063306 -0.003417381 -0.33641547 0.0045430963 -0.10946918 0.06497693 0.14596725
0.02097174 0.003768483 -0.018124357 -0.25635013 -0.07511684 -0.06490645 0.09849675 0.10283241
0.18922506 -0.018023165 -0.02114176 0.40802774 0.019293126 0.091864035 -0.008634845 -0.105032496
0.073061 0.14973567 0.018190159 0.17075157 0.0976905 -0.08494796 -0.07392887 0.06633239
-0.03157132 -0.06301235 -0.19248587 -0.09084062 -0.0744366 -0.04428911 -0.087548874 -0.038201485
-0.04612226 -0.06926947 -0.15433647 -0.076476455 0.10858266 -0.088641934 -0.20657301 -0.021783154
-0.04329777 0.041502036 -0.1837684 0.016538348 0.07823164 -0.00018650992 -0.04739194 -0.057123836
-0.03291771 0.08409308 -0.03189586 -0.13987972 0.03477176 0.08266324 -0.06904832 0.0047142752
-0.06346293 0.09851189 -0.15105948 -0.017134722 -0.07066352 -0.059422977 0.03603423 -0.02041195
-0.12660515 -0.07358575 -0.052209456 0.054794196 0.032167386 -0.061079506 0.015114299 -0.067927666
0.022792036 -0.021840548 0.025910899 -0.09184526 -0.12457215 0.03169171 -0.12539989 -0.15340075
-0.0106719965 -0.13383918 -0.05176322 0.017548954 -0.12722991 -0.25304544 -0.036111504 -0.071846336
00000000: ed36 acbd 73f0 ea3d 2ab0 bd3e eff7 353d
00000010: aca6 ab3e f77f 023e 22ad ca3d 57bf a8bc
00000020: c7c9 1dbe 0dfa 893c 7a48 493b ab3e af3e
00000030: fd4c 443c 05ea 8d3d f6ee 943e a35d c4bd
00000040: 129d 6d3b 38f7 dcbd e739 9e3e 0092 6a3c
00000050: 582d 46bd 19a6 be3c e732 1bbe 219b 6b3d
00000060: dc8b 8bbd 116e 243e cfe6 0c3d 8ce8 903d
00000070: 5178 133d 4f9b 143d 6aa6 693e efee 82be
00000080: 29cf 5c3d 1a18 803e d11c 513e 2754 48bc
00000090: 98a2 0d3e 1516 173e 8312 f83d 8170 59be
000000a0: ae4c c7bc c595 6a3e 1510 ce3d bac7 bbbc
000000b0: 4432 dcbd c9d7 89bd 90e9 79bd 224f 2a3a
000000c0: 5919 bfbd 8d7b ec3d eff9 9a3e 5879 e4bd
000000d0: 5b18 06bd 66b4 15be 3c03 603d 52cd 6e3e
000000e0: 3cdc fd3c 7ddf 5e3e bd71 dbbd c6fd 4dbe
000000f0: 50df ec3c b6ae a63e e08e c83d ccd6 3dbe
00000100: 53b7 92bb 4297 123d c8d9 e9bc 74f8 8dbd
00000110: 5cfc fabc 0912 01be 93bd febd 55b0 f23d
00000120: a020 c7bd 4418 8cbd 3afb 7cbe 39f6 9c3d
00000130: 1b08 9b3d 500f 113e 35c2 443d 5f5c 4abe
00000140: d443 4cbd 3e44 b83d fad3 c73d a0a3 47bd
00000150: 9c07 1f3e 9bd4 d43d 7b21 14bd 61d5 873e
00000160: 4340 72bc bc2c 22be 646f 213e 0e33 b7bd
00000170: 046a ce3d 7a83 74bd ada9 133e 967f 4abb
00000180: ee1f 95bd 0b9f 05be a1eb 253e a175 5fbe
00000190: 1cc6 12be 6b5b b2bd 8690 fd3d d04e 36be
000001a0: 7bd2 0d3d 57e4 623d b7fc 05be 6f62 b4bd
000001b0: cd7d 8c3e 3966 e2bd 22f2 56be e76d cc3c
000001c0: 66f4 963b 3965 6c3d 5091 fa3d 5369 c33d
000001d0: feb3 c4bd eb0a 39be c7db 5cbd 612c 193e
000001e0: 0d4a ee39 bc4d 633d 87c0 9fbc c9b0 55be
000001f0: bb8d 16be 0ebb 543d 28cb 9d3d b7cc 21be
00000200: 0255 833e 35e5 e83c e96d 0dbd 6959 4d3e
00000210: eaef 493d 3065 c83a 0555 5f3e 4eca 15be
00000220: 42cd 583e 2ca2 143e 3152 85bb 7bbd 363e
00000230: 4203 d43c fb56 08be 5e4f c8bd 238f 083e
00000240: d37e 73b9 076f 49bb 8dcd 5c3d fe10 8cbd
00000250: 9c42 4dbd 8ceb c53d 6692 b73e bfa5 adbd
00000260: d724 073e 1cfd 8a3d 298d a03d 336d 7e3b
00000270: 5b77 063e 6602 e13d 5f64 2bbe e674 093e
00000280: b430 af3c 42ef bcbc 24f6 5fbb a63e acbe
00000290: 41de 943b 6131 e0bd a012 853d 7078 153e
000002a0: edcc ab3c a7f8 763b 8879 94bc 5340 83be
000002b0: dcd6 99bd aced 84bd aab8 c93d cc99 d23d
000002c0: 37c4 413e 51a5 93bc 7c31 adbc 03e9 d03e
000002d0: 9e0c 9e3c 3623 bc3d 2a79 0dbc 471b d7bd
000002e0: 01a1 953d 4f54 193e 8703 953c 80d9 2e3e
000002f0: f511 c83d 32f9 adbd 0568 97bd 47d9 873d
00000300: ee50 01bd 9e0c 81bd 041b 45be a60a babd
00000310: 3772 98bd 7f68 35bd d34c b3bd 2979 1cbd
00000320: b2ea 3cbd 27dd 8dbd 610a 1ebe b09f 9cbd
00000330: 9660 de3d e789 b5bd e087 53be 9672 b2bc
00000340: 0159 31bd 0afe 293d c92d 3cbe 6e7b 873c
00000350: e937 a03d e091 43b9 0d1e 42bd affa 69bd
00000360: b8d4 06bd fe38 ac3d 3ca5 02bd a13c 0fbe
00000370: d56c 0e3d 584b a93d 3569 8dbd 357a 9a3b
00000380: daf8 81bd 9ac0 c93d 56af 1abe 1e5e 8cbc
00000390: 09b8 90bd 8265 73bd a198 133d f636 a7bc
000003a0: c8a4 01be 20b4 96bd 95d9 55bd e16f 603d
000003b0: f3c1 033d 812e 7abd f7a1 773c a91d 8bbd
000003c0: 5db6 ba3c f3ea b2bc 1843 d43c 5e19 bcbd
000003d0: af1f ffbd 2bcf 013d d468 00be 1615 1dbe
000003e0: 99d9 2ebc 230d 09be ac05 54bd d3c2 8f3c
000003f0: 8f48 02be 2c8f 81be a8e9 13bd 2c24 93bd

fpm.fc.2.bias f4 [64]
-0.05051962 -0.07430752 0.0024960474 -0.056521714 0.13836668 -0.08941456 0.11459539 -0.09710717
0.056863334 -0.039785784 -0.010946191 -0.115394026 0.015025298 0.1041075 -0.14480561 0.13208538
-0.0456629 -0.11924245 0.06905779 -0.07465893 -0.02825685 -0.04657548 -0.11405105 0.0070964773
0.018987812 -0.06006827 -0.035568412 0.07088426 -0.11477938 -0.022681147 0.0071813134 0.10453852
0.15286732 -0.00068008556 -0.108228706 0.051128924 -0.12076098 0.09203101 0.048122317 -0.08303029
0.114659294 -0.07599661 0.016558537 0.029136557 0.114469156 -0.026210072 -0.12597403 -0.102609105
-0.06978346 -0.039951425 -0.11455205 0.08326992 -0.12766258 0.098735414 -0.122443356 -0.13830337
-0.0068757017 0.009267952 0.026531084 -0.06333566 -0.1330845 0.07797608 -0.10385516 -0.117462784
00000000: a9ed 4ebd 8b2e 98bd ba94 233b 5083 67bd
00000010: ffaf 0d3e fb1e b7bd fdb0 ea3d 20e0 c6bd
00000020: 87e9 683d 6bf6 22bd a757 33bc b453 ecbd
00000030: ab2c 763c 5036 d53d ec47 14be 6441 073e
00000040: 0509 3bbd 6335 f4bd 2c6e 8d3d c8e6 98bd
00000050: e97a e7bc eec5 3ebd 9993 e9bd 9189 e83b
00000060: 548c 9b3c 250a 76bd 2fb0 11bd c42b 913d
00000070: 7411 ebbd d0cd b9bc 3951 eb3b 4b18 d63d
00000080: 4089 1c3e c547 32ba 03a7 ddbd 906c 513d
00000090: 8851 f7bd c17a bc3d e81b 453d c90b aabd
000000a0: 7ed2 ea3d 1ca4 9bbd c5a5 873c caaf ee3c
000000b0: ce6e ea3d 81b6 d6bc 56ff 00be b924 d2bd
000000c0: a1ea 8ebd 1ba4 23bd 449a eabd 6b89 aa3d
000000d0: fbb9 02be cb35 ca3d 95c3 fabd 669f 0dbe
000000e0: 914d e1bb 9cd8 173c b757 d93c 20b6 81bd
000000f0: 4e47 08be ecb1 9f3d 04b2 d4bd 5490 f0bd

speformer.spec_proj.weight f4 [64, 1]
-0.30557957 -0.4243053 -0.21809535 -1.0567604 0.533608 -0.068006225 0.09647649 -0.22083615
-0.9651882 -1.0929677 -0.7679426 -0.2943428 -0.14330791 1.0393689 -0.6614967 0.052615978
1.0291735 -0.3916882 -0.010510966 -0.77345634 -0.43546903 -1.0110763 -1.0569075 -1.0422634
-0.9388668 0.56195575 0.7441143 0.00039891 0.26261568 -0.93214405 0.50214314 0.3955752
0.18401504 -0.23591961 -0.7261379 0.39537102 0.68985176 0.35262403 0.58443815 0.82186466
0.8264987 -1.0841388 0.5587554 0.5797134 0.61625826 -0.115556 0.8267169 -0.05350201
-0.72898173 -0.74290293 -0.0775153 0.70370466 -0.98259777 0.84051317 0.47285262 0.26522255
1.0791848 0.83287805 -1.0371863 -0.24601118 0.9193827 -0.9734758 0.51593906 -0.028893167
00000000: ed74 9cbe 8b3e d9be 6354 5fbe ed43 87bf
00000010: 899a 083f d946 8bbd 7795 c53d df22 62be
00000020: 9316 77bf 5ee6 8bbf e397 44bf 19b4 96be
00000030: 4fbf 12be 0a0a 853f d957 29bf da83 573d
00000040: f5bb 833f 5b8b c8be 3036 2cbc 3c01 46bf
00000050: ccf5 debe f36a 81bf bf48 87bf e368 85bf
00000060: 9359 70bf 55dc 0f3f 467e 3e3f cb24 d139
00000070: 9075 863e fea0 6ebf 748c 003f d588 ca3e
00000080: 706e 3c3e e994 71be 2ce4 39bf 126e ca3e
00000090: 209a 303f 238b b43e bd9d 153f b965 523f
000000a0: 6b95 533f 0fc5 8abf 980a 0f3f 1968 143f
000000b0: 1ac3 1d3f a0a8 ecbd b8a3 533f ec24 5bbd
000000c0: 8c9e 3abf e32e 3ebf 57c0 9ebd fd25 343f
000000d0: 878b 7bbf df2b 573f bd19 f23e 40cb 873e
000000e0: ba22 8a3f 7f37 553f 85c2 84bf 5bea 7bbe
000000f0: aa5c 6b3f b635 79bf 9514 043f 5db1 ecbc

speformer.spec_proj.bias f4 [64]
-0.3342863 0.033539414 0.05127608 -0.470288 -0.5290126 0.12679286 -0.91293734 0.028724538
-0.5234454 -0.52125853 -0.28523645 0.07758888 0.07483226 -0.013381642 -0.59422934 0.58892167
-0.264027 -0.5386933 -0.41926807 0.95331126 -0.8516885 0.39585596 -0.45978758 -0.652853
-0.38715675 -0.199305 -0.45415756 -0.0069774687 -0.722975 -0.5985986 0.091524825 -0.7654534
0.015147843 -0.75926113 0.19694972 0.73307997 0.23989935 -0.71927464 0.27695057 0.8955141
-0.4953909 0.5389797 -0.19815691 -0.62566626 0.10903903 -0.023070667 0.80201143 0.058626723
-0.00972505 0.6600164 -0.45698753 0.6292306 0.19186798 0.7932703 -0.13243762 -0.8260851
-0.8373754 -0.031521216 0.49913993 0.30980903 0.10142393 -0.1640115 -0.6868332 -0.7983734
00000000: 9327 abbe a060 093d de06 523d 97c9 f0be
00000010: 5f6d 07bf fdd5 013e 43b6 69bf b94f eb3c
00000020: 8500 06bf 3371 05bf 830a 92be ebe6 9e3d
00000030: a841 993d ad3e 5bbc 6a1f 18bf 92c3 163f
00000040: 8c2e 87be cee7 09bf 4eaa d6be 350c 743f
00000050: 4208 5abf a2ad ca3e 4769 ebbe 6021 27bf
00000060: 6939 c6be 9c16 4cbe 5787 e8be 40a3 e4bb
00000070: e414 39bf c23d 19bf 5e71 bb3d c1f4 43bf
00000080: a92e 783c f05e 42bf 30ad 493e 21ab 3b3f
00000090: 2da8 753e 6222 38bf 77cc 8d3e 6940 653f
000000a0: e0a3 fdbe 93fa 093f a5e9 4abe aa2b 20bf
000000b0: db4f df3d b2fe bcbc 9f50 4d3f 9322 703d
000000c0: d155 1fbc d6f6 283f 45fa e9be 4215 213f
000000d0: 0a79 443e c313 4b3f ba9d 07be 507a 53bf
000000e0: 3c5e 56bf 641c 01bd 458f ff3e 4a9f 9e3e
000000f0: 59b7 cf3d a1f2 27be 4dd4 2fbf 3362 4cbf

speformer.transformer.encoder.layers.0.self_attn.in_proj_weight f4 [192, 64]
-0.09080465 -0.09424615 0.030693615 0.08445156 0.030403025 -0.040457215 -0.11566628 -0.031463012
0.018326512 -0.04027313 -0.011465862 0.11656384 0.15530145 -0.10277219 -0.06465045 -0.07519029
-0.16069698 -0.103719056 -0.0010329038 -0.016269075 0.05021663 0.2363613 0.0681161 -0.12186719
-0.12698361 0.025467245 -0.21568094 0.049947444 -0.0998657 -0.04016696 -0.037017718 -0.13174169
-0.033814818 -0.061476905 0.28725666 0.08643928 -0.00887177 0.027917644 0.05546043 0.037233133
0.022699138 0.081657685 -0.12924463 -0.0055040303 0.13398574 0.02306868 -0.08635149 0.070506714
0.03932963 0.18672891 -0.19865213 0.03704164 0.21954297 -0.012904254 -0.02417871 0.0056784176
-0.05578053 0.08291424 0.04938695 0.099739134 -0.098953575 0.03333883 -0.18281657 -0.046481494
0.16543476 -0.10925488 -0.1875408 -0.034028094 0.03956432 0.06259454 0.08297423 0.011622311
-0.02976147 0.17537236 -0.0053649265 -0.10147367 -0.11897984 -0.08390412 0.062001493 -0.010433474
0.19392242 0.1817236 -0.016939588 -0.07970218 0.06672863 -0.06968946 -0.013851087 0.017792124
0.13213138 0.0817923 0.17553456 -0.039658792 0.18992731 0.06956844 -0.06399525 0.1627834
-0.14274035 0.19122396 0.01424611 0.0553806 0.031157546 -0.021933155 -0.031310033 0.0035248676
-0.05267327 -0.22116609 0.0021175907 0.05441807 -0.16403152 0.018484708 0.026402486 -0.045242548
0.18273509 0.007836562 0.06570454 0.0966029 -0.1909245 -0.016505927 0.17936614 0.124575645
0.1822633 -0.04273964 0.012082843 -0.15383896 0.0031458836 -0.100862555 0.10644723 0.08665312
0.042591345 0.10316695 0.14799857 0.110489056 0.056166656 -0.09370855 0.026486672 0.1232764
0.12727056 -0.06503673 0.11683162 -0.064882524 0.036700357 -0.0917545 0.067050144 0.09006558
0.014827695 -0.1577745 0.04538889 -0.04001669 0.11491395 -0.096003525 0.12900047 -0.06943715
-0.0011199262 -0.19110456 -0.09108309 0.081305176 0.059276275 -0.06788648 -0.007641698 -0.04320508
-0.10765426 0.1047464 0.14798364 0.061412383 0.058693368 -0.059694886 -0.034010414 0.13985081
-0.01970768 0.04340793 0.08294597 -0.011618675 -0.117110394 0.063730836 -0.03555083 -0.010535436
-0.11307756 0.1269239 0.12589046 -0.030187061 -0.033864643 0.07033036 -0.08140486 -0.0027774435
-0.11883158 0.050677516 0.10662448 -0.042426303 0.14929502 0.14847149 0.09160168 -0.11472131
-0.12007467 0.08677338 -0.03193533 -0.061776806 -0.16108339 0.06956403 0.057264507 0.033329833
-0.0016042324 -0.13623583 -0.10513267 0.15767322 0.023036893 0.010127307 -0.17220178 -0.0894991
-0.10819539 -0.076319516 -0.13297361 0.013522758 0.10686176 0.022794576 0.013671799 -0.03352488
-0.10596776 -0.03633965 -0.11636944 0.0008995086 0.08675456 -0.027886726 -0.109411515 -0.17480737
0.13742973 0.012585651 0.17345862 0.14311962 -0.09148774 0.014511387 -0.02194259 0.079973295
0.05394725 0.074545465 -0.18556687 0.008969194 0.0904221 -0.10645015 -0.012881055 -0.10688015
-0.09807896 0.06509305 -0.15500867 -0.0012387653 0.03127937 -0.08827292 -0.08413674 -0.107654676
-0.19290432 -0.02544338 0.12757726 -0.010315498 -0.045099813 0.0043770964 -0.13491863 0.083802186
00000000: caf7 b9bd 2004 c1bd 2d71 fb3c f1f4 ac3d
00000010: c40f f93c 77b6 25bd 71e2 ecbd 5cdf 00bd
00000020: 7b21 963c 70f5 24bd 50db 3bbc 06b9 ee3d
00000030: 5807 1f3e 3a7a d2bd 7567 84bd 5efd 99bd
00000040: c08d 24be a86a d4bd 8062 87ba b946 85bc
00000050: f4af 4d3d b208 723e 7480 8b3d 8195 f9bd
00000060: fe07 02be afa0 d03c 77db 5cbe b195 4c3d
00000070: 6386 ccbd 1c86 24bd e49f 17bd 4be7 06be
00000080: 6881 0abd 35cf 7bbd 4e13 933e 1407 b13d
00000090: e75a 11bc 8bb3 e43c 7a2a 633d c581 183d
000000a0: 8bf3 b93c 253c a73d b458 04be 275b b4bb
000000b0: 8f33 093e 87fa bc3c 0dd9 b0bd d365 903d
000000c0: 1b18 213d dd35 3f3e 776b 4bbe fab8 173d
000000d0: dfcf 603e 5d6c 53bc 6e12 c6bc 0512 ba3b
000000e0: 207a 64bd f1ce a93d f849 4a3d 0844 cc3d
000000f0: 2ca8 cabd 4c8e 083d 4434 3bbe 6163 3ebd
00000100: bb67 293e 06c1 dfbd b20a 40be 0b61 0bbd
00000110: 320e 223d 9131 803d 65ee a93d 816b 3e3c
00000120: 54ce f3bc d094 333e 44cc afbb 6dd1 cfbd
00000130: b4ab f3bd ecd5 abbd 47f5 7d3d 29f1 2abc
00000140: 9993 463e c015 3a3e e4c4 8abc e63a a3bd
00000150: 05a9 883d 59b9 8ebd abef 62bc cac0 913c
00000160: 734d 073e b982 a73d 55bf 333e 4271 22bd
00000170: 4e7c 423e e679 8e3d f10f 83bd b1b0 263e
00000180: 872a 12be 37d0 433e 8468 693c c5d6 623d
00000190: 1c3e ff3c 29ad b3bc f33e 00bd 7701 673b
000001a0: edbf 57bd 5d79 62be 47c7 0a3b 7be5 5e3d
000001b0: e1f7 27be 3e6d 973c 074a d83c 4050 39bd
000001c0: e81e 3b3e ec64 003c 1a90 863d bed7 c53d
000001d0: b681 43be 7037 87bc c2ab 373e 8421 ff3d
000001e0: 3ba3 3a3e c30f 2fbd 1ef7 453c f687 1dbe
000001f0: 2b2b 4e3b 0791 cebd 0101 da3d 3177 b13d
00000200: 4374 2e3d 3249 d33d f08c 173e 1648 e23d
00000210: 020f 663d 45ea bfbd 94fa d83c 5678 fc3d
00000220: 3753 023e fa31 85bd 6b45 ef3d 21e1 84bd
00000230: 1d53 163d c9e9 bbbd 9651 893d 4e74 b83d
00000240: dcef 723c a38f 21be b3e9 393d 8ae8 23bd
00000250: 0158 eb3d 7f9d c4bd b318 043e 1135 8ebd
00000260: 7dca 92ba eab0 43be c589 babd 5483 a63d
00000270: aecb 723d 1108 8bbd 3567 fabb cff7 30bd
00000280: d679 dcbd 4885 d63d 0689 173e 8d8b 7b3d
00000290: 7568 703d a082 74bd 814e 0bbd 0d35 0f3e
000002a0: 0072 a1bc 83cc 313d 94df a93d 415c 3ebc
000002b0: 93d7 efbd 5085 823d bf9d 11bd d29c 2cbc
000002c0: 3595 e7bd 57f8 013e 6ee9 003e db4a f7bc
000002d0: a7b5 0abd 5d09 903d 97b7 a6bd c505 36bb
000002e0: f95d f3bd 3a93 4f3d ef5d da3d 34c7 2dbd
000002f0: cbe0 183e e908 183e a999 bb3d 02f3 eabd
00000300: b5e9 f5bd 3eb6 b13d 9fce 02bd ad09 7dbd
00000310: 0bf3 24be 9677 8e3d 308e 6a3d dd84 083d
00000320: 1b45 d2ba 6881 0bbe cc4f d7bd 1775 213e
00000330: deb7 bc3c 01ed 253c aa55 30be 4e4b b7bd
00000340: 8b95 ddbd 684d 9cbd 3c2a 08be 8f8e 5d3c
00000350: 57da da3d b1bb ba3c aeff 5f3c 6251 09bd
00000360: a005 d9bd e3d8 14bd 1a53 eebd 00cd 6b3a
00000370: 60ac b13d b472 e4bc 2513 e0bd b400 33be
00000380: 61ba 0c3e 0c34 4e3c 239f 313e f38d 123e
00000390: ed5d bbbd 2bc1 6d3c f2c0 b3bc 0ac9 a33d
000003a0: cbf7 5c3d 4bab 983d 3e05 3ebe 87f3 123c
000003b0: 392f b93d 8902 dabd 0f0b 53bc fbe3 dabd
000003c0: 9fdd c8bd 814f 853d 98ba 1ebe 115e a2ba
000003d0: cc1e 003d 6fc8 b4bd e24f acbd 0e7a dcbd
000003e0: b688 45be a36e d0bc 9da3 023e 5602 29bc
000003f0: 95ba 38bd bf6d 8f3b 1c28 0abe 7ba0 ab3d

speformer.transformer.encoder.layers.0.self_attn.in_proj_bias f4 [192]
0.06567596 -0.060414754 0.01400828 0.030983698 -0.017251479 0.016836856 0.024738964 -0.0045500593
-0.02892647 -0.026109435 -0.052519232 0.06670146 0.01704721 -0.0037474635 -0.026048956 0.042308617
-0.034813244 0.02796084 0.039079454 -0.03751198 0.0021547927 -0.026712945 0.015509329 0.031921957
-0.016173027 0.032061264 -0.013468851 -0.033085514 0.022067962 -0.023481796 -0.0016248488 -0.034837514
-0.025135014 -0.024383433 -0.02725879 0.0075653596 -0.021563072 0.026417546 0.028593937 -0.0068052546
0.017794704 0.024642916 0.021054529 0.014607775 0.02359044 -0.022381602 0.0041956115 -0.0136511875
-0.057285413 0.0011641411 0.030835213 0.04169965 -0.034437343 0.016667547 0.006689529 0.010850351
0.03623256 -0.03384737 0.0030475731 0.038452048 0.0021041075 -0.0134643605 -0.011315689 -0.049397647
-0.058289926 0.08233608 -0.0045348997 -0.06470938 0.053425886 -0.054851826 -0.050647438 -0.04341508
0.048507262 0.066469416 0.07976715 -0.0905681 0.0014801776 0.01087894 0.00076790137 -0.06930947
0.044671413 -0.04493578 -0.06445536 0.06271915 -0.043884803 0.02601976 -0.015792206 -0.050229605
0.028604314 -0.030534497 -0.00630646 0.033758268 -0.07120131 0.031500366 0.032707065 0.059336964
-0.013091851 -0.0053610075 -0.0079829525 0.0045352494 -0.014970893 0.011545897 0.008972213 -0.0019757848
0.01373444 -0.0009275053 -0.0039105606 -0.0048059393 0.011384981 -0.0067568067 0.002272664 -0.010341586
0.04899234 -0.010548794 0.011252344 -0.03975976 0.062001098 -0.0572645 0.0014120907 -0.002047114
-0.049422152 0.037926696 -0.009091156 -0.04104896 0.028807944 -0.0038344667 0.021354873 0.04710393
-0.01726848 0.004880653 0.017052094 0.007542855 -6.1782666e-05 -0.028727915 0.013320496 -0.026065433
0.018596865 0.010853954 0.0019732597 -0.033623803 -0.005745087 0.016691519 0.0018642741 -0.011500846
-0.026419884 0.018693207 0.013993191 -0.0052513336 0.000763679 -0.012435856 -0.012328831 0.00068772887
-0.003130034 0.0019975137 0.030716885 -0.015755324 0.000563896 0.01232781 0.03204795 0.0015337025
0.0019082717 0.0138712125 -0.01193761 -0.019604858 -0.009398885 0.0017887868 0.013700917 0.0035624034
0.02433502 0.0054183984 -0.010620653 0.003054069 0.0008960972 -0.010046285 -0.006884825 -0.014652812
-0.0031825684 0.008588616 0.01867332 -0.011798449 0.014446832 -0.020510653 -0.0027864191 0.008636173
-0.003731129 -0.0012249647 0.015910948 0.0017182045 -0.013774758 0.006901245 -0.027335534 0.018490233
00000000: 1e81 863d 7675 77bd fc82 653c 86d1 fd3c
00000010: f952 8dbc 72ed 893c 5ea9 ca3c aa18 95bb
00000020: 34f7 ecbc 74e3 d5bc 681e 57bd c69a 883d
00000030: 97a6 8b3c 0198 75bb 9f64 d5bc cd4b 2d3d
00000040: 5598 0ebd 220e e53c c711 203d 29a6 19bd
00000050: 6c37 0d3b 1bd5 dabc d71a 7e3c 99c0 023d
00000060: 4c7d 84bc ac52 033d 75ac 5cbc ad84 07bd
00000070: dfc7 b43c e55c c0bc e1f8 d4ba c8b1 0ebd
00000080: f2e7 cdbc c4bf c7bc d34d dfbc d6e6 f73b
00000090: 0aa5 b0bc 9c69 d83c d53d ea3c 9dfe debb
000000a0: 33c6 913c f1df c93c 8c7a ac3c 7355 6f3c
000000b0: bd40 c13c 9f59 b7bc 577b 893b 3ba9 5fbc
000000c0: 1ca4 6abd 1896 983a 219a fc3c 41cd 2a3d
000000d0: 2c0e 0dbd 618a 883c d633 db3b acc5 313c
000000e0: 9868 143d 8aa3 0abd cbb9 473b e57f 1d3d
000000f0: 11e5 093b 9f99 5cbc 7165 39bc 3055 4abd
00000100: 6bc1 6ebd d29f a83d 7f99 94bb 5a86 84bd
00000110: 1ad5 5a3d 4fac 60bd b073 4fbd 03d4 31bd
00000120: 8daf 463d 1e21 883d f65c a33d c57b b9bd
00000130: 8502 c23a 953d 323c fd4c 493a 20f2 8dbd
00000140: 5ff9 363d 950e 38bd 2c01 84bd e672 803d
00000150: 8dc0 33bd 6427 d53c a85e 81bc 8fbd 4dbd
00000160: 9853 ea3c 7b23 fabc 6ca6 cebb 1c46 0a3d
00000170: fed1 91bd 8706 013d d8f7 053d 510b 733d
00000180: 347f 56bc 64ab afbb eeca 02bc 6e9c 943b
00000190: 7a48 75bc 012b 3d3c 3000 133c 2b7c 01bb
000001a0: 6b06 613c d423 73ba 2924 80bb 247b 9dbb
000001b0: 1288 3a3c 3468 ddbb faf0 143b c16f 29bc
000001c0: 31ac 483d d9d4 2cbc c05b 383c 21db 22bd
000001d0: ddf4 7d3d 2e8e 6abd e715 b93a e028 06bb
000001e0: e26e 4abd 0659 1b3d 12f3 14bc f422 28bd
000001f0: a3fe eb3c ad4b 7bbb 6af0 ae3c 0df0 403d
00000200: a176 8dbc e3ed 9f3b d5b0 8b3c 0e2a f73b
00000210: 5191 81b8 ce56 ebbc 363e 5a3c 2d87 d5bc
00000220: 7458 983c c8d4 313c ce51 013b 1db9 09bd
00000230: 4841 bcbb a7bc 883c a95a f43a 0b6e 3cbc
00000240: 836e d8bc 7f22 993c b243 653c 6113 acbb
00000250: a131 483a c3bf 4bbc ddfe 49bc b448 343a
00000260: 4221 4dbb b8e8 023b faa1 fb3c 4f11 81bc
00000270: 6cd2 133a 95fa 493c b644 033d 8406 c93a
00000280: f91e fa3a 1544 633c f795 43bc 5e9a a0bc
00000290: c8fd 19bc ba75 ea3a d079 603c 3677 693b
000002a0: 3c5a c73c d28c b13b 3f02 2ebc c626 483b
000002b0: 11e8 6a3a 2c99 24bc 199a e1bb 5912 70bc
000002c0: a392 50bb 44b7 0c3c caf8 983c 484e 41bc
000002d0: 68b2 6c3c f505 a8bc 5b9c 36bb bc7e 0d3c
000002e0: f585 74bb ff8e a0ba ad57 823c 6035 e13a
000002f0: 86af 61bc d723 e23b c5ee dfbc d478 973c

speformer.transformer.encoder.layers.0.self_attn.out_proj.weight f4 [64, 64]
-0.029289303 -0.06496728 -0.031019455 -0.03521595 -0.10420329 0.049862858 0.09127363 0.06665632
-0.041716807 -0.12017078 0.0042903046 -0.07809807 0.0044919397 -0.09340791 -0.09350839 0.010891292
-0.0049847695 0.11234459 -0.0057885596 0.048454445 -0.07807302 -0.1257762 -0.025908789 -0.0027031158
0.04637394 -0.059836704 -0.038917046 0.03927425 -0.051057573 -0.14804523 0.008628506 -0.0687206
-0.07503852 -0.012028645 0.049435347 -0.01883187 0.016299438 0.12697361 0.10800495 -0.034336373
-0.035687257 0.02393603 -0.07531836 0.07453964 -0.024061268 -0.13001654 0.013985452 -0.1746061
0.025836011 -0.13098831 0.08050224 -0.008372852 0.045564253 0.07557538 0.0011568477 0.00515614
-0.033179525 0.122090355 0.04335487 -0.07232307 0.14685632 -0.09307969 -0.06142103 -0.121525675
0.015605666 0.02387288 0.10962295 -0.05959249 0.15814844 -0.07884501 0.07774067 -0.07627056
-0.042099044 -0.04627888 -0.058832597 0.02597701 0.024201643 0.09153116 0.039822116 -0.051121425
0.03371649 0.016934993 0.017370695 -0.027677584 -0.074766815 -0.06636055 0.0019734078 0.024215093
0.052531805 0.10099583 0.028479178 -0.015674036 0.06438916 0.07282297 0.0463972 -0.07906591
0.014178847 -0.13421607 -0.07696456 0.031786468 -0.105319366 0.10296467 -0.07752998 -0.02604333
-0.14365874 -0.030447353 -0.030503249 -0.0051543373 0.011702519 -0.07179803 -0.012978984 -0.033374883
0.00048590338 0.0056323027 0.13385637 -0.011030017 0.11552748 -0.08374672 0.075150795 -0.0019332833
0.1115544 -0.024991566 -0.009521798 0.006646112 0.027611976 0.067474514 0.079137295 0.039663266
-0.073663585 -0.006723586 -0.046654195 -0.06811455 -0.07390317 -0.058530573 0.055798374 -0.11524711
0.12147842 0.06663822 -0.09615064 -0.0009035121 0.093472496 -0.08179018 -0.003025621 -0.084098905
-0.040110566 0.028690409 0.0472055 0.034257732 0.0120580355 0.0048294803 -0.0031917652 0.07817466
0.0653217 -0.012144868 -0.026268544 -0.0016866283 -0.026622247 -0.13192162 -0.02707365 -0.027157646
0.028510034 -0.043272723 -0.06400682 -0.03171365 0.011436336 -0.06647711 0.011421834 -0.02133229
0.024308262 0.030070307 0.0028804624 -0.04204856 0.05117679 -0.08762203 0.06990224 0.08281162
0.0055945404 0.0647652 0.03503061 0.1144359 -0.03816286 -0.043860834 -0.09563559 0.030537572
-0.020601464 0.04332334 -0.0242872 -0.045784444 -0.023550274 0.0049391096 -0.111741945 0.0498112
0.04823748 0.084212214 0.030413428 0.03818344 -0.036445107 0.002445523 -0.08561856 0.07426097
-0.076890364 0.037477322 -0.029461293 -0.09687651 0.12158717 -0.0860908 0.12121041 0.08764197
-0.06650023 0.030242648 0.12324483 0.014356478 -0.046075195 0.09363635 -0.028293649 0.019726396
-0.030842803 0.04252169 0.042303756 -0.08630248 0.0033618924 -0.009612247 0.020645283 -0.038419463
-0.059996422 0.011004048 -0.15219556 0.016924134 0.029448941 -0.06738305 0.14206728 -0.023760233
0.0176803 -0.08633006 -0.17816736 0.038355272 0.07577035 -0.13818952 -0.083840325 -0.16250484
-0.082775064 0.010776511 0.034754507 0.01074647 0.009663524 -0.091336615 0.00924512 0.11418625
0.07627969 0.12707658 0.008937797 -0.07037618 -0.03707404 -0.040768765 0.072765835 -0.106991604
00000000: 1ff0 efbc 910d 85bd 831c febc 9a3e 10bd
00000010: 8968 d5bd ff3c 4c3d abed ba3d 1c83 883d
00000020: 3edf 2abd 191c f6bd af95 8c3b e2f1 9fbd
00000030: 1f31 933b a54c bfbd 5481 bfbd 6471 323c
00000040: 4757 a3bb ec14 e63d f5ad bdbb 2b78 463d
00000050: bfe4 9fbd 7acb 00be ab3e d4bc c226 31bb
00000060: 9af2 3d3d 5517 75bd 7b67 1fbd 09de 203d
00000070: bf21 51bd 2b99 17be 945e 0d3c 63bd 8cbd
00000080: ccad 99bd cb13 45bc b87c 4a3d 4b45 9abc
00000090: 6686 853c 5f05 023e b331 dd3d 4ca4 0cbd
000000a0: cd2c 12bd 7e15 c43c 8340 9abd 3da8 983d
000000b0: 231c c5bc 0e23 05be 3d23 653c f1cb 32be
000000c0: 0ba6 d33c cd21 06be 5cde a43d 492e 09bc
000000d0: 95a1 3a3d 44c7 9a3d 5ea1 973a d6f4 a83b
000000e0: 41e7 07bd 820a fa3d e094 313d 1e1e 94bd
000000f0: 8161 163e 91a0 bebd 9e94 7bbd 74e2 f8bd
00000100: e8ae 7f3c 0f91 c33c ff81 e03d 4117 74bd
00000110: aaf1 213e 7e79 a1bd 8036 9f3d bd33 9cbd
00000120: 0c70 2cbd ec8e 3dbd 73fa 70bd bdcd d43c
00000130: 8642 c63c b074 bb3d 841c 233d b364 51bd
00000140: 4d1a 0a3d 41bb 8a3c fd4c 8e3c 1abc e2bc
00000150: 581f 99bd 0ae8 87bd 4a54 013b bb5e c63c
00000160: 972b 573d e7d6 ce3d 2a4d e93c d666 80bc
00000170: 77de 833d 3624 953d fe0a 3e3d 4fed a1bd
00000180: 654e 683c f06f 09be 989f 9dbd 8732 023d
00000190: aeb1 d7bd 24df d23d 0ac8 9ebd d258 d5bc
000001a0: 471b 13be ba6c f9bc f3e1 f9bc b7e5 a8bb
000001b0: ecbb 3f3c d80a 93bd cea5 54bc 1ab4 08bd
000001c0: d9c0 fe39 2e8f b83b a511 093e 3fb7 34bc
000001d0: ac99 ec3d 6683 abbd a9e8 993d 3966 fdba
000001e0: a276 e43d 1dbb ccbc 5101 1cbc a1c7 d93b
000001f0: 8332 e23c 1430 8a3d bc12 a23d f375 223d
00000200: efdc 96bd 8751 dcbb 7818 3fbd a47f 8bbd
00000210: 8c5a 97bd c1bd 6fbd d68c 643d ad06 ecbd
00000220: aec9 f83d 9e79 883d a0ea c4bd acd9 6cba
00000230: 826e bf3d 9c81 a7bd 7f49 46bb 0c3c acbd
00000240: fa4a 24bd 2608 eb3c 8e5a 413d d651 0c3d
00000250: 118f 453c 9e40 9e3b ef2c 51bb 091a a03d
00000260: 62c7 853d 45fb 46bc 2131 d7bc db11 ddba
00000270: e616 dabc 7616 07be 8fc9 ddbc b679 debc
00000280: e08d e93c bd3e 31bd 0216 83bd 2ce6 01bd
00000290: 785f 3b3c 2725 88bd a522 3b3c 0ec1 aebc
000002a0: 1f22 c73c 0156 f63c 24c6 3c3b 1c3b 2cbd
000002b0: c19e 513d 2e73 b3bd e828 8f3d 2399 a93d
000002c0: 6852 b73b 9ea3 843d 427c 0f3d 5e5d ea3d
000002d0: a950 1cbd 6ba7 33bd 98dc c3bd ee29 fa3c
000002e0: 67c4 a8bc d173 313d f3f5 c6bc 7888 3bbd
000002f0: 81ec c0bc 41d8 a13b f6d8 e4bd d406 4c3d
00000300: aa94 453d 7477 ac3d 9525 f93c 3d66 1c3d
00000310: 7747 15bd 1145 203b c958 afbd 2316 983d
00000320: b278 9dbd d281 193d cf58 f1bc 3167 c6bd
00000330: b202 f93d 6050 b0bd 2a3d f83d a27d b33d
00000340: 4631 88bd 6ebf f73c c967 fc3d 6f37 6b3c
00000350: 58b9 3cbd 6ac4 bf3d 15c8 e7bc 4099 a13c
00000360: 0caa fcbc 392b 2e3d b446 2d3d 5bbf b0bd
00000370: 3253 5c3b b07c 1dbc 4c20 a93c ba5d 1dbd
00000380: cfbe 75bd 534a 343c 27d9 1bbe 7ba4 8a3c
00000390: e83e f13c 2000 8abd 167a 113e d2a4 c2bc
000003a0: 47d6 903c d1cd b0bd 8171 36be 6b1a 1d3d
000003b0: 7c2d 9b3d 8e81 0dbe 7ab4 abbd ab67 26be
000003c0: f985 a9bd f78f 303c be5a 0e3d f611 303c
000003d0: c253 1e3c b10e bbbd d878 173c 7bda e93d
000003e0: 8738 9c3d 5d20 023e d66f 123c 6321 90bd
000003f0: f3da 17bd 26fd 26bd 4106 953d 6a1e dbbd

speformer.transformer.encoder.layers.0.self_attn.out_proj.bias f4 [64]
0.020805642 0.007884777 -0.009008937 0.022175984 -0.03694454 -0.016958555 0.023193276 -0.024179818
0.08678029 0.0022055246 0.05073337 -0.011532997 -0.0013410194 -0.046452526 0.12890379 0.00423853
-0.019894809 0.08336619 0.037432496 0.013209863 0.106036246 0.01710488 0.06113186 0.013413962
-0.010024496 -0.022456894 -0.025966965 -0.055532914 -0.0055482294 0.060335707 -0.024982084 0.05375814
-0.0632711 0.07432578 0.027114276 0.0019653612 -0.0055426485 0.011997461 -0.08143708 -0.16252689
-0.012791723 0.041003656 -0.021652693 -0.0057686856 -0.013053842 -0.02325065 -0.17609288 -0.016107587
0.0026745854 0.01838552 -0.0118770385 -0.1282311 0.043561194 -0.022242956 -0.003713089 0.012349431
-0.04761978 -0.032375563 0.01635686 -0.054258365 -0.06402292 -0.020114126 -0.0028234487 0.02906993
00000000: 9870 aa3c 272f 013c 389a 13bc 69aa b53c
00000010: 2853 17bd abec 8abc d3ff bd3c c114 c6bc
00000020: ddb9 b13d 908a 103b cbcd 4f3d e5f4 3cbc
00000030: 25c5 afba 0145 3ebd 5bff 033e 5ee3 8a3b
00000040: 70fa a2bc e5bb aa3d d152 193d 2e6e 583c
00000050: 8829 d93d 891f 8c3c 6765 7a3d 3cc6 5b3c
00000060: c93d 24bc 85f7 b7bc acb8 d4bc 7b76 63bd
00000070: eccd b5bb 9322 773d 3aa7 ccbc 7f31 5c3d
00000080: 4794 81bd 1d38 983d c21e de3c 4acd 003b
00000090: 1b9f b5bb 0091 443c 7cc8 a6bd 736d 26be
000000a0: 6094 51bc 73f3 273d fd60 b1bc 3e07 bdbb
000000b0: c8df 55bc 2678 bebc b151 34be 0ff4 83bc
000000c0: 1948 2f3b 3b9d 963c e997 42bc 034f 03be
000000d0: 396d 323d dc36 b6bc 4c57 73bb 4555 4a3c
000000e0: f50c 43bd 3d9c 04bd d2fe 853c 053e 5ebd
000000f0: 731e 83bd 61c6 a4bc 9c09 39bb 1024 ee3c

speformer.transformer.encoder.layers.0.linear1.weight f4 [256, 64]
0.023910979 0.097922474 -0.103412226 -0.059346315 0.06651708 0.021877808 0.009720067 0.12586884
0.024283238 -0.018849902 -0.053573858 0.013860483 -0.0016206185 0.113543764 0.08139317 -0.12879798
0.07351057 -0.03325185 0.059179086 -0.22074932 0.07267153 -0.0680672 -0.034492906 -0.022235291
-0.030713866 -0.044364195 0.10755232 0.034333307 0.07721236 -0.08234408 0.09587011 0.090779625
-5.689666e-05 -0.014264655 -0.19078836 -0.09695673 -0.07443519 -0.029614806 -0.03703659 -0.022501172
0.02886478 -0.23739688 -0.054499503 0.13903946 -0.04989292 0.11376912 -0.006593103 0.042641878
-0.09941878 0.0015359842 0.06257845 0.06550479 -0.045436647 0.061063148 0.11628379 0.124711245
0.23959464 -0.073577575 -0.19822484 0.1102393 0.10901806 -0.120013505 0.09012963 0.12613334
-0.008483993 0.13927932 0.069927104 0.016081195 0.13289136 0.02011698 0.1496624 0.012388014
-0.058471993 0.11515358 0.038291965 -0.13859127 -0.0826256 0.04235575 0.1741741 0.09759644
-0.08738258 -0.03751383 0.090712614 0.052306034 0.073869295 0.009548505 -0.12926169 0.043223225
-0.090620995 0.09698117 -0.07511919 0.0664516 0.0025606442 0.00676789 0.09564887 -0.07008046
-0.014681957 -0.06366739 0.09946387 -0.010947702 -0.051829707 -0.035812102 0.057715856 0.04615625
0.03966632 -0.003554415 0.08173599 -0.119512014 0.004307053 0.0525636 0.004940359 0.051591374
-0.029791337 -0.114733286 -0.044284068 0.0019312555 -0.010655219 -0.017424932 0.05650695 -0.09439475
0.08482154 0.056996495 -0.07334973 -0.0014031265 -0.04275227 0.074816294 -0.10143503 -0.014203937
0.04736918 -0.053845815 0.080359295 0.010307501 -0.0999965 -0.046538953 0.027185732 0.094897486
0.04558714 0.16190502 0.14227466 0.07972419 0.1027223 -0.0341488 -0.054774627 0.002430594
-0.06494517 -0.028899834 0.038989116 0.05708213 -0.0084588425 0.019807754 0.1230204 0.100664034
0.015791988 -0.045886494 0.0048386315 -0.08024026 0.015818996 0.007259478 -0.07604139 0.05247442
-0.104743965 0.11214642 0.112879485 -0.09667868 -0.2326512 -0.004821142 -0.09092303 0.08041231
-0.11647015 -0.105993055 -0.07255743 -0.12267793 -0.109073125 -0.08374794 -0.04359169 -0.034201194
-0.04436959 0.034366433 0.14661855 0.0024711143 0.077694654 -0.078027 -0.25475228 -0.043616813
-0.01021761 -0.1992143 0.09383256 -0.029158123 -0.011245106 0.031187734 0.07859569 0.035202213
0.10586339 0.10369928 -0.12242709 0.16165167 -0.112950325 0.019964553 -0.07349208 -0.09061272
-0.025805201 0.1808651 -0.009684257 0.065009646 -0.12629624 -0.067569144 -0.024583185 -0.113777794
-0.10279818 0.055963993 -0.10460738 -0.087622486 -0.07203666 0.07282096 0.00852008 0.008803867
-0.01556909 -0.013881014 0.08250131 -0.14250024 0.1383709 0.080129266 -0.059943017 -0.11544431
0.048827562 0.06473894 -0.021972366 -0.0718453 -0.222278 -0.078879505 -0.07364655 0.06305955
0.022215504 -0.017346175 -0.054013096 -0.12147366 -0.020237975 -0.10378749 -0.010465619 0.08125207
0.08031003 -0.038248394 -0.01647439 -0.03461388 -0.075649425 -0.067761734 -0.18439382 -0.052964203
-0.017487535 -0.12864241 0.08842646 0.018174078 0.079561375 0.14896369 0.10089151 -0.03817174
00000000: f5e0 c33c 948b c83d cac9 d3bd 1f15 73bd
00000010: 1b3a 883d 1739 b33c ea40 1f3c c3e3 003e
00000020: a4ed c63c 1c6b 9abc 4370 5bbd 1417 633c
00000030: ef6a d4ba a289 e83d 76b1 a63d 9ee3 03be
00000040: b68c 963d 1833 08bd c565 723d 1c0c 62be
00000050: d0d4 943d d166 8bbd 6f48 0dbd c926 b6bc
00000060: a59b fbbc 3bb7 35bd 6444 dc3d 15a1 0c3d
00000070: 8421 9e3d 03a4 a8bd 8c57 c43d abea b93d
00000080: 53a4 6eb8 4db6 69bc 065e 43be 4091 c6bd
00000090: 7a71 98bd c09a f2bc aeb3 17bd 6154 b8bc
000000a0: d575 ec3c 2b18 73be df3a 5fbd 5c60 0e3e
000000b0: 855c 4cbd c9ff e83d f50a d8bb 40a9 2e3d
000000c0: 139c cbbd 1453 c93a 2129 803d 6027 863d
000000d0: c71b 3abd 5a1d 7a3d 3226 ee3d 9c68 ff3d
000000e0: 4c58 753e d7af 96bd 74fb 4abe 24c5 e13d
000000f0: dc44 df3d a4c9 f5bd e295 b83d 1929 013e
00000100: 7200 0bbc 3d9f 0e3e f135 8f3d b6bc 833c
00000110: ac14 083e 5dcc a43c 1a41 193e 19f7 4a3c
00000120: 5480 6fbd a4d5 eb3d 09d8 1c3d dfea 0dbe
00000130: 9c37 a9bd 397d 2d3d b25a 323e a4e0 c73d
00000140: a3f5 b2bd 1aa8 19bd 89c7 b93d da3e 563d
00000150: c948 973d 5571 1c3c 2d5d 04be d60a 313d
00000160: 8097 b9bd 109e c63d 17d8 99bd c717 883d
00000170: 7bd0 273b 2dc5 dd3b 8ee3 c33d 5886 8fbd
00000180: 978c 70bc 0c64 82bd b7b3 cb3d fe5d 33bc
00000190: 634b 54bd b6af 12bd 7667 6c3d 560e 3d3d
000001a0: 2779 223d 30f1 68bb 3365 a73d b7c2 f4bd
000001b0: 2e22 8d3b ee4c 573d bce2 a13b 7a51 533d
000001c0: f60c f4bc 49f9 eabd 3663 35bd 2e22 fd3a
000001d0: 3a93 2ebc bbbe 8ebc d573 673d 0952 c1bd
000001e0: eab6 ad3d 2875 693d 6238 96bd 1de9 b7ba
000001f0: 011d 2fbd 4939 993d 2bbd cfbd a1b7 68bc
00000200: 2f06 423d 6e8d 5cbd 6a93 a43d cbe0 283c
00000210: f7ca ccbd a19f 3ebd 9db4 de3c 9d59 c23d
00000220: 95b9 3a3d 6eca 253e 73b0 113e 7046 a33d
00000230: 1260 d23d 9ddf 0bbd 5c5b 60bd 9a4a 1f3b
00000240: f901 85bd 58bf ecbc 0db3 1f3d f4ce 693d
00000250: f596 0abc df43 a23c 1ff2 fb3d f228 ce3d
00000260: 335e 813c 7af3 3bbd 628d 9e3b 0155 a4bd
00000270: d796 813c eae0 ed3b 97bb 9bbd 6bef 563d
00000280: 0184 d6bd 06ad e53d 5c2d e73d 79ff c5bd
00000290: 1e3c 6ebe acfa 9dbb db35 babd 36af a43d
000002a0: e787 eebd e312 d9bd fd98 94bd 913e fbbd
000002b0: bb61 dfbd 0a84 abbd 338d 32bd 8d16 0cbd
000002c0: e3bc 35bd d1c3 0c3d 2c23 163e 6bf2 213b
000002d0: 601e 9f3d 9fcc 9fbd e46e 82be 8ba7 32bd
000002e0: c367 27bc d5fe 4bbe 492b c03d 04dd eebc
000002f0: 653d 38bc 6b7d ff3c c7f6 a03d 3230 103d
00000300: e8ce d83d 4a60 d43d 0ebb fabd 0488 253e
00000310: 8052 e7bd b48c a33c 0483 96bd 2993 b9bd
00000320: 6e65 d3bc b334 393e b8aa 1ebc c723 853d
00000330: cd53 01be b161 8abd ad62 c9bc 5504 e9bd
00000340: da87 d2bd 803a 653d 653c d6bd 6b73 b3bd
00000350: f587 93bd 2823 953d ce97 0b3c 183e 103c
00000360: 7f15 7fbc 316d 63bc 72f6 a83d 95eb 11be
00000370: 1ab1 0d3e d01a a43d cf86 75bd 116e ecbd
00000380: 69ff 473d d995 843d 64ff b3bc a123 93bd
00000390: d89c 63be 948b a1bd 01d4 96bd 5e25 813d
000003a0: 4afd b53c 9119 8ebc d63c 5dbd 2fc7 f8bd
000003b0: 1cca a5bc 898e d4bd fd77 2bbc 7c67 a63d
000003c0: 9679 a43d 59aa 1cbd 4df5 86bc 49c7 0dbd
000003d0: 16ee 9abd aac6 8abd bcd1 3cbe fef0 58bd
000003e0: 0542 8fbc d6ba 03be ef18 b53d cee1 943c
000003f0: 13f1 a23d f089 183e 35a0 ce3d f859 1cbd
