experiments/Loukia_best.pth (torch, 331154 bytes, 20 tensors)

conv1.weight f4 [16, 1, 3, 3, 7]
0	0x3dca6d1f	0.098840944
1	0x3da6e1e3	0.08148553
2	0x3c0758a5	0.008260881
3	0x3d6830b5	0.056687076
4	0x3c618678	0.01376497
5	0x3d599550	0.05312091
6	0x3da34c9e	0.07973598
7	0xbcf1794a	-0.02947678
8	0x3bce9c0d	0.006305224
9	0x3d364fe3	0.04450978
10	0x3d9469ea	0.07246764
11	0xbcad378f	-0.021144656
12	0x3d37ad52	0.044843026
13	0x3d96fb97	0.07372206
14	0x3ddbb204	0.10727313
15	0x3db988b7	0.090592794
16	0x3da9404a	0.08264215
17	0x3dd2b719	0.10288829
18	0x3d91cc40	0.07119036
19	0x3da62757	0.08112972
20	0x3dbfa24f	0.0935713
21	0x3da26c6d	0.07930837
22	0xbd68b6f0	-0.056815088
23	0xbd255490	-0.04036385
24	0x3dd79680	0.105267525
25	0xbd2ce925	-0.04221453
26	0xbdfe5af7	-0.12419694
27	0xbe00daa4	-0.12583405
28	0xbce09dbd	-0.027418965
29	0xbd8b82a4	-0.06812027
30	0xbc54f5d4	-0.012998063
31	0xbdbc1cda	-0.091851905
32	0x3d09ebbc	0.03367208
33	0xba81090b	-0.0009844614
34	0xbc96c968	-0.018406585
35	0x3d095db7	0.03353664
36	0x3d90e7a0	0.07075429
37	0x3d129086	0.03578236
38	0xbbaf809b	-0.005355907
39	0x3dedc325	0.116094865
40	0x3cedcc88	0.029028192
41	0x3d2ebbc3	0.042659532
42	0x3d917bdf	0.07103705
43	0x3d207454	0.03917344
44	0xbdeb19ee	-0.11479555
45	0xbd851070	-0.06497276
46	0xbe105d26	-0.14098033
47	0x3d6e55cc	0.05818729
48	0xbbdf54d8	-0.006815534
49	0xbdfe4f91	-0.1241752
50	0xbdb9bf7f	-0.09069728
51	0xbe10dad7	-0.14145981
52	0xbd63d0b7	-0.055618968
53	0xbe1ed468	-0.15510714
54	0x3d803caa	0.06261571
55	0xbd052ea3	-0.03251518
56	0x3d78f49c	0.060780153
57	0x3b7621d6	0.003755679
58	0xbd757be4	-0.059932604
59	0x39c66625	0.00037841607
60	0xbdcbf9f4	-0.09959784
61	0x3d18494c	0.037179276
62	0xbd4fa450	-0.05069381
63	0xbda55bb0	-0.08074129
64	0xbe018f7c	-0.12652391
65	0xbdbd7726	-0.092512414
66	0x3c6d977b	0.014501448
67	0x3d3ad2da	0.04561124
68	0xbe3449b4	-0.1760624
69	0xbdd2fd5e	-0.10302232
70	0xbe053064	-0.13006741
71	0x3d75a363	0.05997027
72	0xbdf6223c	-0.120182484
73	0xbdc2f876	-0.095200464
74	0xbe0c24e2	-0.13685945
75	0xbd19be57	-0.037535038
76	0x3d75e23a	0.0600302
77	0x3ddbbb44	0.107290775
78	0x3d28698b	0.04111628
79	0xbd8566ed	-0.06513772
80	0x3d4f36f5	0.05058952
81	0xbd959afb	-0.07304951
82	0x3de40c67	0.11135178
83	0x3cdc7ec1	0.02691591
84	0xbe1176d8	-0.14205492
85	0x3d81055d	0.06299851
86	0xbdff92f8	-0.12479204
87	0xbdcf0654	-0.10108629
88	0x3da81e39	0.082088895
89	0xbde675cd	-0.112529375
90	0xbd03c214	-0.03216751
91	0x3d376383	0.044772636
92	0xbc5d94dd	-0.013524261
93	0xbcf42493	-0.029802596
94	0x3dfa544b	0.12223109
95	0xbddedcce	-0.10881959
96	0xbd4447c2	-0.047919996
97	0x3d983e3c	0.07433745
98	0xbbe3a42f	-0.0069470624
99	0xbd8b1758	-0.06791562
100	0xbd863b19	-0.06554241
101	0xbd182726	-0.03714671
102	0x3cb8b08f	0.022545127
103	0x3c81b5a7	0.015833689
104	0x3e021064	0.12701565
105	0xbddb3419	-0.10703296
106	0x3a2533e8	0.0006301985
107	0x3df94e35	0.1217312
108	0x3d727fd9	0.059203956
109	0x3d57053d	0.05249523
110	0xbc6bd2dc	-0.0143935345
111	0xbc2750bf	-0.010212122
112	0x3cf440bb	0.029816022
113	0xbd1a6c6b	-0.03770105
114	0x3d11bcdf	0.035580512
115	0xbbe1d838	-0.0068922304
116	0x3d01086a	0.031502165
117	0xbce976cf	-0.028499035
118	0xbd9b7f67	-0.075926594
119	0x3d254485	0.04034855
120	0x3dc434f0	0.095804095
121	0xbc9a7fd2	-0.018859778
122	0xbdb12d1b	-0.08651181
123	0x3df20d79	0.11818976
124	0x3db54b02	0.08852197
125	0x3d904915	0.07045189
126	0x3d2f4683	0.042791855
127	0x3b81c801	0.00396061
128	0xbd9c6bb5	-0.07637731
129	0x3d563b4d	0.052302647
130	0xbd21c6b8	-0.039496154
131	0xbddca963	-0.107744955
132	0xbe493ea1	-0.19652797
133	0xbbf5279b	-0.007481528
134	0xbdc571c9	-0.096408434
135	0x3bf64ed5	0.0075167217
136	0x3d8acdd6	0.06777541
137	0x3daa8103	0.08325388
138	0xbddef5fb	-0.10886761
139	0xbcefb01f	-0.029258786
140	0xbcdacc2f	-0.02670869
141	0x3c834481	0.016023876
142	0x3c872e91	0.016501697
143	0xbd1db094	-0.038498476
144	0xbda2e796	-0.07954328
145	0xbda46766	-0.08027534
146	0xbe12daac	-0.14341229
147	0xbd826430	-0.063667655
148	0x3c5e2f97	0.013561151
149	0xbd358097	-0.044312086
150	0x3df7cb9f	0.120993845
151	0x3da245cf	0.07923471
152	0xbd8eb1d9	-0.069675155
153	0x3ba21282	0.004946054
154	0x3cde59b4	0.027142383
155	0x3df1143f	0.1177144
156	0xbd851e0c	-0.064998716
157	0xbba6adb8	-0.005086627
158	0x3d48393e	0.048882715
159	0xbced4066	-0.028961372
160	0x3da022c8	0.07819134
161	0xbd86e5d6	-0.065868065
162	0xbd7166a5	-0.05893578
163	0x3debc385	0.11511902
164	0x3e163e70	0.14672256
165	0x3c406066	0.011741733
166	0xbce9dfcf	-0.028549103
167	0x3dee9884	0.11650184
168	0x3d52e7e3	0.051490676
169	0xbd01f714	-0.031729773
170	0xbdd7c232	-0.10535087
171	0x3c64d7e8	0.013967492
172	0xbe1e6632	-0.15468672
173	0xbe11bb6f	-0.14231656
174	0xbe238249	-0.15967669
175	0x3df5f99a	0.12010498
176	0xbc479313	-0.012181061
177	0x3bb8cc76	0.005639608
178	0xbd96c6e2	-0.07362153
179	0xbdc357c0	-0.09538221
180	0xbc70f76c	-0.0147074275
181	0xbe112fe5	-0.14178427
182	0xbd27501d	-0.040847886
183	0x3b1c3f24	0.0023841346
184	0xbc36a9d0	-0.011148885
185	0x3dae9139	0.08523793
186	0xbd81ba1b	-0.06334325
187	0x3a06ec8c	0.00051469426
188	0xbd061f56	-0.032744728
189	0xb8d846ef	-0.00010312895
190	0x3d373e28	0.04473701
191	0xbd51e370	-0.051242292
192	0xbde59fc7	-0.11212116
193	0xbd672c89	-0.056438956
194	0xbbc72128	-0.0060769506
195	0xbac4c508	-0.0015012333
196	0xbca27888	-0.019832864
197	0x3d6420de	0.055695407
198	0x3cad7cab	0.02117761
199	0xbd0e3c36	-0.03472539
200	0xbd761710	-0.060080588
201	0xbda0a073	-0.07843103
202	0x3d86c0f1	0.065797694
203	0xbc16c0bf	-0.009201228
204	0x3e0f2d74	0.13982183
205	0x3ddcfd56	0.107905075
206	0x3d10e018	0.035369962
207	0x3cd2bf9e	0.025726136
208	0x3da84e77	0.08218091
209	0xbc01e530	-0.007928178
210	0x3e280a00	0.16410065
211	0x3e31e147	0.17371093
212	0x3d9814be	0.07425831
213	0x3b54c58c	0.003246638
214	0xbbe26982	-0.00690955
215	0x3dcc8619	0.099865146
216	0x3cc07029	0.023490982
217	0xbd59f7e5	-0.053214926
218	0x3dd3e121	0.10345674
219	0xbce3dec9	-0.027816193
220	0x3d6889b9	0.056771968
221	0x3d852f4d	0.065031625
222	0xbdc79db5	-0.09746877
223	0xbe036cbb	-0.12834446
224	0x3e11bd86	0.14232454
225	0x3c4b5c9e	0.012412218
226	0xbda1acad	-0.078942634
227	0xbdd7c730	-0.10536039
228	0xbe0ddb0e	-0.13853094
229	0x3dbbc729	0.09168846
230	0x3dbfc812	0.09364332
231	0x3e4c45c8	0.19948494
232	0x3e4bef55	0.19915517
233	0xbd2cd91f	-0.04219925
234	0xbd966a34	-0.073444754
235	0x3df8fa7c	0.12157151
236	0x3d7cca8f	0.061716612
237	0xbdf9d26f	-0.1219834
238	0x3e0f35d8	0.13985384
239	0xbd9b3314	-0.07578102
240	0xbd0f0e9b	-0.03492604
241	0xbd6e72e4	-0.058215037
242	0x3de38c93	0.11110797
243	0x3dd05dd6	0.10174148
244	0xbc55f5ca	-0.013059089
245	0x3de8b01f	0.113617174
246	0x3cb4fd8b	0.022093555
247	0xbddfb6f5	-0.10923568
248	0x3d86540c	0.065589994
249	0xbe17e5d0	-0.1483376
250	0x3da9141d	0.082557894
251	0x3cd90078	0.026489481
252	0xbdd00445	-0.10157064
253	0x3da7a4f0	0.08185756
254	0xbbd837f6	-0.006598468
255	0xbcd02734	-0.025409319

conv1.bias f4 [16]
0	0xbe040d35	-0.12895663
1	0x3da22bf9	0.07918543
2	0xbd134952	-0.035958596
3	0x3cb5dcea	0.022200067
4	0xbdb2f5cd	-0.08738289
5	0x3e06b5a5	0.1315523
6	0x3dba1fed	0.090881206
7	0x3d9762da	0.07391901
8	0xbda5ea97	-0.08101385
9	0xbda5b9f9	-0.08092112
10	0xbdc4dfff	-0.09613036
11	0x3d556fe9	0.05210868
12	0xbcb508d0	-0.022098929
13	0xbda47fc8	-0.08032185
14	0x3dd37d44	0.10326627
15	0x3d9bc6c8	0.07606274

bn1.weight f4 [16]
0	0x3f6d88c6	0.92786825
1	0x3f7e6d48	0.993855
2	0x3f806dbe	1.0033491
3	0x3f7cb64b	0.98715657
4	0x3f80fdc2	1.0077441
5	0x3f8596db	1.0436662
6	0x3f821a1d	1.0164219
7	0x3f79bbdd	0.9755228
8	0x3f74a133	0.9555847
9	0x3f742d78	0.9538188
10	0x3f811e3d	1.0087353
11	0x3f876150	1.0576572
12	0x3f7eb3d1	0.9949313
13	0x3f82b0af	1.021017
14	0x3f83cd5e	1.0297048
15	0x3f81277d	1.0090176

bn1.bias f4 [16]
0	0xbdcb98d9	-0.09941263
1	0xbcd5bc82	-0.026090864
2	0xbc8e7810	-0.017391235
3	0xbb1bef4f	-0.0023793762
4	0xbca0ec64	-0.01964397
5	0x3c54acc3	0.012980643
6	0xbda3fa94	-0.08006778
7	0x3c160120	0.009155542
8	0xbd161adb	-0.036646705
9	0xbdbf4bcc	-0.09340629
10	0xbdc5a1af	-0.09649979
11	0x3c269743	0.0101679
12	0x3c010e9a	0.007877016
13	0xbd303352	-0.043017693
14	0xbd3f3e91	-0.046690527
15	0xbcc074e1	-0.023493232

bn1.running_mean f4 [16]
0	0xbdb175c1	-0.08665038
1	0xbd814917	-0.06312769
2	0xbe5ce527	-0.2157179
3	0x3e8d7a99	0.27632597
4	0xbdde373a	-0.108503774
5	0xbdd1c0e9	-0.10241873
6	0x3dc37f93	0.09545817
7	0x3e296db7	0.16545759
8	0xbdbce9b4	-0.09224263
9	0xbd8c33e4	-0.06845835
10	0xbdd3c123	-0.10339572
11	0x3dbd2a61	0.09236599
12	0xbe2e04d0	-0.16994023
13	0xbe567dd9	-0.20946445
14	0x3d39fe3f	0.045408484
15	0xbe39eb8e	-0.18156263

bn1.running_var f4 [16]
0	0x3cc27c98	0.023741052
1	0x3ca729db	0.0204057
2	0x3cc81324	0.02442319
3	0x3d05463a	0.032537676
4	0x3c3b5bdc	0.011435475
5	0x3d373447	0.04472759
6	0x3c947d41	0.018126132
7	0x3c6c9386	0.014439469
8	0x3b6220c9	0.0034504405
9	0x3bd3d755	0.0064648786
10	0x3a5d4b3d	0.00084416923
11	0x3bb09b1a	0.0053895833
12	0x3ca1bd94	0.019743718
13	0x3cac67c6	0.021045577
14	0x3c279e81	0.010230661
15	0x3d5dd6a7	0.054159787

conv2.weight f4 [32, 16, 3, 3, 5]
0	0x3cd01212	0.025399242
1	0x3d149422	0.036274083
2	0xbc204fa1	-0.00978461
3	0xbb4c99a1	-0.00312195
4	0x3b74362a	0.003726373
5	0x3d09097a	0.033456303
6	0xbc64daaa	-0.013968149
7	0x3b7229fc	0.0036951294
8	0x3ca1087a	0.019657362
9	0x3bea5b9e	0.007152035
10	0x3d7409c0	0.05957961
11	0x3d27501c	0.040847883
12	0xbbfe918e	-0.0077688163
13	0x3d0dae2b	0.034589928
14	0x3d5a559a	0.053304292
15	0xbd0daba6	-0.034587525
16	0x3c0b1707	0.008489377
17	0xbcf55d82	-0.029951815
18	0x3ba6843b	0.005081681
19	0x3cfad90a	0.03062107
20	0xbc975c01	-0.018476488
21	0xbbe48dea	-0.0069749253
22	0xbbfb0fec	-0.00766181
23	0x3c42b5ae	0.011884136
24	0xbc198b60	-0.0093716085
25	0x3d1aa67b	0.037756424
26	0x3d24ba60	0.040216804
27	0x3d4c6eb5	0.049910266
28	0xbcb5bb82	-0.022184137
29	0x3bf621bc	0.0075113457
30	0xbb8780aa	-0.004135211
31	0xbce0109d	-0.027351672
32	0xbd20fe2a	-0.03930489
33	0x3cb8276b	0.022479733
34	0xbb6f4d32	-0.0036514518
35	0x3ca5859b	0.02020531
36	0xbc28953b	-0.010289486
37	0x3ce13de6	0.027495336
38	0xbc8ea1cd	-0.017411137
39	0xbcafad31	-0.021444889
40	0xbba03b6a	-0.004889895
41	0x3d1cf9ba	0.038324095
42	0xbcfa1a6a	-0.030530173
43	0x3c2fd62d	0.010732216
44	0xbcd6abcb	-0.026204964
45	0x3d0375c2	0.032094724
46	0x3c67f68a	0.014157901
47	0xbbb9a7db	-0.005665762
48	0x3bee04fb	0.0072637773
49	0xbc4b0b6c	-0.01239286
50	0x3d83afef	0.06430041
51	0x3d4ac0eb	0.049500387
52	0x3da1ecb8	0.07906479
53	0x3d13c53c	0.03607677
54	0x3db1f5be	0.0868945
55	0x3c3fde23	0.011710676
56	0x3b786ee8	0.0037907902
57	0xbce7a698	-0.02827768
58	0x3c032eb7	0.008006743
59	0x3cd55f6d	0.02604648
60	0x3d50b9b9	0.05095837
61	0x3d851eff	0.06500053
62	0x3dc4f6af	0.09617364
63	0x3da27ef2	0.07934369
64	0x3d247433	0.04014988
65	0x3d5001cb	0.05078296
66	0x3d172827	0.036903527
67	0x3dc57d97	0.09643095
68	0x3de4edcf	0.11178171
69	0x3d84808a	0.064698294
70	0x3d1a108c	0.037613437
71	0x3d31719b	0.043321233
72	0x3d47a1ca	0.04873828
73	0x3cdf23db	0.027238777
74	0x3d8f6b5d	0.070029
75	0xbb49701d	-0.003073699
76	0x3ce06ab7	0.027394636
77	0x3d0784bb	0.033085566
78	0xbc998d63	-0.018744176
79	0xbaafa2dc	-0.0013399976
80	0x3d4c222b	0.049837273
81	0x3bfb9877	0.0076780873
82	0x3cb9dc41	0.022688033
83	0x3caccc5e	0.021093544
84	0x3cdef394	0.027215756
85	0xbc5d3907	-0.013502366
86	0x3d02d2ec	0.031939432
87	0xbc836674	-0.016040064
88	0x3c9ab35c	0.018884353
89	0x3c4e8330	0.01260452
90	0xbc6d3cbb	-0.014479811
91	0xbb4016cd	-0.0029310465
92	0x3c4191e9	0.011814573
93	0xbc37cf6e	-0.011218889
94	0x3d7eee61	0.062239055
95	0x3d16b163	0.036790263
96	0x3d8fe125	0.07025365
97	0x3d21dd77	0.039517846
98	0x3c862968	0.016377166
99	0x3d013605	0.031545658
100	0x3ca759b2	0.020428512
101	0xbbce546e	-0.006296686
102	0x3ce1515b	0.027504614
103	0x3cba6ec0	0.022757888
104	0xb8a43aeb	-7.831104e-05
105	0x3da6931e	0.08133529
106	0x3d1ae004	0.037811294
107	0x3d72561a	0.059164144
108	0x3da2fa42	0.07957889
109	0x3dbdb614	0.09263244
110	0x3da94e68	0.08266908
111	0x3dab4988	0.08363634
112	0x3d49286a	0.049110807
113	0x3d6accb6	0.057324134
114	0x3d91086d	0.07081685
115	0x3cc3244b	0.023821017
116	0x3d7638e7	0.06011286
117	0xba1e65e4	-0.00060424046
118	0x3b4a1382	0.0030834381
119	0x3d4126b0	0.047156036
120	0xbc35dae2	-0.011099549
121	0xbca76525	-0.020433972
122	0x3cb2d906	0.021832
123	0x3d18f056	0.037338577
124	0x3c67635c	0.01412281
125	0x3c80407a	0.015655745
126	0xbbd4efba	-0.006498304
127	0x3b3dca4c	0.002895969
128	0x3d33a822	0.043861516
129	0x3d7da9fe	0.061929695
130	0xbd12c318	-0.035830587
131	0x3d0b29f6	0.033975564
132	0x3d025664	0.03182067
133	0x3d289680	0.041159153
134	0xbade1819	-0.0016944438
135	0xbbc2d74c	-0.0059460755
136	0x3d02efc8	0.031966954
137	0x3bf07210	0.007337816
138	0x3c8a3e96	0.016875546
139	0x3d0400f2	0.032227464
140	0xbd294989	-0.041329894
141	0x3cd30c01	0.02576256
142	0xbd19bcce	-0.037533574
143	0xbcef95ca	-0.02924623
144	0xbd333038	-0.043747157
145	0xbbb6ba5d	-0.0055764155
146	0xbc60e7f7	-0.01372718
147	0xbce097e7	-0.027416183
148	0xbb405722	-0.002934881
149	0x3bc7dca3	0.0060993
150	0xbc342fab	-0.010997693
151	0x3c689d72	0.014197694
152	0xbcb00a4d	-0.021489287
153	0xbce5b791	-0.028041633
154	0xbc490cc1	-0.012271107
155	0xbb4eeeab	-0.0031575363
156	0xbcf5313f	-0.029930709
157	0x3cb1a442	0.02168477
158	0xbd1c2da0	-0.03812945
159	0xbcca6cc9	-0.024710076
160	0x3c1878df	0.009306162
161	0xbca055cc	-0.019572161
162	0xbcfbb69d	-0.030726725
163	0xbd362cc1	-0.044476274
164	0xba87d80e	-0.0010364072
165	0x3c4dd173	0.012562144
166	0x3cdd9cb7	0.027052267
167	0xbb1816f7	-0.0023207047
168	0x3cd6bbce	0.0262126
169	0xbb5be497	-0.0033552998
170	0xbce2bdeb	-0.02767845
171	0x3ce94f81	0.028480293
172	0xba98591c	-0.0011623236
173	0x3d05075e	0.03247773
174	0x3d153169	0.036424074
175	0xbd036096	-0.032074533
176	0xbc7306b5	-0.014833142
177	0x3b26c59f	0.0025447381
178	0xbcac4d7d	-0.021033043
179	0xbd2aad72	-0.041669317
180	0xbb5b36d6	-0.0033449433
181	0x3a7d8c21	0.0009672065
182	0x3cb36ac8	0.021901503
183	0xbca478ea	-0.020077188
184	0x3cda4ac5	0.026646981
185	0xbc4866c7	-0.012231535
186	0xbc219390	-0.009861842
187	0x3ca32ef6	0.019919854
188	0x3d3a17d2	0.045432873
189	0xbc18eff7	-0.009334556
190	0x3d1a9dd1	0.03774816
191	0xbc1f1ba2	-0.009711178
192	0x3d803eff	0.062620156
193	0x3cea7b0d	0.028623128
194	0x3c0e1a50	0.008673266
195	0xbc6b4dfb	-0.014361854
196	0x3d20cb82	0.03925658
197	0x3d07698a	0.033059634
198	0x3a641d02	0.0008701832
199	0x3c1ab9fc	0.009443756
200	0xbca0999b	-0.019604495
201	0xbc98940c	-0.018625282
202	0x3cb70973	0.022343373
203	0xbcab5363	-0.020913785
204	0x3d060d5d	0.032727588
205	0xbc58a156	-0.013222059
206	0x3c8a16c9	0.016856568
207	0x3d37d421	0.044880036
208	0x3d46d047	0.048538473
209	0x3d23222c	0.03982751
210	0x3c366fbf	0.011135041
211	0x3b8c7e48	0.004287515
212	0x3d086c1c	0.033306226
213	0xbca81da3	-0.020521944
214	0x3d014e20	0.031568646
215	0x3cca1de6	0.02467246
216	0x3cd11974	0.025524832
217	0x3b335b38	0.0027367603
218	0xbcfa7ec1	-0.03057802
219	0xbd13c95a	-0.036080696
220	0x3ba3a2b9	0.0049937633
221	0x3a024029	0.0004968667
222	0xbc5dfd8c	-0.01354922
223	0xbc8cffdb	-0.017211845
224	0x3cdb4118	0.026764438
225	0x3c82ec4c	0.015981816
226	0x3d356ef7	0.044295277
227	0x3c8fa170	0.017533034
228	0x3d494cec	0.049145624
229	0x3d23edda	0.040021755
230	0x3cb49ed3	0.02204839
231	0x3abc7b22	0.0014379958
232	0x3cb091f5	0.021553973
233	0x3d0d48f2	0.034493394
234	0x3d5436fd	0.051810253
235	0xbce06fc1	-0.027397038
236	0xbbbb73c4	-0.0057205874
237	0xbcc4624e	-0.023972657
238	0xbb35f7ed	-0.0027766183
239	0xbceeef64	-0.029166885
240	0x3d2ab3ea	0.041675486
241	0x3d52499f	0.05133974
242	0x3d5b28b6	0.05350562
243	0x3c34c225	0.011032616
244	0x3ce7fc82	0.028318647
245	0x3c396f01	0.011317969
246	0x3cf62cfc	0.030050747
247	0x3c9e85a6	0.019350838
248	0x3d29bd4a	0.041440286
249	0x3d129f6b	0.035796564
250	0x3b97906e	0.0046253717
251	0xbc299e4a	-0.01035268
252	0x3d094b13	0.033518862
253	0x3b658eff	0.003502786
254	0x3baba89a	0.0052386047
255	0x3c31c45e	0.01085004

conv2.bias f4 [32]
0	0x3b8c5ad5	0.004283289
1	0xbbb157a1	-0.0054120575
2	0x3cfe2c64	0.031027026
3	0x3ba6d60f	0.0050914357
4	0x3c6a2ecf	0.014293387
5	0xbc9d2f85	-0.019187698
6	0xbd099e21	-0.03359807
7	0x39eabf22	0.00044774363
8	0xbc52057e	-0.012818692
9	0xbbb5bf7e	-0.0055465093
10	0x3cce51dc	0.025185518
11	0xbb1c1b1b	-0.0023819867
12	0xbc9fad62	-0.019491855
13	0x3d14e2b0	0.036349
14	0x3d040a9c	0.03223668
15	0xbc1ad380	-0.00944984
16	0x3c933aa2	0.017972294
17	0x3cbe62b0	0.023240417
18	0x3b401cef	0.002931412
19	0xbd14bec9	-0.03631476
20	0x3cd561ed	0.026047671
21	0xbbd4c59e	-0.0064932844
22	0xbceebcc2	-0.029142741
23	0xbca8e8cd	-0.02061882
24	0xbcb98640	-0.022647023
25	0xbc2973d2	-0.010342555
26	0x3ce6e81b	0.028186848
27	0xbca08b9a	-0.019597817
28	0x3d087214	0.03331192
29	0xbce79450	-0.028268963
30	0xbcaed0b3	-0.02133975
31	0xbc592be7	-0.013255096

bn2.weight f4 [32]
0	0x3f742406	0.9536747
1	0x3f712487	0.9419636
2	0x3f87cd79	1.060958
3	0x3f829cb9	1.0204078
4	0x3f786beb	0.9703967
5	0x3f7d6c43	0.9899332
6	0x3f88c1bb	1.0684122
7	0x3f8c206a	1.0947392
8	0x3f7d9f27	0.9907097
9	0x3f7b0347	0.98051876
10	0x3f80b2c2	1.0054553
11	0x3f82f003	1.0229496
12	0x3f7a74d6	0.9783453
13	0x3f8565d4	1.04217
14	0x3f8393c1	1.0279466
15	0x3f6e8b1e	0.93181026
16	0x3f88fc91	1.0702077
17	0x3f74cdd3	0.9562656
18	0x3f8b725e	1.0894277
19	0x3f76f60b	0.9646918
20	0x3f6dcb71	0.9288855
21	0x3f6dd8a3	0.92908686
22	0x3f70b191	0.94020945
23	0x3f7d3029	0.9890161
24	0x3f76e9cb	0.9645049
25	0x3f8785dc	1.0587726
26	0x3f8226ad	1.0168053
27	0x3f8274f8	1.0191946
28	0x3f761281	0.96121985
29	0x3f766344	0.9624522
30	0x3f6a4fe6	0.91528165
31	0x3f7890bf	0.97095865

bn2.bias f4 [32]
0	0xbd906ade	-0.07051633
1	0xbddc62c8	-0.107610285
2	0xbdb6a040	-0.08917284
3	0xbd293e5f	-0.041319247
4	0xbda2c40a	-0.07947548
5	0xbd81262e	-0.0630611
6	0xbe2fff66	-0.1718727
7	0xbd94d011	-0.07266248
8	0xbe02c291	-0.12769534
9	0xbd85ba5d	-0.065296866
10	0xbd9b1ae1	-0.07573486
11	0xbe162d61	-0.14665748
12	0xbd8d8767	-0.069105916
13	0xbd36b567	-0.044606593
14	0xbe24ec2f	-0.16105722
15	0xbdac3658	-0.08408803
16	0xbcb38821	-0.021915497
17	0xbdde5dab	-0.108577095
18	0xbe0f6552	-0.14003494
19	0xbd9f368b	-0.07774075
20	0xbd9c8d49	-0.076441355
21	0xbe07200b	-0.13195817
22	0xbd93ab91	-0.07210458
23	0xbd57d310	-0.05269152
24	0xbd98d820	-0.074630976
25	0xbe298621	-0.16555072
26	0xbcc8ce66	-0.024512481
27	0xbe086aac	-0.13321942
28	0xbd4382d7	-0.0477322
29	0xbe4eb1e8	-0.20185053
30	0xbdbdc69f	-0.092663996
31	0xbda92d19	-0.08260555

bn2.running_mean f4 [32]
0	0x4014e4c3	2.3264625
1	0xbded480c	-0.115860075
2	0xc0087f69	-2.1327765
3	0xbf65b849	-0.8973432
4	0xbffe0b70	-1.984724
5	0xc016722e	-2.350719
6	0xc0562190	-3.3457985
7	0xc00b1390	-2.173069
8	0x3fb43b64	1.4080625
9	0xbf9c3e26	-1.2206466
10	0xc01d9fd9	-2.4628813
11	0xbf41172e	-0.75425994
12	0xbf968796	-1.1760128
13	0xbfd65e60	-1.6747551
14	0xbea67d2f	-0.32517383
15	0x3db26503	0.08710673
16	0xbfcead3d	-1.6146618
17	0x3f0325e3	0.51229686
18	0xc04ba085	-3.1816723
19	0x3fc97b95	1.5740839
20	0xbfa78318	-1.3086882
21	0x3f6bbf82	0.9208909
22	0x3fd3d0f2	1.654814
23	0x3cdcebe4	0.02696795
24	0xbf63e44b	-0.8902022
25	0x3fb72cec	1.4310584
26	0xbfce22ad	-1.6104332
27	0xbffccaeb	-1.9749426
28	0xbf3ef0bb	-0.74586076
29	0x3f904c81	1.1273347
30	0xbe280533	-0.16408233
31	0x3fc57f6b	1.542951

bn2.running_var f4 [32]
0	0x408260c9	4.0743146
1	0x4068ba21	3.6363604
2	0x4065549f	3.5832899
3	0x4057a3ac	3.3693647
4	0x40566751	3.350056
5	0x4046e7b2	3.1078916
6	0x400abac8	2.1676502
7	0x3febcf55	1.8422648
8	0x4031d87b	2.778838
9	0x40a80045	5.250033
10	0x40043ff2	2.066403
11	0x3fe4402f	1.7832087
12	0x400462ad	2.0685227
13	0x4100a48b	8.040172
14	0x3f89a9ef	1.0754985
15	0x408fadea	4.4899797
16	0x3fc7a715	1.5597864
17	0x402cefb4	2.7021303
18	0x407f84ae	3.9924731
19	0x4024d2c3	2.5753639
20	0x4027eff4	2.6240206
21	0x403e48ca	2.9731927
22	0x4054d133	3.3252685
23	0x3fdcd541	1.725258
24	0x4066a256	3.6036582
25	0x40a28ed6	5.079936
26	0x4084c029	4.148457
27	0x3fb62928	1.423131
28	0x4032928e	2.790195
29	0x3fef49e7	1.8694428
30	0x408c9ef8	4.3944054
31	0x4047af52	3.1200757

conv3.weight f4 [64, 32, 3, 3, 3]
0	0xbd1a57e5	-0.03768148
1	0xbc35a905	-0.011087661
2	0xbd0470ec	-0.032334253
3	0xbc85e55a	-0.016344715
4	0xbc946ab4	-0.018117286
5	0xbd361aaf	-0.04445904
6	0xbd1be042	-0.038055666
7	0xbcecc53d	-0.028902644
8	0xbb8d0a28	-0.0043041892
9	0xbcab087e	-0.020878073
10	0xbd44cec3	-0.048048746
11	0xbd6b89d8	-0.057504505
12	0xbcd73afd	-0.026273245
13	0x3932b5b6	0.00017043095
14	0xbd35fe7a	-0.04443214
15	0x3c301f89	0.010749706
16	0xbc50632a	-0.012718955
17	0xbcf3a170	-0.029740065
18	0xbd244109	-0.040101085
19	0xbd206ba0	-0.03916514
20	0xbaabb685	-0.001310066
21	0xbc832f0d	-0.016013646
22	0x3b9ef22b	0.004850646
23	0x3c23c452	0.009995537
24	0xba937e07	-0.0011252769
25	0xbcbd0477	-0.023073418
26	0xbd5196b7	-0.051169124
27	0xbccfe5fa	-0.025378216
28	0xbc83443d	-0.01602375
29	0x3c60ea10	0.01372768
30	0xbba849a3	-0.0051357313
31	0xbb737315	-0.0037147452
32	0xbcf8c1a6	-0.030365776
33	0x39d99859	0.00041502973
34	0xbd09656a	-0.03354398
35	0xbd5491cc	-0.051896855
36	0xbb115427	-0.0022175403
37	0xbb189e6a	-0.0023287782
38	0xbcba3672	-0.02273104
39	0xbd262dab	-0.040570896
40	0x3b1ede0c	0.0024241237
41	0xbd347a5c	-0.044062003
42	0x3bd02214	0.0063517187
43	0x3a836a3d	0.0010026168
44	0xbcd0a431	-0.025468918
45	0xbd10544c	-0.03523664
46	0x3b2ba5ae	0.0026191282
47	0xbcfd13f0	-0.030893296
48	0x3c221a70	0.0098939985
49	0xbcc3e814	-0.023914374
50	0xbd1dfc9e	-0.038570993
51	0x3c6ad4dd	0.014332977
52	0xbc0ea9ae	-0.008707447
53	0xbd281e8e	-0.041044764
54	0x39dfaf15	0.0004266432
55	0x3acfcf17	0.0015854564
56	0x3ca0336d	0.019555772
57	0x3cf7862b	0.030215343
58	0x3b30e7f4	0.0026993724
59	0x3cf7d5d2	0.030253325
60	0x3c26b426	0.010174787
61	0xbcd60bfd	-0.026128763
62	0xbbe06553	-0.0068480163
63	0x3b24df82	0.0025157635
64	0x36c8bf56	5.982739e-06
65	0xbc8a8df6	-0.016913395
66	0xbb70372c	-0.0036653979
67	0xbd05c0cc	-0.03265457
68	0x3be2fcc2	0.0069271037
69	0xbd2e9fa9	-0.042632733
70	0x3ca99272	0.020699713
71	0x3c1bdaa4	0.009512577
72	0xbb6565ab	-0.0035003226
73	0x3d06f467	0.032947924
74	0x3d021e11	0.031766955
75	0xbc2df131	-0.010616587
76	0x3adb2345	0.0016718885
77	0x3cef47a7	0.029208971
78	0x3c074357	0.008255801
79	0xbc95ed4e	-0.018301632
80	0x3c1d9010	0.009616867
81	0xbd08eed1	-0.033430878
82	0xbcc5a475	-0.02412627
83	0xbd388d05	-0.04505636
84	0xbd455b64	-0.04818286
85	0xbc4cbc77	-0.012496105
86	0xbc31e6b3	-0.010858226
87	0xbd054398	-0.032535166
88	0xbd9bc595	-0.07606045
89	0xbd401e24	-0.046903744
90	0xbd418fa5	-0.04725613
91	0xbcae74c9	-0.021295922
92	0xbc36d64d	-0.011159492
93	0xbce3d2d7	-0.027810497
94	0xbc38d93e	-0.011282263
95	0xbcd25178	-0.025673613
96	0xbc321f86	-0.010871774
97	0xbc915fba	-0.017745841
98	0xbd48eaab	-0.04905192
99	0xbc4e03a4	-0.01257411
100	0xbd7b2a7f	-0.061319824
101	0xbc403740	-0.011731923
102	0xb9c29277	-0.00037111688
103	0xbbb84e7b	-0.00562459
104	0xbcc9f09c	-0.024650864
105	0xbd624c1c	-0.055248365
106	0xbd84539c	-0.0646126
107	0xbd69c614	-0.057073668
108	0xbd31b1c4	-0.04338242
109	0xbb476fea	-0.0030431696
110	0xbd2e9e77	-0.042631593
111	0xbd4cf20a	-0.050035514
112	0xbd15d2d8	-0.03657803
113	0xbcf657f9	-0.030071246
114	0xbcfa9ee4	-0.030593343
115	0xbb6cca6d	-0.0036131397
116	0xbc6b880a	-0.014375696
117	0xbd74dd14	-0.05978115
118	0xbc238f7d	-0.009982941
119	0xbd537fc1	-0.051635507
120	0xbd67bbb8	-0.056575507
121	0xbd371721	-0.04469979
122	0xbd1ea466	-0.038731
123	0xbcef457f	-0.029207943
124	0xbbac1a3c	-0.005252151
125	0xbd3d2e3f	-0.04618668
126	0xbce13a5c	-0.027493648
127	0xbd86139a	-0.065467075
128	0xbd0467f8	-0.032325715
129	0xbd2e2bbc	-0.042522177
130	0xbd09162b	-0.033468407
131	0xbd6025ab	-0.054723423
132	0xbcfb5f77	-0.03068517
133	0xbd56e7ea	-0.052467264
134	0xb948724a	-0.00019116062
135	0xbd483d08	-0.04888633
136	0xbd2317cd	-0.03981762
137	0xbd807377	-0.06272023
138	0xbd5744cd	-0.052555848
139	0xbd4ec2e8	-0.050478846
140	0xbc8f24f2	-0.017473672
141	0xbd461fa9	-0.048370037
142	0xbc14c2f9	-0.009079688
143	0xbcc6ca7d	-0.024266476
144	0xbd6da5b1	-0.058019344
145	0xbc729abf	-0.014807402
146	0xbd3b1bc8	-0.04568079
147	0xbd81f306	-0.06345181
148	0xbd647ddf	-0.055784103
149	0xbd0d8c56	-0.034557663
150	0xbd6be8a2	-0.057594903
151	0x3bab60ce	0.005230046
152	0xbbc9a96d	-0.0061542303
153	0xbd0e5b1c	-0.034754857
154	0xbd0bd673	-0.03414006
155	0xbc8c54cb	-0.017130276
156	0xbbb06599	-0.005383205
157	0xbd256c93	-0.040386748
158	0xbb95b334	-0.004568482
159	0xbd33103d	-0.043716658
160	0xbcfd46eb	-0.030917605
161	0x3cbe0dde	0.023199972
162	0x3a82c900	0.0009978116
163	0xbcafd043	-0.021461612
164	0x3bb56453	0.005535641
165	0x3a4f616e	0.00079109415
166	0x3ccd8b21	0.025090756
167	0xbce92d28	-0.028463915
168	0xbb1e49f6	-0.002415297
169	0xbc986a71	-0.018605443
170	0xbcf2512d	-0.029579723
171	0xbb17b345	-0.0023147624
172	0xbce7b9a2	-0.028286759
173	0xbc9a8657	-0.018862886
174	0xbd1cc823	-0.038276803
175	0xbd205641	-0.039144758
176	0xbcb3410e	-0.021881606
177	0xba4ec397	-0.00078874215
178	0xbca6a522	-0.020342413
179	0x3a7e2dd4	0.000969616
180	0x3d085aca	0.03328971
181	0xbcd971b6	-0.02654348
182	0x3c8bd5a8	0.017069653
183	0x3c67f406	0.014157301
184	0x3caaf087	0.020866646
185	0xbc41fdea	-0.011840323
186	0xbbffa527	-0.00780167
187	0xbbb3548a	-0.0054727243
188	0x3cbc5fe9	0.022994952
189	0xbbc1af00	-0.005910754
190	0xbbf18ce4	-0.007371532
191	0x3b1f4230	0.0024300925
192	0x3a6877f7	0.0008867974
193	0x3bdd1618	0.0067470185
194	0x3c9b303c	0.018943898
195	0x3b9da210	0.004810579
196	0xbbeafa7e	-0.0071709743
197	0xbcde6601	-0.027148249
198	0x3d39c633	0.045355033
199	0x3b955fe8	0.004558552
200	0x3c487a2a	0.012236157
201	0xba450181	-0.0007515178
202	0x3ce2df9e	0.02769452
203	0x3aa54864	0.0012610075
204	0xbc060466	-0.00817976
205	0xbcbc6d8b	-0.023001453
206	0x3d374da0	0.044751763
207	0x3bd5ad75	0.006520922
208	0x3cd9ae9a	0.026572514
209	0x3d1e67ed	0.03867333
210	0x3ccbfabc	0.024899833
211	0x3ce8ee99	0.028434085
212	0x3d220142	0.03955198
213	0xbd0537ea	-0.032524027
214	0x3b881c12	0.004153737
215	0xbcac21f3	-0.021012282
216	0xbcd95345	-0.026528964
217	0x3c12a709	0.008950957
218	0xbcbfc3ee	-0.023408856
219	0xbc9bc269	-0.0190136
220	0xbc010872	-0.007875549
221	0xbcdbd80c	-0.026836418
222	0xbccc1833	-0.024913883
223	0xbb23f875	-0.0025019918
224	0xbccff56d	-0.025385583
225	0xbcbff811	-0.023433717
226	0xbb7c1e67	-0.003847027
227	0xbd3a6718	-0.045508474
228	0xba93b70c	-0.0011269762
229	0xbd1973f5	-0.0374641
230	0xbd832d73	-0.06405153
231	0xbcac3224	-0.021020003
232	0xbd2bcdcd	-0.041944314
233	0xbcf8a84e	-0.030353691
234	0xbc8582dd	-0.016297752
235	0xbce4310c	-0.027855419
236	0xbd667214	-0.056261137
237	0xbcb90863	-0.022587007
238	0xbd53207b	-0.051544648
239	0xbbe2494f	-0.0069057117
240	0xbd4b206c	-0.049591467
241	0xbd2bc821	-0.041938905
242	0xbce20809	-0.027591722
243	0x3d8866ed	0.066602565
244	0x3c94a9b9	0.018147336
245	0x3d956662	0.072949186
246	0x3c442eda	0.011974061
247	0x3d365900	0.04451847
248	0x3baf6cde	0.005353554
249	0x3ba98240	0.0051729977
250	0x3d291d3e	0.041287653
251	0x3d29b7d2	0.04143507
252	0x3c00d903	0.00786424
253	0x38f1aa7e	0.00011523532
254	0x3cbf43b4	0.023347713
255	0xbaf83bcb	-0.0018938718

conv3.bias f4 [64]
0	0x3c7320a4	0.014839325
1	0x3ca2ad6a	0.01985808
2	0xbce0b180	-0.027428389
3	0x3b682dc3	0.0035427667
4	0x3c6457bf	0.013936936
5	0x3d1aec1d	0.03782283
6	0x3c22cc29	0.009936371
7	0x3b8752ed	0.0041297586
8	0xbcf99301	-0.030465605
9	0xbc07a224	-0.008278403
10	0x3c237de4	0.009978745
11	0x3d01fa3d	0.031732786
12	0xbd150b29	-0.036387596
13	0x3cb47288	0.022027269
14	0x3aa7f163	0.0012813028
15	0xba8c22a2	-0.0010691474
16	0xbd1c050d	-0.038090754
17	0x3bfe1bff	0.0077548022
18	0xbcc675ce	-0.024226096
19	0xbb828025	-0.003982561
20	0xbbec99eb	-0.007220497
21	0x3ca03f2b	0.01956137
22	0xbb55631f	-0.0032560301
23	0xbcda7cf6	-0.026670914
24	0x3cf52e30	0.02992925
25	0x3d0a253e	0.033726923
26	0x3c4a3711	0.01234223
27	0xbc97ceca	-0.018531222
28	0x3ad48f95	0.0016217107
29	0x3b855251	0.004068651
30	0x3cb6a6f8	0.022296414
31	0x3d0e8cd9	0.03480229
32	0x3ce6bd53	0.028166449
33	0xbc528e11	-0.012851254
34	0xbbceb930	-0.006308697
35	0xbc0a77da	-0.008451426
36	0x3d081eed	0.033232618
37	0x3d0e4686	0.034735225
38	0x3b277ee1	0.0025557803
39	0xbc07205b	-0.00824746
40	0x3c14ae51	0.009074763
41	0xbc879336	-0.016549688
42	0x3d023f32	0.03179855
43	0xbcb2dbe0	-0.02183336
44	0xbc463e99	-0.012099885
45	0xbce041b0	-0.027375072
46	0xbc90f2ec	-0.01769396
47	0xbbd6bc43	-0.0065532043
48	0x3acab40b	0.0015465034
49	0x3ceb7792	0.028743539
50	0xbca6f819	-0.020381974
51	0xbca56029	-0.020187454
52	0x3b62f7d2	0.0034632576
53	0xbc9e19b3	-0.019299364
54	0xbb05c3ab	-0.0020410817
55	0x3d6f27d3	0.05838759
56	0xbcbfadcb	-0.0233983
57	0xbd22c6f4	-0.039740518
58	0x3d0483a5	0.03235211
59	0xbcb00341	-0.021485927
60	0xbcf59010	-0.02997592
61	0xbc5f4d5c	-0.013629284
62	0xbcc5873d	-0.024112338
63	0xbca7ed87	-0.020499004

bn3.weight f4 [64]
0	0x3fa20819	1.2658721
1	0x3f9fc7a2	1.2482798
2	0x3f98b5be	1.1930463
3	0x3fa1783f	1.2614821
4	0x3f9e86c7	1.2384881
5	0x3f9b5738	1.2135992
6	0x3f9241ab	1.142629
7	0x3f98f5a3	1.1949962
8	0x3f98aa4b	1.1926969
9	0x3f9dca58	1.2327375
10	0x3f928fef	1.1450175
11	0x3fa24a41	1.267891
12	0x3f9e2cc5	1.2357413
13	0x3fa02cf3	1.2513717
14	0x3f9c1f4b	1.219705
15	0x3f977337	1.1832036
16	0x3fa0a190	1.2549305
17	0x3fa32e7e	1.2748563
18	0x3fa1c97a	1.2639611
19	0x3fa1c8c1	1.263939
20	0x3f9af893	1.2107109
21	0x3f978b38	1.1839361
22	0x3fa1d7a1	1.264393
23	0x3fa2046b	1.2657598
24	0x3fa00d2b	1.2504019
25	0x3fa484b9	1.2853004
26	0x3fa05380	1.2525482
27	0x3f90c8d8	1.1311293
28	0x3f9d0a2a	1.2268727
29	0x3fa0f7f2	1.2575667
30	0x3fa3361c	1.2750888
31	0x3f94e43d	1.1632153
32	0x3f9a662a	1.2062428
33	0x3fa0e51f	1.2569922
34	0x3fa2591d	1.2683445
35	0x3fa3e380	1.2803802
36	0x3fa07d29	1.2538196
37	0x3fa3f194	1.2808099
38	0x3faf8c04	1.3714604
39	0x3fa23beb	1.2674536
40	0x3fa26e06	1.2689826
41	0x3f99f1fa	1.202697
42	0x3f910a07	1.1331185
43	0x3f9f5cd5	1.2450205
44	0x3f9fbd6d	1.2479683
45	0x3f9f991b	1.2468599
46	0x3fa15004	1.2602544
47	0x3fa0ba7c	1.255691
48	0x3f9c7020	1.2221718
49	0x3f9e487f	1.2365874
50	0x3f9a7bed	1.2069069
51	0x3f94dc1a	1.162967
52	0x3f9fd98e	1.2488267
53	0x3fa43b37	1.2830571
54	0x3fa2b797	1.2712277
55	0x3fa30786	1.2736671
56	0x3fab67db	1.3391069
57	0x3f94a7aa	1.1613667
58	0x3f9eefb4	1.2416902
59	0x3f97f9e5	1.1873137
60	0x3fa0a8a4	1.2551465
61	0x3f98987c	1.1921535
62	0x3f9bfefd	1.2187191
63	0x3f9b5e7a	1.2138207

bn3.bias f4 [64]
0	0x3e1fff87	0.1562482
1	0x3e125e8b	0.14293878
2	0x3db092a8	0.086217225
3	0x3e182548	0.14857972
4	0x3e4fb5b5	0.2028416
5	0x3e163281	0.14667703
6	0x3dc31417	0.09525316
7	0x3df688c1	0.120378025
8	0x3de3ef6b	0.1112965
9	0x3e2bb527	0.16768323
10	0x3dffb0fb	0.12484928
11	0x3e41e64f	0.18935512
12	0x3e35433b	0.17701428
13	0x3e09ae40	0.13445377
14	0x3dd49c63	0.10381391
15	0x3dbff9e0	0.09373832
16	0x3e2a78b6	0.1664761
17	0x3e30661c	0.17226452
18	0x3e51b9d4	0.20481044
19	0x3e00bd35	0.12572177
20	0x3e12a158	0.1431936
21	0x3e0822cd	0.13294525
22	0x3e2bce66	0.16777954
23	0x3e08d47d	0.13362308
24	0x3e3806bb	0.17971317
25	0x3e4bee0e	0.1991503
26	0x3e33255b	0.17494719
27	0x3d8aea37	0.06782954
28	0x3e22d478	0.15901363
29	0x3e540cc4	0.20707995
30	0x3e249060	0.160707
31	0x3d4c6a1e	0.04990589
32	0x3e217fdf	0.15771435
33	0x3e582c69	0.21110691
34	0x3e484c46	0.19560346
35	0x3e551a68	0.20810854
36	0x3e2f31e9	0.17108883
37	0x3e555426	0.20832881
38	0x3e867713	0.2626272
39	0x3e313cc1	0.17308332
40	0x3e370944	0.17874628
41	0x3e1a117b	0.15045731
42	0x3dc8fd4f	0.0981394
43	0x3e4838cd	0.19552918
44	0x3e3cc54f	0.18434642
45	0x3e2b4e20	0.16729021
46	0x3e1bec66	0.15226898
47	0x3e3e8b49	0.1860782
48	0x3e549112	0.20758465
49	0x3e2f5c1d	0.17124982
50	0x3de04a17	0.109516315
51	0x3d0849e1	0.03327358
52	0x3e3430f3	0.17596798
53	0x3e66fc04	0.22557074
54	0x3e1e4f21	0.15459873
55	0x3e308b83	0.1724072
56	0x3e8aa686	0.27080172
57	0x3dd76005	0.10516361
58	0x3e146b5b	0.14494078
59	0x3e0687d6	0.13137755
60	0x3e1e646a	0.15467992
61	0x3e10187e	0.14071843
62	0x3e205ac3	0.15659623
63	0x3e00672d	0.12539358

bn3.running_mean f4 [64]
0	0xbfebfaee	-1.8435953
1	0x3cfa7686	0.030574095
2	0x3f7f1eb8	0.9965625
3	0x3ddae7e0	0.10688758
4	0xc0098980	-2.1490173
5	0x3fe0270f	1.751192
6	0x3f8930a8	1.0717974
7	0x3feda084	1.856461
8	0x3f16cff6	0.58911073
9	0x401ae5e6	2.420282
10	0x3f4cf1cf	0.8005647
11	0x4017ce3b	2.3719623
12	0xbfdc8d76	-1.723067
13	0xc00a9f14	-2.1659594
14	0xbfae5ef0	-1.3622723
15	0xc00780a0	-2.1172256
16	0x400b5a54	2.1773882
17	0xbe1f3d9a	-0.15550843
18	0x3fa97e26	1.3241622
19	0xbf99e547	-1.2023095
20	0x3fb8ea5a	1.4446518
21	0xbfc600e8	-1.5469027
22	0xbee4ca0c	-0.446854
23	0x3fa65d09	1.2997142
24	0x3f10ff1d	0.5663927
25	0xbf187bcc	-0.595639
26	0xc011eaf8	-2.2799664
27	0x3f79ac02	0.9752809
28	0x3f89587e	1.0730131
29	0x3fc38c2c	1.5277152
30	0xbf786cf6	-0.9704126
31	0x3f9b29a0	1.2122078
32	0x402211b7	2.5323312
33	0xbd7b8c54	-0.061413124
34	0x3f637d4e	0.88863075
35	0x3fa0ad4b	1.2552885
36	0x3eccccd1	0.40000013
37	0xc0225edc	-2.5370398
38	0x3efbcf48	0.4918158
39	0xc00d20c7	-2.2051256
40	0x3fda6004	1.7060552
41	0x400cba30	2.198864
42	0x3f296672	0.66171944
43	0x3feb54a6	1.8385208
44	0x3fdf24e8	1.7433138
45	0x3fb319f5	1.3992296
46	0xbf76aa8f	-0.96354
47	0x401c1a91	2.4391215
48	0xbfc74237	-1.5567082
49	0xc01145fa	-2.269896
50	0x3f9f73a2	1.2457163
51	0xc00a0eaf	-2.1571462
52	0x40192274	2.3927279
53	0xc05a622c	-3.412242
54	0x3f4264c6	0.7593502
55	0x3ec7a49e	0.3899278
56	0x3ff22454	1.8917336
57	0x3e69ca08	0.22830975
58	0x3e77d4eb	0.24202316
59	0x3f471369	0.7776399
60	0x3f95e690	1.1710987
61	0x40263801	2.5971682
62	0x4019a4ba	2.400679
63	0x3f085d05	0.53266937

bn3.running_var f4 [64]
0	0x40214a90	2.520176
1	0x408c89ca	4.39182
2	0x40017daf	2.023296
3	0x4046e5a8	3.107767
4	0x407ddf66	3.9667602
5	0x400d8313	2.2111251
6	0x40175cc1	2.3650362
7	0x4085bed6	4.1795454
8	0x404f74d2	3.2415051
9	0x4014fbf2	2.3278775
10	0x4053ea74	3.311185
11	0x4017b8e0	2.3706589
12	0x402367b0	2.5532036
13	0x3fec0e94	1.8441949
14	0x3fd7db41	1.6863786
15	0x400700bf	2.1094205
16	0x4050ac21	3.260506
17	0x4022fa01	2.546509
18	0x400e5a52	2.2242627
19	0x40084453	2.1291702
20	0x3fd0c567	1.6310242
21	0x40146811	2.3188517
22	0x4082eadc	4.0911694
23	0x4018e3f0	2.3889122
24	0x409212e6	4.564807
25	0x4005d413	2.091069
26	0x400834f8	2.128233
27	0x402ef975	2.7339756
28	0x40020791	2.0317118
29	0x3feba0ef	1.8408488
30	0x401d4374	2.457242
31	0x3fbd9305	1.4810492
32	0x4015b302	2.3390508
33	0x3f922127	1.1416367
34	0x3ff23300	1.8921814
35	0x40c76b5d	6.231856
36	0x3fc4d8e2	1.5378687
37	0x3ffd53b2	1.9791167
38	0x401cc0a7	2.4492586
39	0x3fe4611f	1.7842139
40	0x3fd7b260	1.6851311
41	0x3fece620	1.8507729
42	0x3fbc9db7	1.4735631
43	0x4033f982	2.8121037
44	0x3fdbb597	1.7164792
45	0x405ca13e	3.4473414
46	0x402f7539	2.7415297
47	0x404dfe9e	3.2186656
48	0x4083f846	4.124057
49	0x40871771	4.2216115
50	0x4015c14f	2.3399236
51	0x3ff684d1	1.9259282
52	0x402bac87	2.6824052
53	0x40556ce7	3.3347719
54	0x402df238	2.7179089
55	0x3ff6deee	1.9286783
56	0x40029ddf	2.0408857
57	0x3fbb53d9	1.4634963
58	0x4065fb1a	3.593451
59	0x4033a289	2.8067954
60	0x3fafa398	1.37218
61	0x401ab936	2.4175544
62	0x400ee857	2.232931
63	0x400fd9fa	2.2476792

fc.weight f4 [14, 64]
0	0xbd9cf49b	-0.07663842
1	0xbcf1539b	-0.029458812
2	0xbd8092a1	-0.06277967
3	0xbd134ef1	-0.035963956
4	0xbe8891e4	-0.26673806
5	0xbe554832	-0.20828322
6	0xbe5988cf	-0.21243595
7	0x3c8c5113	0.017128503
8	0xbe03d8ec	-0.12875718
9	0xbe3b2b00	-0.18278122
10	0xbd96a852	-0.07356323
11	0x3d577d17	0.05260953
12	0x3dc1cd4f	0.09462988
13	0xbe0e0704	-0.13869864
14	0xbd3de10c	-0.0463572
15	0x3d198d1c	0.037488088
16	0xbce93321	-0.028466763
17	0xbe43535b	-0.19074766
18	0xbd949346	-0.07254653
19	0xbe426aac	-0.18986005
20	0xbdd67afc	-0.10472676
21	0xbe2f78cf	-0.17135929
22	0xbe67e05b	-0.22644179
23	0x3dca2935	0.09871141
24	0xbd2dedea	-0.04246322
25	0x3df51c32	0.119682685
26	0xbe2c3d63	-0.16820292
27	0x3d0eab01	0.03483105
28	0x3d1ef85e	0.03881108
29	0xbd52e154	-0.05148442
30	0x3e37000b	0.1787111
31	0xbc015e51	-0.007896022
32	0xbd2ada6a	-0.041712202
33	0xbc8dc575	-0.017306069
34	0x3d86fdb2	0.06591357
35	0x3b84f6cb	0.0040577403
36	0xbc8006d1	-0.01562825
37	0xbdcce420	-0.10004449
38	0x3e53f18f	0.20697616
39	0xbdc9e4a5	-0.098580636
40	0xb9611cb3	-0.00021468363
41	0x3c51158e	0.012761487
42	0x3d4ae58d	0.049535323
43	0xbe8fcf77	-0.2808797
44	0x3dfe0812	0.12403883
45	0xbdeeec77	-0.11666196
46	0xbe293f00	-0.16527939
47	0xbe1014e4	-0.14070469
48	0xbe792d54	-0.24333698
49	0xbd1db08d	-0.03849845
50	0xbe01042a	-0.12599245
51	0xbe03043d	-0.12794586
52	0xbd643db7	-0.05572292
53	0xbdfed70e	-0.12443362
54	0xbd13a4b7	-0.036045756
55	0xbd138eff	-0.036025044
56	0xbc2bb10d	-0.010479224
57	0x3d404b55	0.046946842
58	0xbe445065	-0.19171293
59	0xbe4b4e20	-0.19854021
60	0x3db9f626	0.09080152
61	0x3d27dc11	0.040981356
62	0xbddc602f	-0.10760533
63	0xbe3c13d2	-0.18366936
64	0xbe30b1e1	-0.17255355
65	0xbe533467	-0.20625459
66	0x3d013125	0.03154101
67	0xbe803342	-0.25039107
68	0xbe5b00e7	-0.21387063
69	0xbe8eaa8e	-0.27864498
70	0xbd7966e6	-0.060889147
71	0xbe2445a3	-0.1604219
72	0xbd06ef5c	-0.032943115
73	0x3dec79c2	0.11546661
74	0xbe085702	-0.13314441
75	0xbe472e1f	-0.19451188
76	0xbe60aed4	-0.21941692
77	0xbe11deea	-0.14245191
78	0xbd58e03f	-0.052948233
79	0xbd9d16c4	-0.07670358
80	0xbdb3cab3	-0.08778896
81	0xbea09766	-0.31365508
82	0xbe8a25f8	-0.26982093
83	0xbe4cb153	-0.19989519
84	0xbe6ae3a8	-0.22938406
85	0xbe05dfa6	-0.13073596
86	0xbe473ae9	-0.19456066
87	0x3de89d96	0.11358182
88	0xbe445713	-0.19173841
89	0xbe3d2e60	-0.18474722
90	0xbe557de9	-0.20848812
91	0xbd88e7bd	-0.066848256
92	0xbdbe5ab6	-0.092946455
93	0xbe5938a4	-0.21213013
94	0xbe5ce28a	-0.21570793
95	0xba5c0e7b	-0.0008394492
96	0x3c318956	0.010835966
97	0xbb8d6f7d	-0.004316269
98	0xbd343f4b	-0.044005673
99	0x3d77f54c	0.060536668
100	0xbe3bfd8a	-0.18358436
101	0xbe4165da	-0.1888651
102	0x3c8c7ee2	0.017150346
103	0xbe8db2c9	-0.27675465
104	0x3e414bd7	0.18876587
105	0xbd940ccb	-0.072290026
106	0x3e11574d	0.14193459
107	0x3df529af	0.11970841
108	0xbce673ea	-0.028131444
109	0xbd9a1551	-0.07523597
110	0xbe565bb0	-0.20933414
111	0xbe3ccecf	-0.18438266
112	0xbdf894f6	-0.12137787
113	0xbe854419	-0.26028517
114	0x3ccb5e78	0.02482532
115	0xbd739d3f	-0.059476133
116	0xbe5890a8	-0.21148932
117	0xbe2f2f1a	-0.17107812
118	0x3e0e6037	0.1390389
119	0xbe966c09	-0.293793
120	0x3e1800f4	0.14844114
121	0xbdd6af8e	-0.10482703
122	0xbe34cfdd	-0.17657419
123	0xbd8decc2	-0.069299236
124	0xbe1ab9a8	-0.15109885
125	0x3d735e79	0.059416268
126	0x3dd023bc	0.10163066
127	0xbe780de1	-0.24224044
128	0xbcf844ba	-0.030306209
129	0xbe9af7b6	-0.30267113
130	0x3da6c7cf	0.08143579
131	0xbe2329bc	-0.15933889
132	0xbed1a736	-0.40947884
133	0xbd0742a7	-0.03302255
134	0xbe6e9fb0	-0.23303103
135	0xbd5c60b1	-0.05380315
136	0xbe56a9a3	-0.20963149
137	0xbbd41faa	-0.006473501
138	0xbe7927c9	-0.24331583
139	0x3920f404	0.00015349692
140	0x3d8c3b36	0.06847231
141	0xbe17fe3d	-0.14843078
142	0xbe53e46a	-0.20692602
143	0xbd92cd44	-0.071680576
144	0xbbd5aacd	-0.006520605
145	0xbe96555a	-0.29361993
146	0x3e38aced	0.18034716
147	0xbe411158	-0.18854272
148	0x3de29a3e	0.110645756
149	0xbe6dd8e8	-0.23227274
150	0xbe68a58f	-0.22719406
151	0x3db77738	0.08958286
152	0xbe9c6fb6	-0.3055398
153	0x3e478dae	0.1948764
154	0xbe96fc30	-0.2948928
155	0xbe159a1e	-0.14609572
156	0x3e58fa8d	0.21189328
157	0x3ceabeb0	0.02865538
158	0x3d904e77	0.07046216
159	0xbce0efef	-0.02745816
160	0xbca7970a	-0.020457763
161	0x3c95612b	0.01823481
162	0x3e6c19a1	0.23056652
163	0x3e22bf6e	0.15893337
164	0x3d855f28	0.0651229
165	0xbe1c69f4	-0.15274793
166	0x3e8117ba	0.25213414
167	0xbe09053c	-0.13380903
168	0xbc299954	-0.010351498
169	0x3d3792fa	0.044817902
170	0xbd62e90e	-0.05539804
171	0xbe5cbccf	-0.215564
172	0x3e1d4c79	0.15361203
173	0xbe9a6a8a	-0.30159408
174	0xbe164208	-0.14673626
175	0xbd8c3c6f	-0.06847464
176	0xbe0f2900	-0.13980484
177	0xbe7d4e89	-0.2473699
178	0xbe028edc	-0.12749809
179	0xbcaae919	-0.020863103
180	0xbe0cceaf	-0.13750719
181	0xbe832cac	-0.2562002
182	0x3b7f3198	0.0038939472
183	0xbdeb8038	-0.11499065
184	0x3e3a1892	0.18173435
185	0xbd0846e8	-0.033270746
186	0xbe9f22ad	-0.31081143
187	0xbe336251	-0.17517973
188	0x3deec3e7	0.11658459
189	0x3db4027c	0.08789536
190	0xbce4c457	-0.027925653
191	0xbe442c29	-0.19157471
192	0xbe0273a2	-0.12739423
193	0xbe30bc36	-0.17259297
194	0xbd9ffe57	-0.07812183
195	0xbd2a8341	-0.04162908
196	0xbcdcb882	-0.026943449
197	0xbdda9d3b	-0.106745206
198	0xbe527e7a	-0.2055606
199	0xbe494822	-0.19656423
200	0xbd1d9096	-0.038467966
201	0x3d197abe	0.03747057
202	0xbe000094	-0.1250022
203	0x3cc9a64e	0.024615433
204	0x3cfa56ba	0.030558933
205	0x3dc3e97a	0.095660165
206	0xbdfc8d35	-0.123316206
207	0xbc462793	-0.012094396
208	0xbdbbe960	-0.09175372
209	0xbcbfbd3b	-0.023405662
210	0xbdafda5f	-0.08586573
211	0x3cf07c8e	0.029356267
212	0xbe266012	-0.16247585
213	0xbd292f1e	-0.0413047
214	0xbe6c0dd9	-0.23052157
215	0xbe220802	-0.15823367
216	0xbe385d9e	-0.18004462
217	0x3d0c0fe7	0.034194853
218	0x3ca08018	0.01959233
219	0xbd817d5a	-0.06322737
220	0xbd8d3670	-0.06895149
221	0xbc12a1fd	-0.008949754
222	0xbbdd4668	-0.006752778
223	0xbcdf64f3	-0.027269816
224	0xbdefbab8	-0.11705536
225	0xbc1b8a3a	-0.009493405
226	0xbe088fe4	-0.1333614
227	0x3d7c60be	0.061615698
228	0xbd2adcd1	-0.041714493
229	0xbc6c7dae	-0.014434261
230	0xbd25be29	-0.040464554
231	0xbd85044e	-0.06494962
232	0xbdb947f2	-0.090469256
233	0xbdf1f27e	-0.1181383
234	0xbd494667	-0.049139407
235	0xbe440fc4	-0.19146639
236	0xbdd40dd8	-0.10354203
237	0xbdbab55e	-0.09116624
238	0xbe06b739	-0.13155831
239	0xbe4f8c55	-0.20268376
240	0xbe5f0746	-0.21780118
241	0xbe2fd3a0	-0.17170572
242	0xbde933af	-0.11386811
243	0x3d84881f	0.064712755
244	0xbe504f99	-0.20342864
245	0xbe3a48d8	-0.1819185
246	0x3ccd873b	0.025088897
247	0xbc2efaec	-0.010679942
248	0xbe3b8545	-0.18312557
249	0xbb1662bd	-0.0022947036
250	0xbc912169	-0.017716127
251	0xbe1bbcb8	-0.15208709
252	0x3d86a583	0.065745376
253	0x3c23c8ce	0.009996606
254	0xbd9b24f6	-0.07575409
255	0xbe2034fb	-0.1564521

fc.bias f4 [14]
0	0x3d6d3ac3	0.057917368
1	0xbde2738f	-0.11057197
2	0x3d6aafac	0.05729644
3	0xbdff7d81	-0.1247511
4	0x3e034838	0.12820518
5	0xbdfc77f9	-0.123275705
6	0x3d9624fd	0.07331274
7	0xbcd59c89	-0.026075618
8	0x3e20188d	0.15634365
9	0x3d3704f8	0.044682473
10	0xbc40abff	-0.011759757
11	0xbda6d6a2	-0.08146407
12	0x3da2f8d8	0.079576194
13	0x3d748db3	0.059705447
