experiments/PaviaU/FPGSST/FPGSST_best.pth (torch, 916411 bytes, 64 tensors)

fpm.fc.0.weight f4 [64, 16]
0	0xbc45c520	-0.012070924
1	0x3e0a507b	0.13507263
2	0x3e379b4a	0.17930332
3	0x3c0ee1e6	0.008720851
4	0x3d989a1d	0.0745127
5	0xbe2295aa	-0.15877405
6	0x3e472ae4	0.19449955
7	0xbe816650	-0.2527337
8	0x3da39b6a	0.07988627
9	0x3cacb20a	0.02108099
10	0xbdaf1cf4	-0.08550444
11	0x3e4bacba	0.19890109
12	0xbeac6a6a	-0.33674937
13	0xbeb058f6	-0.34442872
14	0x3e8e5008	0.27795434
15	0xbe8382d4	-0.2568575
16	0x3e821c5d	0.25412264
17	0x3e184f1f	0.14873932
18	0x3da7939e	0.081824526
19	0xbd11efc4	-0.03562905
20	0xbd104bcb	-0.03522853
21	0x3dc44c81	0.095849045
22	0xbc92fd8d	-0.017943168
23	0x3dc7f46d	0.097634174
24	0x3cc5592f	0.024090378
25	0x3d8ad9b4	0.06779805
26	0x3ca89941	0.02058089
27	0x3e1f4d83	0.15556912
28	0x3dbb9fac	0.09161314
29	0x3e92d42b	0.28677496
30	0x39ba58f1	0.0003554295
31	0x3e1745d2	0.14772728
32	0xbe2796e4	-0.16366154
33	0xbd56c465	-0.05243339
34	0x3e650f43	0.22369103
35	0x3e113bcc	0.14182967
36	0x3d566bc2	0.05234886
37	0x3e9e3d97	0.30906364
38	0xbac5d8b7	-0.0015094493
39	0xbd23e12d	-0.040009666
40	0x3e0fffe2	0.14062455
41	0xbce39d20	-0.027784884
42	0x3db4366a	0.08799441
43	0x3e600598	0.21877134
44	0x3de795c0	0.113078594
45	0xbe288c9a	-0.16459885
46	0xbbce7791	-0.0063008745
47	0x3e875f9d	0.26440135
48	0xbc9c7dbf	-0.01910293
49	0xbe6f059e	-0.23341987
50	0x3e0ac9ff	0.13553618
51	0xbecc09c1	-0.39851192
52	0x3a4c0593	0.0007782813
53	0xbdff0e9a	-0.12453957
54	0xbd1dc652	-0.03851921
55	0xbd6be262	-0.057588942
56	0xbe9c1f57	-0.3049266
57	0x3dabbd7a	0.08385749
58	0x3d581f10	0.052764
59	0xbe58e06b	-0.21179359
60	0xbe958b8c	-0.29208028
61	0xbeb4612e	-0.35230392
62	0x3e3ce433	0.18446426
63	0xbe4a72a7	-0.19770299
64	0x3cd55812	0.026042972
65	0xbdfdd541	-0.123941906
66	0x3d0843e2	0.033267863
67	0xbbae759c	-0.0053240787
68	0x3e23a4c1	0.15980817
69	0x3e3fede7	0.18743096
70	0x3e684928	0.22684157
71	0x3da2c9e1	0.079486616
72	0xbe862feb	-0.26208434
73	0x3dd0be98	0.10192603
74	0x3c0f8cb2	0.008761572
75	0x3e584bad	0.21122618
76	0x3dd72c49	0.105064936
77	0xbe66e97d	-0.22550006
78	0xbe0b1316	-0.135815
79	0x3e13b011	0.14422633
80	0xbdf1fa46	-0.11815314
81	0xbe906f47	-0.28209898
82	0xbe5aebc8	-0.21379006
83	0xbe9dea3c	-0.3084277
84	0x3d97b42c	0.07407412
85	0xbc131f5f	-0.008979647
86	0xbe1bbe11	-0.15209223
87	0xbe95f493	-0.29288158
88	0xbeb6b426	-0.35684317
89	0x3cbdd2ae	0.023171749
90	0x3e657ce1	0.22410919
91	0x3dccc63c	0.09998748
92	0xbe222598	-0.15834653
93	0xbe31e3d2	-0.17372063
94	0x3c6c9818	0.014440559
95	0xbe4bb795	-0.1989425
96	0xbccb6a6d	-0.024831021
97	0x3e7050a9	0.2346827
98	0x3d8b49a3	0.068011545
99	0x3e470021	0.19433643
100	0xbc80eebb	-0.015738836
101	0xbd781dfc	-0.06057547
102	0x3e9b0e2f	0.3028426
103	0xbe68840c	-0.22706622
104	0xbe137796	-0.14401087
105	0x3dd9e677	0.10639661
106	0xbe06f5a4	-0.13179642
107	0xbdec996a	-0.11552699
108	0x3da45b1a	0.08025189
109	0x3e18f794	0.14938194
110	0x3c05983a	0.008153969
111	0x3e0fa391	0.1402724
112	0x3d488338	0.048953265
113	0xbe2dd3a3	-0.16975264
114	0x3df1d77c	0.118086785
115	0x3dc7f2a6	0.097630784
116	0x3e20cb57	0.15702568
117	0x3e248578	0.1606654
118	0xbd01a3ae	-0.031650238
119	0xbe8e3e7f	-0.27782056
120	0x3e38849a	0.18019333
121	0xbe8eb65e	-0.2787351
122	0xbd42529d	-0.047442067
123	0xbe348333	-0.17628174
124	0xbe4a8f80	-0.19781303
125	0x3e260fc4	0.16216952
126	0xbe755499	-0.23958053
127	0xbe0c78fa	-0.13718024
128	0x3c52c8d8	0.012865268
129	0xbe0b8247	-0.13623916
130	0xbea46ac2	-0.321127
131	0x3e03fcc7	0.12889396
132	0xbd8f8e74	-0.07009593
133	0xbdfa4038	-0.1221928
134	0x3cfc771f	0.03081852
135	0xbdd8ea3e	-0.10591553
136	0x3d0e1392	0.034686632
137	0xbce835f7	-0.028346045
138	0xbe7fc784	-0.24978453
139	0x3e30dd10	0.17271829
140	0xbd4a4663	-0.049383532
141	0x3daa891b	0.08326932
142	0xbc689a95	-0.0141970115
143	0x3e4c7a2b	0.19968478
144	0xbe22aad5	-0.1588548
145	0xbe8d6b48	-0.27620912
146	0xbe1ac521	-0.15114261
147	0x3cf1d27f	0.029519318
148	0xbe9d5387	-0.3072779
149	0x3c7f3a0b	0.015577803
150	0xbea2632c	-0.31716287
151	0xbeaf9f7c	-0.34301364
152	0xbeaec7fb	-0.34136948
153	0xbe033bd0	-0.12815785
154	0x3e4b0913	0.1982768
155	0xbe843081	-0.25818256
156	0xbebe269f	-0.3713884
157	0xbe9ace31	-0.30235437
158	0x3e27c565	0.16383894
159	0x3cac50d5	0.021034637
160	0x3d9d7825	0.076889314
161	0xbd977df8	-0.073970735
162	0xbd8603fd	-0.065437295
163	0xbe359d0b	-0.17735688
164	0x3ccfb7d9	0.02535622
165	0xbe8113b2	-0.2521034
166	0xbcb691b0	-0.022286266
167	0xbe2b66a6	-0.16738376
168	0xbe560160	-0.20898962
169	0x3e3f4b7b	0.18681137
170	0x3e13b978	0.1442622
171	0x3d79229b	0.060824018
172	0xbe4d86a0	-0.20070887
173	0xbea1427a	-0.3149603
174	0x3e221980	0.1583004
175	0x3e48422f	0.19556497
176	0x3df47f2b	0.11938318
177	0xbe83ea73	-0.25764808
178	0x3dc33b00	0.09532738
179	0x3e1d1c1b	0.15342753
180	0x3d86c50a	0.06580551
181	0xbe1a5dd3	-0.15074854
182	0xbe148962	-0.14505532
183	0xbd2d6939	-0.042336676
184	0xbb86d2a9	-0.004114468
185	0x3d81d2d5	0.06339041
186	0xbe278e35	-0.16362841
187	0x3e62fe1c	0.22167248
188	0x3ec8e1ec	0.39234865
189	0x3d05f050	0.032699883
190	0x3e85e7f7	0.26153538
191	0xbd95ab53	-0.07308068
192	0x3e8ab2f6	0.2708966
193	0x3ccc8472	0.024965499
194	0xbe748621	-0.23879291
195	0x3cff87f5	0.031192759
196	0xbd7a98e9	-0.061180983
197	0x3d43ac3a	0.04777167
198	0x3e89d963	0.26923665
199	0xbd5cae42	-0.053877123
200	0xbe328f2e	-0.17437431
201	0x3da8c953	0.082415245
202	0xbe81e70a	-0.2537158
203	0xbdd5e2a3	-0.10443618
204	0x3aa1787e	0.0012319235
205	0x3e47321c	0.19452709
206	0xbd21df11	-0.039519373
207	0xbe000777	-0.12502848
208	0xbcfcba3f	-0.030850528
209	0x3e351948	0.17685425
210	0xbbb60056	-0.0055542393
211	0x3e1c2f05	0.15252312
212	0xbe9ec784	-0.31011593
213	0x3c5c2985	0.013437633
214	0x3e44c3f2	0.19215372
215	0x3e472ad0	0.19449925
216	0xbc72ebe6	-0.01482675
217	0x3d750836	0.059822284
218	0x3e3d1bdf	0.18467663
219	0xbe40461b	-0.18776743
220	0xbde50c83	-0.11184027
221	0x3d685d3d	0.056729544
222	0xbd76637d	-0.060153473
223	0xbda0d5c5	-0.07853273
224	0x3dcee5c0	0.10102415
225	0xbd279851	-0.040916745
226	0x3e339598	0.17537534
227	0x3e811d34	0.25217593
228	0x3cc28782	0.023746256
229	0x3d8d6055	0.069031395
230	0xbb1e9e3d	-0.0024203204
231	0x3e66dc96	0.22545084
232	0xbdee6b89	-0.116416045
233	0xbc9e5fa6	-0.019332718
234	0xbe144dcc	-0.14482802
235	0xbd5a1b1e	-0.053248517
236	0x3ebc2287	0.36745092
237	0xbdf7d0cd	-0.121003725
238	0x3e3e24d8	0.18568742
239	0xbe017bc6	-0.12644872
240	0x3e736165	0.23767622
241	0xbe177c5d	-0.14793535
242	0xbe3ff3f6	-0.18745407
243	0xbd2974cf	-0.041371163
244	0xbe118aa8	-0.1421305
245	0xbc6cc099	-0.014450216
246	0x3e329824	0.1744085
247	0xbe8a3885	-0.26996246
248	0x3e1222dd	0.14271112
249	0xbdade75d	-0.08491395
250	0xbdd9aa52	-0.10628189
251	0xbdd073ce	-0.10178338
252	0x3e63fdcf	0.22264789
253	0xbdc23df5	-0.094844736
254	0x3e6d0a57	0.23148476
255	0x3d7e5d28	0.06210056

fpm.fc.0.bias f4 [64]
0	0xbdaa6581	-0.083201416
1	0xbe327d22	-0.17430547
2	0xbe2befa8	-0.1679064
3	0x3da2302a	0.07919343
4	0xbe0a1dc8	-0.13487923
5	0x3e56d62d	0.20980139
6	0x3d27dd18	0.040982336
7	0xbde7c7ff	-0.11317443
8	0xbdd3ee3e	-0.103481755
9	0x3e22cdd1	0.15898825
10	0x3e36b365	0.17841871
11	0xbd1189a2	-0.035531648
12	0xbe41871f	-0.18899201
13	0xbe7b551d	-0.24544187
14	0xbb9b8ca6	-0.004746991
15	0x3e807391	0.2508817
16	0x3d88f929	0.066881485
17	0xbd357bca	-0.044307508
18	0x3d39a21b	0.04532061
19	0xbd118e7a	-0.035536267
20	0x3d153b62	0.036433585
21	0xbe14dc64	-0.14537197
22	0x3e0a3b23	0.13499121
23	0xbe578ac5	-0.2104903
24	0xbe11772b	-0.14205615
25	0x3d48dcf9	0.04903886
26	0x3e3726de	0.1788592
27	0x3d482b07	0.04886916
28	0xbd2d6f00	-0.042342186
29	0x3e0a0491	0.13478304
30	0xbde2ca9e	-0.110738024
31	0xbc957479	-0.018244015
32	0x3e5e6043	0.21716408
33	0x3b84dec8	0.004054878
34	0x3e477695	0.19478829
35	0x3b9db48f	0.004812784
36	0xbe6a224e	-0.22864649
37	0xbe3ebd96	-0.18627009
38	0xbd45e10c	-0.048310325
39	0x3e0c23c7	0.13685523
40	0x3cd0e8d2	0.025501642
41	0xbcd6d363	-0.026223844
42	0xbe15dca2	-0.14634946
43	0xbe6ab791	-0.22921588
44	0x3df6cf95	0.12051312
45	0xbe204efa	-0.15655127
46	0x3e1238d5	0.14279492
47	0x3d35c33e	0.04437565
48	0xbe9032cc	-0.28163755
49	0x3ca71079	0.020393597
50	0x3d65f59d	0.05614244
51	0x3d1484a7	0.03625932
52	0x3e805fd3	0.25073108
53	0xbe1c08ba	-0.15237704
54	0xbdd6c6d6	-0.10487144
55	0x3df3ecec	0.11910424
56	0x3e20aede	0.15691707
57	0x3d15c7fb	0.03656767
58	0x3e332e0d	0.17498036
59	0x3d1e88cf	0.03870469
60	0xbe386ea8	-0.18010962
61	0xbcf152f4	-0.0294585
62	0xbdedc400	-0.1160965
63	0xbdcb7cda	-0.09935923

fpm.fc.2.weight f4 [64, 64]
0	0x3df7573e	0.12077187
1	0x3dd839ba	0.105578855
2	0x3dc9fd33	0.09862747
3	0x3e12ca08	0.14334881
4	0x3db59799	0.088668056
5	0xbd8ace82	-0.067776695
6	0x3e2ecaca	0.17069545
7	0x3e15acfc	0.1461677
8	0xbd5faa61	-0.054605845
9	0x3b283aec	0.0025669886
10	0xbd13b5d1	-0.036062066
11	0x3dfc6293	0.12323489
12	0xbcbbfecf	-0.02294865
13	0xbdcce8ff	-0.10005378
14	0x3e5492d4	0.20759135
15	0x3e3cca19	0.18436469
16	0xbde01ff2	-0.10943593
17	0x3e0fd8e4	0.14047581
18	0xbd1dcd7f	-0.038526054
19	0xbbeec96b	-0.0072871945
20	0x3d956e1f	0.072963946
21	0xbd5bc8e8	-0.053658396
22	0xba610759	-0.0008584164
23	0x3d9644a1	0.07337309
24	0x3c970649	0.018435614
25	0x3d83b75e	0.06431459
26	0x3c4cbe40	0.012496531
27	0x3dec4adf	0.11537718
28	0x3e6039c9	0.21897043
29	0xbc15471c	-0.009111192
30	0xbbb03003	-0.005376817
31	0xbd590cce	-0.052990727
32	0x3e65418c	0.22388285
33	0x3d89d6cf	0.067304246
34	0xbde16cf4	-0.11007109
35	0x3ddd3f72	0.10803117
36	0xbda63095	-0.08114735
37	0x3dbe9887	0.09306436
38	0xbd3c981a	-0.046043493
39	0x3cd2be39	0.02572547
40	0x3e2adb94	0.16685325
41	0xbdaa47ca	-0.08314474
42	0x3db78b0e	0.089620695
43	0x3ddb19cc	0.1069828
44	0xbd308d4c	-0.0431035
45	0x3dce963f	0.10087251
46	0xbd5890f7	-0.052872624
47	0xbd319499	-0.043354604
48	0x3db83e93	0.0899631
49	0x3d6711e9	0.056413565
50	0x3dad0ddd	0.0844991
51	0xbaec8349	-0.0018044497
52	0x3d5fa7a3	0.05460323
53	0xbda6212c	-0.08111796
54	0xbbadfc74	-0.005309636
55	0x3dbe8c71	0.09304131
56	0x3e446782	0.1918011
57	0xbdef39fc	-0.116809815
58	0xbcee1365	-0.029061982
59	0xbc9f915d	-0.019478494
60	0x3db88eed	0.09011636
61	0x3dc7eb97	0.09761732
62	0x3d5ee286	0.05441525
63	0x3dfaa7d2	0.122390404
64	0x3d002320	0.031283498
65	0xbd19885f	-0.03748357
66	0xbd1704d7	-0.03686985
67	0x3de7e501	0.11322976
68	0x3d948299	0.07251472
69	0xbdadd068	-0.08487016
70	0x3d1fe7b0	0.039039314
71	0x3c088f5b	0.00833496
72	0x3dd1908f	0.102326505
73	0x3dca7740	0.098860264
74	0x3d991502	0.0747471
75	0xbd18b20b	-0.03727917
76	0x3e0c4c6d	0.13701029
77	0x3c2f2fce	0.01069255
78	0xbe07578a	-0.13216987
79	0x3d72ed60	0.05930841
80	0x3dfd9569	0.12382013
81	0xbde50c2d	-0.11183963
82	0x3cee6bae	0.02910408
83	0x3d22542a	0.039631046
84	0xbd1315f8	-0.035909623
85	0xbcd9f0b0	-0.026604027
86	0x3b4a3ee5	0.0030860242
87	0x3d20fafe	0.039301865
88	0xbc49e377	-0.012322298
89	0xbddb42d6	-0.10706107
90	0x3d854128	0.06506568
91	0xbe1e9dbf	-0.15489863
92	0x3dd09900	0.101854324
93	0xbd251952	-0.04030735
94	0xbc907e1a	-0.017638255
95	0xb92f9b52	-0.00016747162
96	0xbe24b766	-0.16085586
97	0xbced8ebb	-0.028998723
98	0xbdb63c18	-0.08898181
99	0x3d02ec8d	0.031963874
100	0xbdb2ca54	-0.08729997
101	0x3c85f3a1	0.016351523
102	0x3d0b0c1f	0.033947106
103	0x3d802f23	0.062589906
104	0x3d84d7ed	0.06486497
105	0x3e4dea62	0.20108941
106	0xbba2c5e3	-0.0049674376
107	0x3d94394e	0.072374925
108	0xbc8d6d07	-0.017263902
109	0x3d59d768	0.053183943
110	0xbc27f0af	-0.0102502545
111	0xbd7003a8	-0.058597237
112	0x3c842dbc	0.01613509
113	0xbdb72ea0	-0.0894444
114	0xbb8dacaf	-0.004323564
115	0x3dc6a91c	0.09700224
116	0x3de810bb	0.11331316
117	0xbd1b9f3b	-0.03799365
118	0x3b595857	0.0033164227
119	0xbcb4e20b	-0.022080442
120	0xbb942e3b	-0.0045221127
121	0xbd9681ea	-0.07348998
122	0xbdf127bd	-0.117751576
123	0x3dacf9e2	0.08446099
124	0x3c3ce9de	0.011530368
125	0xbe0b0157	-0.1357473
126	0x3d922b5f	0.07137179
127	0x3d80c8a3	0.062882684
128	0x3e216128	0.15759718
129	0x3e15c288	0.14624989
130	0x3c7346e2	0.014848443
131	0xbe0967be	-0.13418481
132	0x3e3042cc	0.17212981
133	0x3d19258a	0.037389316
134	0x3d46cb58	0.048533767
135	0xbdd2b329	-0.10288078
136	0xbcfad012	-0.030616794
137	0xbce3a97e	-0.027790781
138	0x3dacc38a	0.084357336
139	0x3c1a4e4b	0.009418081
140	0x3d83ab5f	0.06429171
141	0xbd5c643c	-0.05380653
142	0xbdb1bce8	-0.08678609
143	0xbdb45e3d	-0.08807037
144	0xbce18574	-0.027529456
145	0x3dc4e2c5	0.09613565
146	0xbca4b8e3	-0.020107692
147	0xbc8a5ad8	-0.01688902
148	0xbdb9ed53	-0.09078469
149	0x3bc480db	0.005996806
150	0x3d2981fc	0.04138373
151	0x3da1760d	0.078838445
152	0xbd92211e	-0.07135223
153	0x3c1487f0	0.009065613
154	0xbddf96e4	-0.10917452
155	0x3d3c97d3	0.04604323
156	0xbde45aa7	-0.11150103
157	0x3dba95c6	0.09110598
158	0x3d823471	0.06357659
159	0xbd24dd62	-0.04025019
160	0x3b075609	0.0020650646
161	0x3aa9fc3f	0.0012968852
162	0x3d3c9e84	0.04604961
163	0xbd426a13	-0.04746444
164	0x3dcfd45f	0.101479284
165	0x3cc8bd91	0.024504455
166	0x3e28322c	0.16425389
167	0xbdcba37f	-0.09943294
168	0xbc7504e5	-0.01495478
169	0x3c9e6434	0.01933489
170	0xbc2ea514	-0.010659475
171	0x3d52658d	0.051366378
172	0xbe174c4d	-0.147752
173	0x3deda587	0.116038375
174	0x3b91e68b	0.0044525317
175	0xbdcfb8b4	-0.10142651
176	0x3c5aca04	0.013353828
177	0xbd124c1b	-0.03571711
178	0xbd64271c	-0.05570136
179	0xbd80167d	-0.06254289
180	0x3cb0956f	0.02155563
181	0xbc20dbb1	-0.0098180035
182	0xbd83d9e6	-0.06438045
183	0xbe04f9fe	-0.1298599
184	0x3dd6b737	0.10484164
185	0xbdb20dd2	-0.08694042
186	0xbe140456	-0.14454779
187	0x3b8d49d1	0.004311778
188	0x3cf3b56c	0.029749595
189	0xbacca5bb	-0.0015613356
190	0xbc8412b7	-0.016122205
191	0xbd814259	-0.06311483
192	0xbd5d52f1	-0.054034177
193	0xbd67cf81	-0.056594376
194	0x3d941994	0.07231441
195	0xbe1321c8	-0.14368355
196	0xbd8453ec	-0.06461319
197	0xbd9a4026	-0.075317666
198	0xbc4fc304	-0.012680773
199	0xbdae8206	-0.08520894
200	0xbdfad72d	-0.12248073
201	0xbd343ddc	-0.044004306
202	0xbd716418	-0.058933347
203	0xbcf87013	-0.030326879
204	0x3bc7a074	0.0060921255
205	0x3dd72d65	0.10506705
206	0x3c262a98	0.010141991
207	0xbe08c9cd	-0.13358231
208	0x3d0f85b2	0.03503961
209	0xbc2dd65e	-0.010610191
210	0x3d277f88	0.040893108
211	0xbe1d3619	-0.15352668
212	0xbe1eff56	-0.1552709
213	0x3d899f49	0.06719834
214	0x3dd0dc92	0.101983204
215	0xbd584ebb	-0.05280946
216	0x3de5d107	0.112215094
217	0x3de8d1cc	0.113681406
218	0xbcf59a50	-0.029980808
219	0x3c673743	0.0141122965
220	0x3c72445c	0.014786806
221	0xbdd0ab7a	-0.101889566
222	0x3c18ad13	0.009318608
223	0x3d22df5c	0.039763793
224	0xbe52a311	-0.20570017
225	0xbd84e8a6	-0.06489687
226	0xbd2a7084	-0.04161121
227	0xbdf269c6	-0.11836581
228	0xbe0867bb	-0.1332082
229	0xbe05a69a	-0.13051835
230	0xbd629856	-0.05532106
231	0xbdfc3baf	-0.12316071
232	0xbe384434	-0.17994767
233	0xbd3eab44	-0.04655005
234	0x3cc45e27	0.023970677
235	0xbd9e38f9	-0.077257104
236	0x3dd99220	0.10623574
237	0x3dde59b7	0.108569555
238	0xbd7ae7fe	-0.0612564
239	0xbd833fb2	-0.06408633
240	0xbd27e104	-0.040986076
241	0xbdb6688a	-0.08906658
242	0xbd7a70e6	-0.061142825
243	0xbdcfcf49	-0.101469584
244	0xbe133e62	-0.14379266
245	0xbd39297e	-0.045205586
246	0xbd020c99	-0.031750295
247	0xbe37b567	-0.17940293
248	0xbe0fa41d	-0.14027448
249	0x3d155aeb	0.03646366
250	0x3d5502b3	0.052004527
251	0x3d9434e8	0.072366536
252	0xbe52373f	-0.20528887
253	0xbe159d2c	-0.14610738
254	0x3cb4a278	0.022050127
255	0x3c5c3554	0.013440449

fpm.fc.2.bias f4 [64]
0	0xbe002d95	-0.12517388
1	0x3de9d5db	0.11417743
2	0x3db851df	0.08999991
3	0xbd705e4f	-0.05868369
4	0x3dd63d52	0.10460915
5	0x3d816d7b	0.0631971
6	0xbdc8eb09	-0.098104544
7	0xbdd61a49	-0.10454232
8	0x3c5cf60a	0.013486395
9	0x3cab814e	0.02093568
10	0x3cf8ebe1	0.030385913
11	0x3d39bf14	0.045348242
12	0x3bdc8a4e	0.0067303544
13	0xbd4252bd	-0.047442187
14	0xbd5ce4aa	-0.05392901
15	0xbd975dfe	-0.073909745
16	0xbd261604	-0.04054834
17	0x3c6002b1	0.013672517
18	0xbdebb8b1	-0.115098365
19	0x3db4f1b0	0.08835161
20	0x3d3ac80d	0.04560094
21	0x3db3c92e	0.08778606
22	0x3b9bf637	0.0047595757
23	0x3d2d9263	0.042375933
24	0xbcaa98a6	-0.020824742
25	0x3e0ef94b	0.13962285
26	0x3b4b14f3	0.0030987829
27	0x3d053330	0.03251952
28	0xbdc3fde9	-0.09569914
29	0xbd261e77	-0.040556397
30	0x3d4fa1b4	0.05069132
31	0x3d497efc	0.049193367
32	0xbdd9f3e8	-0.106422246
33	0xbe011f77	-0.12609659
34	0xbde6162c	-0.11234698
35	0xbdde6cb6	-0.10860579
36	0x3b57a3ac	0.0032903953
37	0x3dc9152c	0.09818491
38	0x3d82d24d	0.06387768
39	0x3dcf5924	0.10124424
40	0xbdc61a5e	-0.09672998
41	0x3d447329	0.047961388
42	0x3cca3078	0.024681315
43	0xbd21c6c5	-0.039496202
44	0xbdd5f8a8	-0.10447818
45	0x3d9d9ade	0.07695554
46	0x3db07731	0.08616484
47	0x3c33a552	0.010964708
48	0xbc9fcabb	-0.01950585
49	0x3a86a322	0.0010272006
50	0xbde0d7e4	-0.10978678
51	0xbcc49404	-0.02399636
52	0x3d316943	0.043313276
53	0x3ca36680	0.019946337
54	0x3d21b405	0.03947832
55	0xbd623965	-0.055230517
56	0x3d86df01	0.06585503
57	0xbdc64590	-0.09681237
58	0x3cc25d4e	0.023726132
59	0xbd16415e	-0.036683433
60	0xbdb5aa3b	-0.088703595
61	0x3d07350c	0.033009574
62	0xbdb997ce	-0.090621576
63	0x3ddad80d	0.1068574

speformer.spec_proj.weight f4 [64, 1]
0	0xbf9621d7	-1.1729077
1	0x3f038dde	0.5138835
2	0x3f44d2b1	0.7688399
3	0x3f94449d	1.1583439
4	0x3efb5c5c	0.49093902
5	0x3f7e6459	0.9937187
6	0xbf0c75f2	-0.5486747
7	0xbf756661	-0.9585934
8	0x3f2c5cca	0.67329085
9	0xbf0bff12	-0.5468608
10	0x3da4c468	0.08045274
11	0x3ec2aeac	0.3802389
12	0xbecdeeb6	-0.40221184
13	0xbf8f347a	-1.118789
14	0xbf175005	-0.59106475
15	0xbdd704a1	-0.1049893
16	0x3f6124f6	0.8794702
17	0xbf113aab	-0.56730145
18	0x3f8f30a8	1.1186724
19	0x3edba061	0.42895797
20	0x3f4a25e3	0.7896406
21	0x3e97cac2	0.2964688
22	0xbef9c678	-0.48784232
23	0xbf259fa5	-0.64696723
24	0x3f5cf26e	0.8630742
25	0x3f80842c	1.0040336
26	0xbf8a322c	-1.0796561
27	0xbe452e78	-0.19256008
28	0x3f480bf1	0.7814322
29	0x3de95e16	0.113948986
30	0xbf541b38	-0.8285403
31	0xbe8af96d	-0.27143422
32	0x3f17aa26	0.59244
33	0xbef3b63f	-0.4759998
34	0xbe84eeaa	-0.25963336
35	0x3e0b7c9d	0.13621755
36	0xbdfa37b6	-0.12217657
37	0x3e2011c4	0.15631777
38	0xbed70b3c	-0.4200076
39	0xbdd9ce10	-0.106350064
40	0x3ec30d62	0.38096148
41	0x3f0375b6	0.5135149
42	0xbf4760af	-0.778819
43	0xbf1b34fe	-0.60627735
44	0x3f340697	0.70322555
45	0xbef8dc50	-0.48605585
46	0xbef2bba3	-0.4740878
47	0xbf7ea38a	-0.9946829
48	0x3e078949	0.13235964
49	0x3f7bb29e	0.98319423
50	0x3f43acef	0.7643575
51	0x3ef6b956	0.48188275
52	0x3e1cac87	0.15300189
53	0xbf91549b	-1.1353945
54	0xbf0f0ab2	-0.55875695
55	0xbf71ea5e	-0.9449824
56	0xbf65cec3	-0.8976862
57	0xbe2a6194	-0.16638786
58	0x3f41adc3	0.75655764
59	0x3f8f0a68	1.1175051
60	0x3f43a8ed	0.76429635
61	0xbf0dd31e	-0.55400264
62	0x3f824c35	1.0179507
63	0x3f1e23d0	0.61773396

speformer.spec_proj.bias f4 [64]
0	0x3efedbdc	0.49777114
1	0x3f2bd79e	0.6712588
2	0xbf39f569	-0.7264009
3	0x3dd7aacc	0.10530624
4	0x3f12cd0c	0.57344127
5	0x3f5fed25	0.8747123
6	0xbf752ed1	-0.9577456
7	0xbf421a07	-0.75820965
8	0x3f346c2f	0.70477575
9	0xbf5e3aff	-0.8680877
10	0xbecd46ac	-0.4009298
11	0xbf520d9e	-0.8205203
12	0xbe992eb4	-0.29918444
13	0xbe9b5f3b	-0.30346093
14	0x3cf9f5c7	0.030512704
15	0xbf2e79f4	-0.68154836
16	0x3f5a1dfd	0.8520201
17	0x3a90f53b	0.0011059412
18	0x3e9a00c5	0.30078712
19	0xbf5705d4	-0.8399327
20	0x3e3a4318	0.18189657
21	0xbf0b10c7	-0.54322475
22	0x3e8cb3a7	0.27480814
23	0x3e2cb0e3	0.16864352
24	0x3ed4d61a	0.41569597
25	0x3ee56703	0.44805154
26	0xbf244c4b	-0.64178914
27	0x3f64452d	0.89168054
28	0x3f5b904d	0.8576706
29	0x3f5cb041	0.8620644
30	0xbe8bd94f	-0.2731423
31	0x3f6d0e8e	0.92600334
32	0x3e6a8b23	0.22904639
33	0x3ee92b91	0.4554105
34	0xbdc5080f	-0.09620678
35	0xbf5a0f09	-0.8517919
36	0xbf0a6229	-0.5405603
37	0xbec958ba	-0.39325505
38	0xbedf6041	-0.43628123
39	0xbe5858b6	-0.2112759
40	0xbe792f8e	-0.24334547
41	0xbeef533f	-0.467432
42	0x3dc36441	0.09540606
43	0x3d6818d7	0.056664314
44	0x3ee099c9	0.4386733
45	0x3f24896c	0.6427219
46	0xbd6ffded	-0.058591772
47	0x3eebc099	0.46045378
48	0x3ef02850	0.46905756
49	0xbca5d637	-0.020243747
50	0xbeb60cec	-0.35556734
51	0x3f297be8	0.6620469
52	0x3f7611af	0.96120733
53	0xbc800c04	-0.01563073
54	0x3f5f8448	0.8731122
55	0xbf4fe098	-0.8120208
56	0xbe90f233	-0.28309783
57	0xbf0cb85d	-0.54968816
58	0x3e17eec6	0.14837179
59	0xbd94100c	-0.07229623
60	0xbee1f6d7	-0.44133636
61	0x3d4cc962	0.04999674
62	0x3f18e5df	0.59725755
63	0x3e8aa590	0.2707944

speformer.transformer.encoder.layers.0.self_attn.in_proj_weight f4 [192, 64]
0	0xbbf4796d	-0.007460764
1	0xbe132654	-0.1437009
2	0xbd1c9021	-0.03822339
3	0x3d2ad4bb	0.04170678
4	0xbe1d3c49	-0.15355028
5	0xbde4a297	-0.11163824
6	0xb9ef1588	-0.00045601674
7	0x3e22839f	0.15870522
8	0xbe346072	-0.17614916
9	0x3e01799f	0.12644051
10	0xbda1a6ce	-0.078931436
11	0x3e28156e	0.16414425
12	0xbdd24054	-0.10266176
13	0x3df08c1c	0.11745474
14	0xbd968b88	-0.07350832
15	0x3e03af3b	0.12859814
16	0xbda9edb3	-0.08297291
17	0x3dd8d240	0.10586977
18	0xbc9ed085	-0.01938654
19	0x3df8ba97	0.12144964
20	0x3d58c8ee	0.052925996
21	0xbded546f	-0.1158837
22	0xbd8b6f2e	-0.06808315
23	0x3ca749cf	0.020420937
24	0xbe19289b	-0.14956896
25	0xbdb4b80a	-0.08824165
26	0x3e2a9288	0.1665746
27	0xbe3220d6	-0.17395338
28	0xbd0350bc	-0.032059416
29	0xbdc4ad4f	-0.096033685
30	0x3dcaaade	0.098958716
31	0xbdb6860e	-0.08912288
32	0x3d1ab692	0.03777177
33	0xbe2fec07	-0.17179881
34	0xbd8022c6	-0.062566325
35	0x3df0c7ea	0.117568806
36	0x3b1dc788	0.0024075229
37	0x3e01b469	0.12666477
38	0x3df12560	0.11774707
39	0x3dad4329	0.084600754
40	0xbdc4a6e9	-0.09602148
41	0x3db8b490	0.090188146
42	0x3dc340de	0.09533857
43	0xbe11c5fb	-0.1423568
44	0x3d636f52	0.055526085
45	0x3a9e8e52	0.0012096858
46	0xbdd61338	-0.104528844
47	0xbe367d5e	-0.17821261
48	0x3d7b8a36	0.061411105
49	0xbd63a8c7	-0.05558088
50	0x3d97ea5c	0.074177474
51	0x3d070708	0.03296569
52	0xbd15ae1d	-0.036543
53	0xbdc4faff	-0.09618186
54	0xbdb466a8	-0.088086426
55	0xbd890381	-0.066901214
56	0xbcfcd466	-0.030862998
57	0x3e12df8a	0.14343086
58	0x3ca23580	0.019800901
59	0x3d4c42ef	0.04986852
60	0xbd87cae0	-0.06630492
61	0xbd956f61	-0.072966345
62	0x3b47bdcb	0.0030478116
63	0x3d8c1a6f	0.06840979
64	0x3c94d98d	0.018170143
65	0xbe07b7de	-0.13253734
66	0xbd65bdf2	-0.05608935
67	0xbd9b1d3e	-0.07573937
68	0xbdaac4b4	-0.083382994
69	0xbe0212f6	-0.12702546
70	0xbe12fbc7	-0.14353858
71	0xbdad6b65	-0.084677495
72	0xbcc6a86e	-0.024250235
73	0x3d91e6e0	0.07124114
74	0xbd98a7d9	-0.074538894
75	0xbdf5f6e8	-0.12009984
76	0xbdceeff7	-0.101043634
77	0xbd9a1d1d	-0.07525084
78	0xbde9d908	-0.114183486
79	0x3dbfe35e	0.09369539
80	0x3b5acc3c	0.0033385893
81	0xbdcd4cda	-0.10024424
82	0x3d9a89e7	0.07545834
83	0xbdb2bf6b	-0.08727916
84	0xbcdf2179	-0.02723764
85	0x3d610741	0.05493856
86	0x3c7d6969	0.015467026
87	0x3bad71ae	0.0052930927
88	0xbe0e659b	-0.13905947
89	0x3e15ba80	0.14621925
90	0x3d2834b5	0.04106589
91	0x3e01389d	0.12619253
92	0x3e13c853	0.14431886
93	0x3e00035b	0.1250128
94	0xbd677135	-0.056504447
95	0x3e173335	0.14765628
96	0xbde90d59	-0.11379499
97	0x3d1d3ff2	0.03839106
98	0xbe1b1ab8	-0.15146911
99	0xbd408adf	-0.047007438
100	0xbe0214a0	-0.1270318
101	0xbe1d99d2	-0.15390709
102	0xbdc0b8a8	-0.094102204
103	0x3e0560fe	0.13025281
104	0x3e09420b	0.134041
105	0x3dcb74c0	0.09934378
106	0x3e01cfce	0.12676927
107	0x3e0b2a95	0.13590463
108	0x3e15cead	0.14629622
109	0x3c937de7	0.01800437
110	0x3d9de909	0.077104636
111	0xbbb73eb7	-0.005592193
112	0xbdfa96bd	-0.12235782
113	0x3d8181b8	0.0632357
114	0x3d75f038	0.060043544
115	0x3e0a9e49	0.13536943
116	0x3dbc5a7a	0.091969445
117	0x3e143ff9	0.14477529
118	0xbde83e4b	-0.113400064
119	0x3d2f3bfb	0.04278181
120	0x3db17b99	0.086661525
121	0x3dad5c26	0.084648415
122	0xbd7aeab0	-0.06125897
123	0x3d2eb4be	0.042652838
124	0xbd1c33ed	-0.038135458
125	0xbce0086b	-0.027347764
126	0xbd76a35f	-0.060214397
127	0xbe0cc779	-0.13747968
128	0xbdde2ff2	-0.108489886
129	0xbd21150a	-0.039326705
130	0x3df9d11c	0.121980876
131	0xbd07d643	-0.03316332
132	0xbde83b80	-0.11339474
133	0xbd4c8612	-0.049932547
134	0x3a9e0767	0.001205665
135	0xbd949da0	-0.07256627
136	0xbd3b09f6	-0.045663796
137	0x3d9fd7a7	0.07804804
138	0x3c8e85df	0.01739782
139	0xbd97f56e	-0.07419859
140	0x3e0176c9	0.12642969
141	0x3abdd26d	0.0014482267
142	0x3dd60566	0.104502484
143	0x3d14ca33	0.036325645
144	0x3b66875f	0.0035175902
145	0x3d477e6b	0.048704546
146	0x3d4b0d5e	0.049573295
147	0x3dc7ddb9	0.09759087
148	0x3d9def64	0.07711676
149	0x3db176a5	0.08665208
150	0xbba27bc6	-0.0049586026
151	0xbdc8e827	-0.098099045
152	0x3e24caf4	0.16093045
153	0x3df2cb55	0.11855189
154	0x3decb210	0.115574
155	0x3dad38ba	0.08458085
156	0xbdeb2a5b	-0.11482688
157	0xbdf8c749	-0.121473856
158	0xbe216d83	-0.15764432
159	0xbd9523db	-0.072822295
160	0x3d3650ef	0.044510778
161	0xbd48b0cd	-0.048996735
162	0xbde94610	-0.113903165
163	0x3d9c0dfd	0.076198556
164	0x3dd6e198	0.10492247
165	0x3d8ce03f	0.06878709
166	0xbdec867d	-0.11549089
167	0x3b014b45	0.0019728702
168	0x3df341e3	0.11877801
169	0x3de24b40	0.11049509
170	0xbd606c94	-0.05479105
171	0xbde589b1	-0.11207903
172	0x3afc342c	0.0019241623
173	0x3dbc6d18	0.092004955
174	0x3d0f130c	0.034930274
175	0xbe039c43	-0.12852578
176	0x3d8a9e57	0.06768482
177	0x3dad6a67	0.0846756
178	0x3dc61f82	0.096739784
179	0x3e091dd9	0.13390292
180	0x3d830a46	0.06398444
181	0x3e13099a	0.14359131
182	0xbd7f1ca6	-0.06228318
183	0xbdbbd477	-0.09171384
184	0x3c6f46d8	0.014604293
185	0xbd6c7950	-0.05773288
186	0x3dfbddc7	0.1229816
187	0xbdf2db30	-0.11858213
188	0xbd34a23b	-0.044100028
189	0x3de447d8	0.111465156
190	0x3dd3e86a	0.10347064
191	0x3df255b5	0.118327536
192	0xbddea502	-0.108713165
193	0x3dd5f977	0.10447972
194	0x3e012c7e	0.12614629
195	0xbde7d7df	-0.11320471
196	0xbe256f99	-0.16155852
197	0x3d13b8c0	0.036064863
198	0xbde81f43	-0.11334088
199	0x3d55bc3c	0.052181467
200	0xbdd9d471	-0.10636223
201	0xbda729a5	-0.0816224
202	0x3da51b7c	0.08061883
203	0xbc9cc1e3	-0.019135421
204	0x3b809fab	0.003925284
205	0x3e08ee45	0.13372143
206	0x3dfd7d97	0.1237747
207	0xbd47907d	-0.04872178
208	0xbd82f1d1	-0.06393779
209	0xbd00a85c	-0.03141056
210	0x3d4c13ce	0.049823575
211	0x3e04f333	0.12983398
212	0x3a8390bc	0.0010037641
213	0x3db2fbbb	0.0873942
214	0xbd915f8c	-0.07098302
215	0xbe3512a6	-0.17682895
216	0xbe1c6588	-0.15273106
217	0x3dd6143e	0.1045308
218	0x3da5ee71	0.0810212
219	0xbe0b8329	-0.13624252
220	0xbe29bf9a	-0.16576996
221	0x3d675de9	0.056486044
222	0xbb200e80	-0.0024422705
223	0x3cd6b9e8	0.026211694
224	0xbc1d387d	-0.009595987
225	0x3cba666b	0.022753915
226	0x3ce770a5	0.028251955
227	0x3e3120ea	0.17297712
228	0x3e3df6ac	0.18551129
229	0x3e00cc18	0.12577856
230	0xbc81dab3	-0.015851354
231	0xbd2eea6b	-0.042704027
232	0x38a8412a	8.023002e-05
233	0x3e379221	0.17926838
234	0xbba227af	-0.0049485783
235	0x3b1d8ce7	0.0024040283
236	0xbdef5187	-0.11685472
237	0xbd16f18f	-0.036851462
238	0xbd05ec51	-0.032696072
239	0xbe0b1461	-0.13581993
240	0xbde4d7c4	-0.111739665
241	0x3c4b3614	0.01240303
242	0x3db6bfd6	0.089233086
243	0xbd845fbe	-0.06463574
244	0x3d85c4c5	0.065316714
245	0xbdac0dff	-0.08401107
246	0x3d0af4a6	0.03392472
247	0x3e235443	0.15950112
248	0xbdd02448	-0.1016317
249	0x3df32edc	0.11874172
250	0xbdaffdac	-0.08593306
251	0x3e32c268	0.17456973
252	0xbd0d71b6	-0.03453227
253	0xbe2c35fe	-0.16817471
254	0xbd8becd2	-0.06832279
255	0xbdd50ad5	-0.10402457

speformer.transformer.encoder.layers.0.self_attn.in_proj_bias f4 [192]
0	0xbcea714a	-0.028618474
1	0x3b84ab72	0.004048758
2	0x3c5334c7	0.012891001
3	0xbd2aa754	-0.041663483
4	0x3d08e095	0.033417303
5	0xbd1f2e22	-0.038862355
6	0x3cf285bf	0.02960479
7	0xbd8ca8da	-0.068681434
8	0x3cf86709	0.030322568
9	0x3c1d9cf8	0.009619944
10	0xbd124d65	-0.03571834
11	0x3cd1d837	0.025615795
12	0xbcc1d33c	-0.023660295
13	0xbd0d03eb	-0.034427565
14	0x3d1dc577	0.038518395
15	0xbc96268d	-0.01832893
16	0x3d4f62c9	0.05063132
17	0x3d3f4678	0.046698064
18	0x3db554ef	0.088540904
19	0x3c394de4	0.0113100745
20	0x3d655cdc	0.05599676
21	0x3d3f8533	0.046757888
22	0xbd06e47a	-0.032932736
23	0x3ceaf46c	0.028681003
24	0xbdb4b179	-0.08822913
25	0xbc2f10a1	-0.010685117
26	0xbc71ac94	-0.0147506185
27	0xb9eb60b9	-0.00044894757
28	0xbca31a2a	-0.019909937
29	0xbd8f22fa	-0.06989093
30	0x3db43eea	0.088010624
31	0x3d9ff8c0	0.07811117
32	0x3e6fd389	0.23420538
33	0xbe77e969	-0.24210133
34	0x3e6da7ae	0.23208496
35	0xbe7315d6	-0.23738798
36	0x3e6bbf13	0.23022108
37	0x3e680908	0.22659695
38	0xbe55b806	-0.2087098
39	0xbe58c72b	-0.21169727
40	0x3e5b37ba	0.21407977
41	0xbe6f0d13	-0.23344831
42	0x3e6801d8	0.22656953
43	0x3e6c49cd	0.23075028
44	0xbe64c693	-0.22341375
45	0xbe5b8728	-0.21438277
46	0x3e6b32ab	0.22968547
47	0x3e6a187a	0.228609
48	0x3d7ba967	0.06144085
49	0xbd4c1ec6	-0.049834035
50	0xbd648fe6	-0.055801295
51	0xbd3ae3ad	-0.045627285
52	0x3d1e8d8b	0.038709205
53	0x3ca385b4	0.019961216
54	0xbd3751a9	-0.04475561
55	0xbd4a0679	-0.04932258
56	0xbd023730	-0.031790912
57	0xbd03fc03	-0.03222276
58	0xbd44682f	-0.04795092
59	0x3d86acd9	0.06575937
60	0x3d63b7c7	0.055595186
61	0x3d373bfc	0.04473494
62	0xbd56503f	-0.052322622
63	0x3d8016f5	0.06254379
64	0x3d05908b	0.03260855
65	0xbc7239db	-0.014784302
66	0x3a8352eb	0.0010019218
67	0x3cc1b4ac	0.023645721
68	0xbcf8f12e	-0.030388441
69	0x3caa568e	0.020793226
70	0xbccd4c5f	-0.02506083
71	0x3d015d08	0.031582862
72	0xbc4d601f	-0.012535124
73	0xbcb34fd9	-0.02188866
74	0x3cbda993	0.023152148
75	0xbc57e1fa	-0.013176436
76	0x3bc494a6	0.0059991656
77	0x3c82c6cc	0.015963934
78	0xbcadba65	-0.021207044
79	0x3cdbadd6	0.02681629
80	0x3b5c4f0e	0.0033616456
81	0x3b4c54bf	0.0031178442
82	0x3afb047a	0.0019151114
83	0xbbae2ece	-0.005315638
84	0x3b58e537	0.0033095607
85	0x3b567f99	0.0032729863
86	0xbb687d34	-0.0035475018
87	0x3b8e447b	0.0043416596
88	0xbb10f5d8	-0.002211919
89	0x3b90f40f	0.0044236253
90	0xbb2b5e71	-0.002614882
91	0xbb8bab50	-0.0042623654
92	0xbb349491	-0.0027554373
93	0xbb3873be	-0.002814516
94	0x3add83d8	0.0016900254
95	0x3b29c9d9	0.0025907664
96	0x3ae00e12	0.0017094037
97	0xbacaafde	-0.001546379
98	0x3b126846	0.0022339984
99	0xbae7eaa7	-0.0017693833
100	0x3acf2c28	0.0015806006
101	0x3a8aba55	0.0010584096
102	0xb9826639	-0.00024871694
103	0xba17949c	-0.00057823374
104	0x3a15378c	0.0005692176
105	0xbb08c805	-0.0020871174
106	0x3a6cd5fd	0.0009034572
107	0x3ae6e5c6	0.0017616085
108	0xbaf77406	-0.0018879182
109	0xba9718ee	-0.0011527815
110	0x3ad9c77a	0.0016615235
111	0x3b0b435d	0.0021249868
112	0x3c0cca92	0.008593218
113	0xbbd32b6f	-0.0064443867
114	0xbc032260	-0.008003801
115	0xbc0f154c	-0.008733105
116	0x3c089df6	0.008338442
117	0x3bfacbd1	0.0076536913
118	0xbc003fde	-0.007827727
119	0xbbfec9a0	-0.0077755004
120	0xbc09a405	-0.008400922
121	0xbbcc12c7	-0.0062278244
122	0xbc05ae75	-0.00815927
123	0x3c0ecee0	0.008716315
124	0x3c07c79e	0.008287339
125	0x3c0bd3a6	0.008534348
126	0xbc039276	-0.0080305245
127	0x3c08e72b	0.008355896
128	0xbc4662df	-0.012108534
129	0xbc66c40f	-0.01408483
130	0xbba95616	-0.005167733
131	0x3bff4141	0.0077897613
132	0xbc56db9f	-0.013113885
133	0x3bbcc5a2	0.0057608644
134	0x3b77054a	0.0037692362
135	0x3b0ae263	0.0021192066
136	0xbb8b1e05	-0.004245522
137	0xbcbb14de	-0.022837099
138	0xbc5669c8	-0.013086744
139	0x3b843738	0.004034903
140	0xbc5fec66	-0.013667202
141	0xbafe4234	-0.0019398392
142	0x3b9b3a5e	0.0047371825
143	0xbc9b1f20	-0.01893574
144	0xbc46fbf0	-0.0121450275
145	0x3b1f9ce7	0.0024354996
146	0xbb420fcf	-0.0029611473
147	0xbcd88b9b	-0.026433757
148	0xbafc4caa	-0.0019248922
149	0xbba4fa5d	-0.0050347284
150	0x3bbc84e4	0.0057531465
151	0x3c3e46d7	0.011613569
152	0x3bfa3b3c	0.007636456
153	0x3b754636	0.0037425882
154	0xba24e3ff	-0.00062900776
155	0x3b941280	0.004518807
156	0xbc7536fe	-0.014966724
157	0xbbf84708	-0.007576827
158	0x3b03ec24	0.0020129764
159	0x3bf5f7eb	0.0075063608
160	0xbb52fcb7	-0.0032194087
161	0x3c2edc51	0.010672645
162	0xbc581f00	-0.013190985
163	0x3c6ff2fd	0.014645335
164	0xbc3583ef	-0.011078819
165	0xbb84f461	-0.0040574525
166	0x3c4a3f9a	0.012344265
167	0xbcde8ed4	-0.027167715
168	0xba0617b2	-0.0005115225
169	0xbc0312f1	-0.008000121
170	0x3c72e435	0.014824917
171	0xbb287c81	-0.0025708976
172	0x3c1ffb04	0.009764437
173	0x3c63f508	0.0139134005
174	0xbb4f09fd	-0.0031591647
175	0xbc815d5f	-0.015791593
176	0x3ba2975d	0.0049618916
177	0xbbf56d90	-0.0074898675
178	0xbbabe8e9	-0.005246271
179	0xbc194419	-0.009354615
180	0x3b94e195	0.004543493
181	0x3bda16e9	0.006655563
182	0x3a9077f5	0.0011022078
183	0xbba0b7e0	-0.004904732
184	0xbbdd9514	-0.0067621563
185	0x3c045627	0.008077181
186	0xbb531fcd	-0.0032215
187	0xbbff80e7	-0.007797349
188	0x3bfd85f1	0.0077369143
189	0x3bc94eac	0.0061434116
190	0xbb2eba28	-0.002666125
191	0xbc1265d0	-0.008935407

speformer.transformer.encoder.layers.0.self_attn.out_proj.weight f4 [64, 64]
0	0xbd0d6e90	-0.03452927
1	0xbde0b141	-0.109713085
2	0xbdc459bc	-0.09587428
3	0x3d520c31	0.051281158
4	0x3d751524	0.059834614
5	0x3dbfe21f	0.09369301
6	0xbd22e06d	-0.03976481
7	0x3dadaf9c	0.084807605
8	0x3d9f0c92	0.077660695
9	0xbd25f186	-0.040513538
10	0x3ce8941a	0.028390933
11	0xbda08e3a	-0.078396276
12	0x3dd99a2e	0.106251106
13	0xbceccbbe	-0.028905746
14	0x3c69a87e	0.014261363
15	0x3c1d879f	0.009614854
16	0x3c0bf65b	0.008542622
17	0xbb245c0e	-0.0025079283
18	0x3dac37c1	0.08409072
19	0xbd1eacd0	-0.038739026
20	0xbdf04444	-0.11731771
21	0x3b96ce06	0.0046021966
22	0xbc5ab345	-0.013348405
23	0xbdea6a31	-0.11446036
24	0xbbc62144	-0.006046446
25	0x3dec960e	0.11552058
26	0x3cb954ae	0.022623386
27	0xbdc8f863	-0.09813001
28	0xbd6a2de7	-0.057172682
29	0xbe17d3b6	-0.14826855
30	0x3df1103e	0.11770676
31	0x3cbf43fc	0.023347847
32	0x3dbecdb3	0.09316578
33	0xbe247cf2	-0.16063288
34	0x3e1defad	0.1542346
35	0xbd87d297	-0.06631964
36	0xbd9fd629	-0.0780452
37	0xbce85a20	-0.028363287
38	0x3dbb5c08	0.09148413
39	0xbd11cf01	-0.035597805
40	0x3d5b406e	0.05352824
41	0xbd8099f2	-0.06279363
42	0xbdf2b083	-0.11850073
43	0x3d746269	0.059664164
44	0x3c8647bf	0.016391633
45	0x3dba809e	0.09106563
46	0xbd87a3c4	-0.06623033
47	0xbdae92a1	-0.08524061
48	0x3da1ebd0	0.07906306
49	0x3de73d57	0.112909965
50	0xbcc7c1c7	-0.024384392
51	0x3e05ba5c	0.13059372
52	0x3bb4a9fc	0.005513428
53	0x3d603b70	0.054744184
54	0x3cce9639	0.025218116
55	0x3c5d4a8f	0.013506546
56	0xbdfe0c05	-0.12404636
57	0x3c5ace6f	0.013354882
58	0xbdba1bf4	-0.09087363
59	0x3cfbbbc1	0.030729176
60	0xbe0a6fc0	-0.13519192
61	0x3d854123	0.065065645
62	0x3d9def8a	0.07711704
63	0x3debba4c	0.11510143
64	0x3de2c359	0.11072416
65	0xbd82f38d	-0.0639411
66	0xbd591e6b	-0.053007524
67	0x3deabc9b	0.11461755
68	0x3d8b84c9	0.06812436
69	0xbd9c8e80	-0.07644367
70	0xbdb9ae96	-0.09066503
71	0x3d828b9e	0.06374286
72	0xbdf32642	-0.118725315
73	0xbda58c8a	-0.08083446
74	0xbdb531d8	-0.088473976
75	0x3c277183	0.010219934
76	0xbca2821d	-0.019837433
77	0x3d4dc602	0.050237663
78	0xbd1f4eb9	-0.038893435
79	0x3c297a55	0.010344108
80	0x3d622209	0.05520824
81	0xbda058a4	-0.07829407
82	0x3d2c70c1	0.042099718
83	0x3d717af5	0.05895515
84	0xbd330132	-0.04370231
85	0x3d868f63	0.065703176
86	0xbbacc1bb	-0.005272118
87	0x3d85e044	0.06536916
88	0xbd1e27bc	-0.038612112
89	0x3dd179a3	0.102282785
90	0xbd08eeee	-0.033430986
91	0xbdda822f	-0.10669362
92	0xbd35f500	-0.044423103
93	0xbd37786a	-0.04479257
94	0x3decb53e	0.11558007
95	0x3de9dd33	0.114191435
96	0x3c4d7d30	0.012542054
97	0xbdb464d0	-0.08808291
98	0x3d906600	0.07050705
99	0xbccf3b0f	-0.025296716
100	0x3d20a81c	0.03922282
101	0x3d87f7d3	0.066390656
102	0xbdc81cd3	-0.09771123
103	0xbda4db15	-0.08049599
104	0xbe0feaf5	-0.14054473
105	0xbb7b86ca	-0.00383799
106	0xbdd33992	-0.10313715
107	0x3abf19f5	0.0014579879
108	0xbac689cb	-0.0015147267
109	0x3d8595aa	0.06522687
110	0x3ddaf3a1	0.10691
111	0xbd2fc85c	-0.042915687
112	0x3ce85d81	0.028364899
113	0x3dbf9cf1	0.09356106
114	0x3d974b58	0.073874176
115	0x3d9d29bc	0.07673976
116	0xbdc1ca61	-0.09462429
117	0xbc837878	-0.016048655
118	0x3dd583f6	0.1042556
119	0xbe07bb79	-0.13255109
120	0xbdca380f	-0.098739736
121	0x3e0540a4	0.1301294
122	0x3cbd5323	0.023110932
123	0x3df72e91	0.12069429
124	0xbdd4210a	-0.10357864
125	0x3d8b8b47	0.068136744
126	0x3c83d6c9	0.016093628
127	0xbdbf6b9f	-0.09346699
128	0x3db095b6	0.08622305
129	0xbde22b61	-0.1104343
130	0x3da2500e	0.079254255
131	0x3c5661f7	0.01308488
132	0x3df401b1	0.11914385
133	0x3d495d80	0.049161434
134	0xbd8427d1	-0.06452907
135	0xbd8c084d	-0.06837521
136	0x3d1f75d5	0.038930733
137	0xbd6b005f	-0.0573734
138	0x3d9aef01	0.075651176
139	0x3dd166f1	0.10224713
140	0xbd6dff21	-0.058104638
141	0x3c96cfb5	0.01840959
142	0xbcca6a95	-0.024709025
143	0x3db0a16c	0.08624539
144	0x3abde9fd	0.001448929
145	0xbc59659a	-0.013268853
146	0x3cc67c86	0.0242293
147	0x3b460a65	0.0030218598
148	0xbe0be518	-0.13661611
149	0xbd5c294c	-0.05375032
150	0xbcf3cd4e	-0.029760983
151	0x3d6fb287	0.058519866
152	0x3d9b7d62	0.07592274
153	0xbd77efe1	-0.0605315
154	0xbdcbeaef	-0.099569194
155	0xbd864052	-0.06555237
156	0x3ab83e51	0.0014056658
157	0x3b84b697	0.0040500867
158	0x3dac81ef	0.0842322
159	0x3c4edee7	0.012626386
160	0xbcaf7f01	-0.021422865
161	0x3d8176ae	0.063214645
162	0xbd82d411	-0.06388105
163	0xbcb20f84	-0.021735914
164	0x3d20223d	0.039095152
165	0x3e244938	0.16043556
166	0xbbbcd47a	-0.005762634
167	0x3d96be99	0.07360572
168	0xbd43e82d	-0.047828842
169	0xbd512e7a	-0.051069714
170	0xbdf0df49	-0.11761338
171	0x3dea93de	0.11453985
172	0x3b48791c	0.0030589765
173	0xbd2502d2	-0.040285893
174	0x3c8745b5	0.016512731
175	0xbd774444	-0.060367838
176	0x3db7adf6	0.08968727
177	0x3dda7724	0.106672555
178	0x3d26785d	0.04064213
179	0x3dc613b7	0.09671729
180	0x3d5f97c4	0.054588094
181	0xbdce71fe	-0.10080336
182	0x3dd5c329	0.104376145
183	0x3d859300	0.06522179
184	0x3df2439b	0.11829301
185	0x3de73c74	0.112908274
186	0xbd0d9a96	-0.034571253
187	0x3d16caa1	0.036814336
188	0xbe001911	-0.12509562
189	0x3d6909f0	0.056894243
190	0xbd874cd6	-0.06606452
191	0xbaf6fdd5	-0.0018843958
192	0xbe252f20	-0.16131258
193	0xbda1462a	-0.07874711
194	0xbc9a8b79	-0.018865334
195	0x3c9a6ad6	0.018849771
196	0xbdf21e3b	-0.11822172
197	0x3d75f1fb	0.060045224
198	0xbc7d9a82	-0.015478732
199	0x3de8f59e	0.11374973
200	0x3df40935	0.119158186
201	0x3dc6d60f	0.09708797
202	0x3dd30c24	0.1030505
203	0xbd990384	-0.07471374
204	0x3d8a5811	0.067550786
205	0x3d9b1af5	0.07573501
206	0xbd3f0c23	-0.046642434
207	0xbd2c17ed	-0.042015005
208	0xbe055052	-0.13018921
209	0xbd0db69d	-0.03459798
210	0xbd605055	-0.05476411
211	0x3d19f702	0.03758908
212	0x3cf4f0ae	0.029899921
213	0xbd5169cd	-0.05112629
214	0xbd5eabc4	-0.054363027
215	0x3dd10c97	0.102074794
216	0xbde0cc4e	-0.10976468
217	0xbe0cc9f1	-0.1374891
218	0xbd91efbb	-0.07125803
219	0x3e28b242	0.1647425
220	0xbcedbf1e	-0.029021796
221	0x3e12dc5d	0.14341874
222	0xbd4a396b	-0.049371164
223	0xbe0f3c26	-0.13987789
224	0x3d39efa4	0.045394555
225	0x3c107725	0.008817469
226	0xbd61725a	-0.055040695
227	0xbdf23afc	-0.118276566
228	0x3d00e9e0	0.03147304
229	0xbcec4e9e	-0.028846081
230	0xbda8c712	-0.08241095
231	0xbde963f7	-0.1139602
232	0x3db15366	0.08658485
233	0xbd8c9c16	-0.068657085
234	0xbbbf9d96	-0.005847643
235	0xbdf81e13	-0.12115111
236	0x3df491b9	0.11941857
237	0x3d2807b6	0.04102298
238	0x3dc55ef6	0.09637253
239	0x3dd2cdeb	0.10293182
240	0xbda9ed43	-0.08297207
241	0x3d704fa1	0.05866969
242	0x3d737553	0.05943806
243	0xbd8d1450	-0.0688864
244	0xbdbaade0	-0.09115195
245	0xbdde6779	-0.108595796
246	0x3d121a63	0.035669696
247	0x3daaeb6b	0.08345684
248	0xbbe207e0	-0.0068979114
249	0xbda84732	-0.082167044
250	0xbd28a749	-0.04117516
251	0xbd328092	-0.043579645
252	0x3cdb13ef	0.026742904
253	0x3d11ed32	0.035626598
254	0x3d65d87f	0.05611467
255	0x3b268fbd	0.0025415265

speformer.transformer.encoder.layers.0.self_attn.out_proj.bias f4 [64]
0	0x3c215438	0.0098467395
1	0xbc64cb7a	-0.013964528
2	0x3bafa42e	0.005360148
3	0xbc819b3a	-0.015821088
4	0xbbd1cbe6	-0.0064024804
5	0xbd04d9dd	-0.032434333
6	0x3c2b3e6f	0.010451897
7	0x3d448a52	0.047983475
8	0xbc0fc6a5	-0.008775388
9	0x3d1bf993	0.03807981
10	0x3c0f4ddc	0.00874659
11	0x3ca0f74f	0.019649176
12	0x3b085f55	0.0020808775
13	0x3c98b0bf	0.018638967
14	0x3b2eedf2	0.002669212
15	0x3c8771ca	0.016533751
16	0xbc580d3d	-0.01318675
17	0x3c4e6301	0.012596847
18	0xbc86c4f3	-0.016451335
19	0x3c6f8c85	0.014620905
20	0xbca436a6	-0.02004559
21	0x3c36f465	0.011166667
22	0xbc436995	-0.011927028
23	0xbbdadb03	-0.0066789403
24	0xbca9b74a	-0.020717282
25	0xbaec5975	-0.0018032031
26	0x3ce40d0d	0.027838254
27	0x3b5c573f	0.0033621339
28	0xbcb3c580	-0.021944761
29	0xbc24d863	-0.010061356
30	0x3c53110f	0.012882485
31	0xbcc280ef	-0.023743121
32	0xbbbdc4f0	-0.005791299
33	0xbc722743	-0.014779869
34	0x3c6b07b3	0.014345097
35	0x3c35db34	0.011099625
36	0xbb2539e8	-0.0025211517
37	0xbcdd313b	-0.027001014
38	0x3c2c23c0	0.01050657
39	0x3c48e408	0.012261398
40	0x3c39c803	0.01133919
41	0xbba74286	-0.0051043658
42	0x3b8c076a	0.0042733448
43	0x3bc57936	0.0060264124
44	0xbc2ec8f1	-0.010668025
45	0xb9cef61a	-0.00039474742
46	0xbbbaf6c3	-0.005705686
47	0x3bc08536	0.005875255
48	0xbcc497f7	-0.023998244
49	0x3a977e51	0.0011558031
50	0xbb759cb3	-0.0037477433
51	0xbc2be01c	-0.010490444
52	0xbc34c346	-0.011032885
53	0xbb3332e0	-0.0027343556
54	0xbc7582d4	-0.014984805
55	0x3c8d6d13	0.017263925
56	0x3cae5c65	0.021284292
57	0xba8fe27c	-0.0010977532
58	0xbbc49ed8	-0.006000381
59	0xbbebfb6b	-0.007201602
60	0x3b96505d	0.004587217
61	0xbb315869	-0.0027060753
62	0xbc7f48a8	-0.015581287
63	0x3c46b9f9	0.0121293

speformer.transformer.encoder.layers.0.linear1.weight f4 [256, 64]
0	0xbe70d4f2	-0.23518732
1	0x3d8293ad	0.06375823
2	0x3e14648d	0.14491482
3	0x3e10fb81	0.14158441
4	0xbcb60d55	-0.022223154
5	0xbd75eb51	-0.06003887
6	0xbd865934	-0.06559983
7	0x3de666c8	0.11250073
8	0xbe14e9ff	-0.14542387
9	0x3e0cfc44	0.13768107
10	0x3d22d09b	0.039749723
11	0x3c95b9b2	0.018277023
12	0x3ced30e2	0.028953973
13	0xbcacfdc8	-0.021117106
14	0xbd1ce412	-0.038303442
15	0x3de30272	0.11084451
16	0x3d9cf7b3	0.076644324
17	0x3d896dc9	0.06710393
18	0xbcdecba0	-0.027196705
19	0xbca833fa	-0.020532597
20	0xbd50dcd8	-0.050991863
21	0x3ca818b5	0.020519594
22	0xbdf94ef0	-0.12173259
23	0x3be23e98	0.0069044344
24	0xbe060253	-0.13086824
25	0xbe02c10e	-0.12768957
26	0x3d3e18b0	0.046410263
27	0x3c549e41	0.012977184
28	0xbddb8740	-0.10719156
29	0xbe090e9a	-0.13384476
30	0x3d99c24b	0.075077616
31	0xbe15b186	-0.14618501
32	0xbc9c42ab	-0.019074759
33	0xbce6a25e	-0.028153595
34	0x3d19cd5b	0.037549358
35	0xbc92d22b	-0.017922482
36	0x3e0f66e9	0.14004101
37	0xbdafb08d	-0.08578596
38	0xbd839fa8	-0.064269364
39	0x3d86c441	0.06580401
40	0x3e325736	0.17416081
41	0xbdbbcc80	-0.09169865
42	0x3bce5174	0.006296331
43	0x3d58a59d	0.052892316
44	0x3d6ef1e6	0.05833616
45	0x3ccde2e0	0.025132596
46	0xbd90b38c	-0.07065496
47	0xbe36f6b6	-0.1786755
48	0xbd840d13	-0.06447806
49	0xbdc86e12	-0.09786619
50	0x3d67401a	0.056457616
51	0x3d7b8d91	0.061414305
52	0xbdc208d1	-0.09474338
53	0xbde16f4a	-0.11007555
54	0x3c97f1fd	0.018548006
55	0x3d5f5d11	0.054532114
56	0x3d0ce2f2	0.03439612
57	0xbd109433	-0.035297584
58	0x3e15b31d	0.14619108
59	0x3dee4d92	0.11635889
60	0x3e1bed2f	0.15227197
61	0xbde2b20f	-0.11069118
62	0xbe1b12dd	-0.15143915
63	0x3d054907	0.032540347
64	0x3cc6155e	0.02418011
65	0x3d36bb54	0.044612244
66	0xbc0d70c5	-0.008632843
67	0xbd7ec44d	-0.062198926
68	0x3c5725e9	0.013131597
69	0x3de10b26	0.109884545
70	0x3d5145ff	0.051092144
71	0x3bbdd46e	0.005793146
72	0x3cb545b8	0.022127971
73	0xbd11624f	-0.035494145
74	0x3d0b70b9	0.034043048
75	0x3d995e5f	0.07488703
76	0x3d56a58e	0.05240398
77	0x3e108dac	0.14116544
78	0x3bdeeb85	0.0068029785
79	0xbd1dc737	-0.038520064
80	0xbdbc7415	-0.092018284
81	0x3e1762a8	0.14783728
82	0xbd5d025d	-0.053957332
83	0xbdaefe47	-0.08544593
84	0x3cb2f290	0.021844178
85	0xbe1b2026	-0.15148982
86	0x3dd3178b	0.10307225
87	0x3c97267b	0.018450966
88	0x3dac7350	0.084204316
89	0x3db994c9	0.09061582
90	0xbc51e7b0	-0.012811586
91	0x3d85c500	0.065317154
92	0x3cfd9a13	0.030957257
93	0x3da27ed5	0.079343475
94	0x3ddcd5e2	0.107829824
95	0x3dc9e5ed	0.09858308
96	0x3d1e8bdc	0.0387076
97	0x3b686879	0.0035462661
98	0xbda8b492	-0.08237566
99	0xbb798fa5	-0.0038080004
100	0x3d3dcb12	0.04633624
101	0xbd066da3	-0.0328194
102	0x3d54649a	0.051853754
103	0x3d35d6d0	0.044394314
104	0x3b9db727	0.004813093
105	0xbbc5ee7c	-0.0060403924
106	0x3a980e40	0.0011600927
107	0xbaf1c817	-0.0018446472
108	0xbe0a7fcc	-0.13525313
109	0x3d42b21a	0.047533132
110	0x3be2f398	0.0069260113
111	0xbcbb1f49	-0.022842066
112	0x3d037f52	0.032103844
113	0xbda5d21f	-0.08096718
114	0xbc8f1d78	-0.017470106
115	0xbcd17848	-0.02557005
116	0xbde5b3d9	-0.11215944
117	0x3e5a70b7	0.2133206
118	0x3dfe625a	0.12421103
119	0xbd155a8b	-0.0364633
120	0x3c02aba7	0.007975495
121	0x3bcd2167	0.0062600854
122	0xbdccfdc0	-0.100093365
123	0x3d8b899f	0.068133585
124	0xbda3c017	-0.079956226
125	0x3a316e56	0.00067684555
126	0xbe0a8b7e	-0.13529775
127	0x3b6ec4a0	0.0036433116
128	0xbcddd9be	-0.027081367
129	0x3d9848d9	0.074357696
130	0x3de3c58e	0.11121665
131	0xbe0090d4	-0.12555248
132	0xbe0f677f	-0.14004324
133	0xbcddfa9b	-0.027097037
134	0x3c4e3699	0.012586259
135	0x3e088d94	0.13335258
136	0x3d63c375	0.055606324
137	0x3deb9e46	0.11504798
138	0x3d0fdb76	0.035121404
139	0x3e0f260e	0.1397936
140	0x3e158eba	0.14605227
141	0xbd381018	-0.044937223
142	0x3de8fd42	0.1137643
143	0x3d654622	0.055975087
144	0xbd0bd7f6	-0.034141503
145	0x3c832f10	0.016013652
146	0xbd9587f7	-0.07301324
147	0xbcd879b5	-0.026425222
148	0xbe1634ea	-0.14668623
149	0x3da1523b	0.07877012
150	0xbd8931e7	-0.06698971
151	0x3cc09af2	0.023511384
152	0xbe0dcab0	-0.1384685
153	0x3e031aa5	0.12803133
154	0xbb00e59a	-0.0019668103
155	0xbced1f6b	-0.028945645
156	0xbde02040	-0.10943651
157	0x3c0bce52	0.008533077
158	0x3d8fe0a1	0.070252664
159	0xbd58f8c7	-0.052971628
160	0x3ceff61b	0.029292157
161	0x3cca4b41	0.024694087
162	0x3ca0fe18	0.019652411
163	0xbdc907fb	-0.09815975
164	0xbd5e5abd	-0.054285754
165	0xbb326cfc	-0.0027225604
166	0x3d9ee134	0.07757798
167	0xbd3b7475	-0.04576536
168	0xbb3221ef	-0.002718087
169	0xbc867972	-0.016415332
170	0x3cdaccdc	0.026709013
171	0x3df6b2a0	0.12045789
172	0xbd2beade	-0.041972034
173	0x3ca8ef40	0.020621896
174	0x3e254a0b	0.16141526
175	0xbd928818	-0.07154864
176	0x3d5eaba4	0.054362908
177	0x3c9d3124	0.019188471
178	0xbdc48e3b	-0.09597441
179	0xbd9873c0	-0.074439526
180	0xbe038767	-0.1284462
181	0x3e0bc7a3	0.13650374
182	0xbdb6e2e3	-0.08929994
183	0x3e0a0534	0.13478547
184	0x3e3033ee	0.1720731
185	0x3d831d3c	0.064020604
186	0x3da25bd9	0.07927675
187	0xbd5129fa	-0.051065423
188	0xbdd758d1	-0.10514987
189	0x3d9b1fe3	0.07574441
190	0xbe26f2a2	-0.16303495
191	0xbd9f36c5	-0.07774118
192	0x3e0e65a4	0.1390596
193	0x3db19c60	0.08672404
194	0x3dcbaa58	0.099446
195	0x3d10409f	0.035217877
196	0xbd915069	-0.07095415
197	0x3d8089ff	0.06276321
198	0x3dbff075	0.093720354
199	0x3dfc5b06	0.12322049
200	0x3d6f0a30	0.058359325
201	0xbda9166f	-0.08256232
202	0x3d776bea	0.06040565
203	0xbdcbdb2a	-0.099539116
204	0xbdc0f12a	-0.094209984
205	0xbc6ddb50	-0.01451762
206	0x3c807ce9	0.015684562
207	0x3c056e87	0.008144028
208	0xbd412836	-0.04715749
209	0xbbbf09ff	-0.005830049
210	0x3e0d2ea5	0.13787325
211	0xbd8309f8	-0.06398386
212	0x3cff3692	0.03115395
213	0xbc9fb609	-0.01949598
214	0x3d1870ce	0.037216954
215	0x3d6e7b72	0.058223195
216	0xbca36081	-0.019943478
217	0xbdaccb4f	-0.084372155
218	0x3dd047c1	0.10169936
219	0x3ca1af5a	0.019736934
220	0x3cc7ca52	0.024388466
221	0xbd6623db	-0.05618654
222	0xbdc28fa4	-0.095000535
223	0x3cbfd5a0	0.023417294
224	0xbdf022e5	-0.117254056
225	0x3de7fe0c	0.113277525
226	0xbcef6bd7	-0.029226227
227	0x3dd03e62	0.101681486
228	0x3dd1f352	0.10251488
229	0xbd8f82d2	-0.07007374
230	0xbd125f31	-0.035735313
231	0xbdc959a3	-0.0983155
232	0x3d8a7b64	0.06761816
233	0x3e0f7b5f	0.14011906
234	0xbe1a4f56	-0.15069327
235	0x3d95e15e	0.07318376
236	0x3cd14f46	0.025550496
237	0xbd9caac2	-0.07649757
238	0x3d2a7da0	0.04162371
239	0xbd200315	-0.03906544
240	0xbd392546	-0.045201562
241	0x3cf45389	0.029824989
242	0x3d82755f	0.06370043
243	0xbda9ce03	-0.08291247
244	0xbd898b4e	-0.067160234
245	0x3e264312	0.16236523
246	0xbddf2c43	-0.10897114
247	0xbd8845af	-0.06653916
248	0x3dc1d698	0.09464759
249	0xbdb07fdf	-0.086181395
250	0xbe15b141	-0.14618398
251	0x3d6578ec	0.056023523
252	0xbdede429	-0.11615784
253	0x3e408755	0.18801625
254	0xbe049567	-0.12947617
255	0xbe153316	-0.14570269
